cls/cls_model_8369.pth (torch, 158979 bytes, 17 tensors)

feat.conv3d_1.weight f4 [4, 8, 1, 5, 5, 5]
0	0x3f80e446	1.0069664
1	0xbfabd5fb	-1.3424677
2	0xbc3156b7	-0.010823897
3	0xbe5645ea	-0.20925108
4	0xbfc50c9f	-1.5394477
5	0x3e29a406	0.16566476
6	0xbfa1711d	-1.2612644
7	0xbe0267f7	-0.12734972
8	0x3fcf4396	1.61925
9	0xbee01493	-0.43765697
10	0x3dc3891a	0.095476344
11	0xbfcc9910	-1.5984211
12	0xbfcd75b2	-1.6051543
13	0xc029bed7	-2.652273
14	0x3f6c5447	0.923161
15	0x3f7087b1	0.9395705
16	0x3f9932fc	1.1968684
17	0xbf5da81f	-0.8658466
18	0x3e9ec561	0.31009963
19	0x3e693b2e	0.22776482
20	0x401587b0	2.3364067
21	0x3e865251	0.26234677
22	0xbf36bbbe	-0.7138022
23	0xbd9d128f	-0.076695554
24	0x3ed8d37b	0.42348847
25	0xbf08a780	-0.53380585
26	0xbfec1079	-1.8442527
27	0x3e3a6ab1	0.18204762
28	0x3f12743a	0.572086
29	0x3ed68d97	0.419049
30	0x3fe69a6f	1.8015879
31	0x3f122a55	0.57095844
32	0x3f02790f	0.5096597
33	0xbf881fef	-1.0634745
34	0xbe141687	-0.14461718
35	0x3f8dd70b	1.1081251
36	0xbee76940	-0.45197487
37	0xbf5641d2	-0.83694184
38	0xbf59e5da	-0.8511635
39	0xbcbe70cb	-0.023247143
40	0xbe9aab4c	-0.30208814
41	0x3f06a652	0.52597535
42	0x3eaf45e8	0.34233022
43	0x3f705910	0.938859
44	0xbec1293f	-0.3772678
45	0xbe3b7547	-0.18306457
46	0x3f04b169	0.51833206
47	0xbfea6a54	-1.8313699
48	0x3e39e433	0.18153457
49	0xbff05a1e	-1.8777502
50	0xbe9c2e85	-0.30504242
51	0x3fa326c3	1.2746204
52	0xbe4843d8	-0.1955713
53	0x3f494e65	0.78635246
54	0x3fbf2e82	1.4936068
55	0xbf9e028b	-1.2344526
56	0x3ebb6e6e	0.3660769
57	0x3f883285	1.0640417
58	0x3fca7a88	1.5818644
59	0x3e0aa294	0.13538581
60	0xc01e9ef3	-2.4784515
61	0x4015452c	2.332347
62	0x3cefdd62	0.029280368
63	0xbe2dcec1	-0.16973402
64	0xc028fb0d	-2.640323
65	0xbfacdb44	-1.3504415
66	0xbeefbb6c	-0.4682268
67	0x3f125aac	0.57169604
68	0xbf732ea2	-0.9499303
69	0x3d82585c	0.063645095
70	0xbf9c6ba6	-1.2220352
71	0xbf98e5ce	-1.1945131
72	0x3d9c6418	0.07636279
73	0x3f9e1317	1.2349576
74	0x3fccd790	1.6003284
75	0xbea416cf	-0.32048652
76	0x3eee2e3b	0.46519646
77	0x3e6c8c22	0.23100331
78	0xbfe03c43	-1.751839
79	0x3eff7b54	0.4989878
80	0x3fecb17f	1.8491668
81	0x3f6f2cd4	0.9342778
82	0xbf499099	-0.78736264
83	0x3f09c02b	0.5380885
84	0x3c9441b8	0.018097743
85	0x3dd05122	0.10171725
86	0x3dc04109	0.093874045
87	0x3f03c09e	0.51465786
88	0xbf8df876	-1.1091449
89	0x3e9c80ac	0.3056692
90	0xbfdca7a3	-1.7238659
91	0xbe698dc8	-0.22807992
92	0x400ca5e6	2.1976256
93	0x3e400497	0.18751751
94	0x3f13da1b	0.5775468
95	0xbf6846c9	-0.9073301
96	0xbfa7ad7a	-1.3099816
97	0xbf860c5d	-1.0472523
98	0x3ed1ba28	0.40962338
99	0xbf0df3e5	-0.5545028
100	0x3edb0c8c	0.4278301
101	0x3f7dcc6f	0.99140066
102	0x3f0bba98	0.54581594
103	0xbf0c22a6	-0.5474037
104	0x3f015fb0	0.5053663
105	0x3f5f0ed2	0.8713199
106	0xbd976269	-0.07391817
107	0x3edde3be	0.43337816
108	0x3e9855a9	0.29752854
109	0xbd04201d	-0.032257188
110	0x3e3f726a	0.18695989
111	0x3f820f76	1.0160968
112	0x3e8502a1	0.25978568
113	0xbf30c2d5	-0.6904729
114	0x3f985ad3	1.1902717
115	0x3f6f565c	0.9349115
116	0x3e152570	0.14565063
117	0xbbf38ffd	-0.007432936
118	0xbf25e25d	-0.6479853
119	0x3e2d1aef	0.16904806
120	0xbf787a17	-0.97061294
121	0x3d1b5b64	0.037928954
122	0xbfaaf4e5	-1.3355986
123	0x3de7e7db	0.1132352
124	0xbdece63a	-0.1156735
125	0xbec476a6	-0.38371772
126	0x3f4bd2df	0.7961864
127	0x3fe23c6b	1.7674688
128	0x3e92b80d	0.28656045
129	0xbff05482	-1.877579
130	0x3f7ecae4	0.99528337
131	0x3f9ed55e	1.2408864
132	0xbeeb99a9	-0.4601567
133	0xbf56b427	-0.8386864
134	0xbee94a01	-0.45564273
135	0x3db94956	0.09047191
136	0x3e03172a	0.12801805
137	0x3f395a07	0.72402996
138	0x3e373970	0.17893004
139	0x3d998956	0.07496898
140	0x3f4c209a	0.79737246
141	0xbf1ac10b	-0.6045081
142	0xbfa9e795	-1.3273798
143	0x3f261999	0.6488281
144	0x3e8fe7cd	0.28106537
145	0xbfc39c26	-1.5282028
146	0x3fe56a4a	1.7923062
147	0x3f19a848	0.600224
148	0xbec2c845	-0.3804342
149	0x3f6f958c	0.93587565
150	0x3f63f24e	0.890416
151	0x3e9706f2	0.29497486
152	0x3f8a3be7	1.0799531
153	0xbf9c098d	-1.2190415
154	0x3eb94df8	0.36192298
155	0xbfaffc94	-1.3748956
156	0xbd849d6d	-0.06475339
157	0xbed4b539	-0.41544512
158	0xbf483b43	-0.78215426
159	0x3d0557a2	0.032554276
160	0xbe937245	-0.28798118
161	0x3f7a5d9c	0.97799087
162	0xbedb4376	-0.42824906
163	0x3e32f14e	0.17474863
164	0x3f517cec	0.8183124
165	0x3fbb21ea	1.4619725
166	0x3e986965	0.2976791
167	0xbf685322	-0.9075185
168	0x3e1ba3fc	0.15199274
169	0xbeacc9ec	-0.33747804
170	0xbfb05acd	-1.377771
171	0x3fe82ce2	1.8138697
172	0x3d51a389	0.05118135
173	0x3e720252	0.23633698
174	0x3f7c0c7e	0.9845656
175	0xbfc1e8fa	-1.5149224
176	0x3e9f1b0c	0.31075323
177	0xbee0a18d	-0.43873253
178	0xbd8694ea	-0.06571372
179	0xbf3ad9fd	-0.72988874
180	0xbecb79ab	-0.39741263
181	0xbf51447b	-0.8174512
182	0xbe5b1ced	-0.21397753
183	0xbf1e0228	-0.6172204
184	0xbdd0d12f	-0.101961486
185	0xbe4e29b3	-0.20133094
186	0xbec0dcdf	-0.3766851
187	0xbfa3cee2	-1.2797511
188	0x3d7914d2	0.06081087
189	0x3ed96b24	0.42464554
190	0x3f67595b	0.9037072
191	0xbf294a62	-0.66129124
192	0x3f201c2e	0.62543
193	0x3fb257ea	1.3933079
194	0x3f185ab6	0.59513414
195	0xbf07339d	-0.5281313
196	0xbf2e5966	-0.6810516
197	0xbf7c1df7	-0.9848322
198	0xbf816f38	-1.0112066
199	0xbec6bd19	-0.38816145
200	0xbf8f5909	-1.1199046
201	0x3f9426ed	1.1574379
202	0x3ece696b	0.40314803
203	0xbf26d899	-0.6517425
204	0xbfd7da6a	-1.686353
205	0x3e6cadf9	0.2311324
206	0x3fa47966	1.2849548
207	0x3ebae0a7	0.3649952
208	0xbfc22554	-1.5167642
209	0x3eb44bd5	0.35214105
210	0xbc3f3a5c	-0.011671629
211	0xbecf4d8a	-0.40488845
212	0xbedba519	-0.42899397
213	0x3f9c60c6	1.2217033
214	0xbef77a95	-0.4833571
215	0x3e894009	0.26806667
216	0x3f5a29b5	0.8521989
217	0x3e3a2f3c	0.18182081
218	0xbd5086e0	-0.050909877
219	0xbdf04f42	-0.11733867
220	0xbfc309bd	-1.5237347
221	0x3fb9a1a7	1.4502457
222	0x3f0ed7ca	0.5579802
223	0xbf0455ac	-0.51693225
224	0xbfabb87d	-1.3415676
225	0xbfaaa962	-1.3332942
226	0x3e46fe35	0.1943291
227	0xc0146738	-2.3188
228	0x3f2da344	0.6782725
229	0xbe0550c4	-0.13019091
230	0xbf94725c	-1.15974
231	0x3ed38715	0.41313997
232	0x3fe7d0b0	1.8110561
233	0x3f7bb13c	0.98317313
234	0xbe19cfb6	-0.15020642
235	0x3f1e3322	0.6179677
236	0x3fa7feb5	1.3124605
237	0x3e4df05c	0.20111221
238	0x3fbab3c2	1.4586108
239	0xbe47550f	-0.19466041
240	0xbdf8b05f	-0.12143015
241	0xbf1ac5b5	-0.60457927
242	0x3f59c49b	0.8506562
243	0x3e002964	0.1251579
244	0x3f69a95b	0.9127404
245	0xbeda61e5	-0.42652813
246	0x3f11a866	0.5689758
247	0x3f01f873	0.5076973
248	0x3fb39221	1.402897
249	0xbe8a22ae	-0.26979584
250	0x3ec6980f	0.38787887
251	0x3e599a43	0.21250252
252	0xbfc37257	-1.5269269
253	0xbd2820f1	-0.04104704
254	0xbf4027f0	-0.7506094
255	0xbf4f604a	-0.810063

feat.conv3d_1.bias f4 [4, 8]
0	0xb95d0f72	-0.00021081956
1	0x3a163300	0.00057296455
2	0xb8815421	-6.1668696e-05
3	0xb9240c7b	-0.00015644908
4	0x3951536b	0.00019962869
5	0x3940ba15	0.00018379868
6	0x392eee7d	0.00016682777
7	0xba2cf63c	-0.0006597971
8	0xb95d0f72	-0.00021081956
9	0x3a163300	0.00057296455
10	0xb8815421	-6.1668696e-05
11	0xb9240c7b	-0.00015644908
12	0x3951536b	0.00019962869
13	0x3940ba15	0.00018379868
14	0x392eee7d	0.00016682777
15	0xba2cf63c	-0.0006597971
16	0xb95d0f72	-0.00021081956
17	0x3a163300	0.00057296455
18	0xb8815421	-6.1668696e-05
19	0xb9240c7b	-0.00015644908
20	0x3951536b	0.00019962869
21	0x3940ba15	0.00018379868
22	0x392eee7d	0.00016682777
23	0xba2cf63c	-0.0006597971
24	0xb95d0f72	-0.00021081956
25	0x3a163300	0.00057296455
26	0xb8815421	-6.1668696e-05
27	0xb9240c7b	-0.00015644908
28	0x3951536b	0.00019962869
29	0x3940ba15	0.00018379868
30	0x392eee7d	0.00016682777
31	0xba2cf63c	-0.0006597971

feat.conv3d_1.attention.fc2.weight f4 [4, 1, 1, 1, 1]
0	0xbf5a2e3a	-0.85226786
1	0xbe8b3268	-0.27186894
2	0xbcca1540	-0.024668336
3	0x3f2215b8	0.6331439

feat.bn2.weight f4 [8]
0	0x3f824af7	1.0179127
1	0x3f80e2e2	1.0069239
2	0x3f7aede1	0.98019224
3	0x3f7b7109	0.9821935
4	0x3f7c6a15	0.9859937
5	0x3f8081e8	1.0039644
6	0x3f81791d	1.0115086
7	0x3f831227	1.0239915

feat.bn2.bias f4 [8]
0	0x3cc62623	0.024188107
1	0x3cc09c51	0.023512037
2	0x3cc4bf62	0.02401704
3	0xbc8c599b	-0.017132571
4	0x3c2700e7	0.010193086
5	0xbc42f141	-0.01189834
6	0x3cd32287	0.0257733
7	0x3c82f63c	0.015986554

feat.bn2.running_mean f4 [8]
0	0x3eda6f40	0.42663002
1	0x3ed21e70	0.41038847
2	0x3ec2d37a	0.3805197
3	0x3f1dd607	0.61654705
4	0x3f883cd9	1.0643569
5	0xbeaca98b	-0.337231
6	0x3d3b793a	0.045769908
7	0xbe0472e0	-0.12934446

feat.bn2.running_var f4 [8]
0	0x400295f7	2.0404031
1	0x3fd6fddf	1.6796225
2	0x40026a00	2.0377197
3	0x408e66f9	4.45007
4	0x40b34a9a	5.6028566
5	0x3fc0d391	1.5064565
6	0x3ff86f40	1.9408951
7	0x3f36798e	0.7127923

feat.conv3d_2.weight f4 [4, 16, 8, 3, 3, 3]
0	0xbe455c88	-0.19273579
1	0x400def28	2.217722
2	0xbf61b846	-0.88171804
3	0xbd4e7d1e	-0.05041229
4	0xbe3b150d	-0.18269749
5	0x3f551bc5	0.832455
6	0x3f0f70d5	0.56031543
7	0x3f735ca0	0.9506321
8	0x3f2864d1	0.65778834
9	0x3f57ee35	0.8434785
10	0x3f0824e3	0.53181285
11	0x3f32c08d	0.6982506
12	0xbf7cfdbc	-0.9882467
13	0xc0031f0a	-2.0487695
14	0xc01151ed	-2.2706254
15	0x3f047623	0.5174276
16	0x3fe3989c	1.7780948
17	0x3e3605bc	0.17775625
18	0xbfc543b5	-1.5411288
19	0xc0286fb2	-2.6318173
20	0x3f22c7aa	0.63585913
21	0x3f29eb1b	0.6637437
22	0x3e36f98d	0.17868634
23	0x3f1fe0f7	0.62452644
24	0x3facdfae	1.3505762
25	0xbfde9b4c	-1.7391143
26	0xbdb4749c	-0.08811304
27	0xbf00e1da	-0.5034462
28	0x3fc949ea	1.5725682
29	0xbeaadd48	-0.3337195
30	0x3f0657b1	0.52477556
31	0x3e9c526d	0.30531636
32	0xbf04574a	-0.5169569
33	0x3f8a7439	1.0816718
34	0x3fa706dc	1.3048968
35	0x3f4a9270	0.79129696
36	0xbc9855c8	-0.018595591
37	0x3ee76487	0.45193884
38	0x3ea4e9d8	0.3220966
39	0xbffc8e50	-1.973093
40	0xbf6df6ec	-0.929549
41	0xbf1922b3	-0.5981857
42	0xbdaa816f	-0.08325469
43	0x3ff7ed79	1.9369346
44	0xbf10fb32	-0.56633294
45	0xbf928d32	-1.1449339
46	0x3e7291bc	0.23688406
47	0x3e5ca909	0.21548857
48	0x3d0193df	0.03163516
49	0xbe9cbfa7	-0.3061497
50	0x3de02ff8	0.10946649
51	0xbed2170d	-0.4103321
52	0xbdae3d80	-0.08507824
53	0xbe84e07e	-0.25952524
54	0xbf2288c9	-0.6348997
55	0x3e2d0b9e	0.16898963
56	0xbdb10b3a	-0.086447194
57	0xbf6f7353	-0.93535346
58	0xbedd3903	-0.4320756
59	0xbe1946f5	-0.14968474
60	0x3f459cc1	0.7719231
61	0x3f01d583	0.5071642
62	0xbf210427	-0.6289696
63	0xbf985496	-1.1900814
64	0xbfe026cd	-1.7511841
65	0x3f84655c	1.0343432
66	0xbf29b601	-0.6629334
67	0xbeaf6eb6	-0.34264153
68	0x3e497370	0.19672942
69	0x3fc3508e	1.5258958
70	0xbf62caa3	-0.8859045
71	0x3f8159fa	1.0105584
72	0x3f027fb4	0.5097611
73	0xbf4612e4	-0.77372575
74	0xbffcd1d7	-1.9751538
75	0xbfe8d1e1	-1.818905
76	0xc00df80a	-2.218264
77	0x3e1b1031	0.15142895
78	0x3ea34480	0.318882
79	0xbf3f553c	-0.7473943
80	0xbf291614	-0.66049314
81	0x3ea1089a	0.31451875
82	0x3f13c8a2	0.57728016
83	0xbfec6226	-1.8467453
84	0xbf8340ad	-1.0254112
85	0x3e490d52	0.19633988
86	0x3cf16387	0.029466404
87	0x3f2cc50f	0.6748819
88	0xbeae2c31	-0.3401809
89	0x3ed2a307	0.41140005
90	0x3f23db77	0.6400675
91	0xbec9724b	-0.3934501
92	0x3f0d952b	0.5530574
93	0xbf37a243	-0.71731967
94	0xbfa08493	-1.2540458
95	0xbfa6012b	-1.2969106
96	0x3ed678a6	0.41888922
97	0x3f5a4d01	0.8527375
98	0x3fdb64e7	1.7140168
99	0xbe3d6652	-0.18496063
100	0x4003afab	2.057597
101	0x3f5ca18c	0.86184
102	0xbf84f37f	-1.0386809
103	0xbf07f501	-0.5310822
104	0x3e5a446c	0.21315163
105	0xbf4e92ce	-0.80692756
106	0x40053671	2.0814478
107	0xbf5743a1	-0.8408757
108	0x3fa8d261	1.3189203
109	0x3fa75735	1.3073488
110	0x4023bfb1	2.558575
111	0x3efd241c	0.49441612
112	0xbda11366	-0.07865028
113	0xbfa20bdf	-1.2659873
114	0x3f1892cb	0.5959899
115	0xbf9a80c9	-1.2070552
116	0x3d0a357f	0.033742424
117	0x3f8716a9	1.055379
118	0x3f159d0d	0.58442765
119	0xc01eb0c1	-2.4795382
120	0x3f5a040d	0.8516243
121	0xbfae1e1a	-1.3602936
122	0xbeb4fa59	-0.3534725
123	0xbe4bb414	-0.19892913
124	0xbfb05aa8	-1.3777666
125	0x3f9fe570	1.2491894
126	0xbf536497	-0.8257536
127	0x3ecd64b1	0.40115884
128	0x3f810187	1.0078591
129	0xbf275c08	-0.65374804
130	0xbef1d80b	-0.4723514
131	0x3f49ecde	0.78877056
132	0x3f60efdc	0.87865996
133	0x3f9d7d1f	1.2303809
134	0x3f80944a	1.0045254
135	0xbc88af10	-0.016685039
136	0xbeaf2ca1	-0.34213737
137	0xbfacb4ab	-1.3492635
138	0x3e9b8a6f	0.30379054
139	0xbfae1a6b	-1.3601812
140	0x3cfaa717	0.030597253
141	0x400672ec	2.1007643
142	0xbf2d7e21	-0.6777058
143	0x3e41f336	0.18940434
144	0x3f123b9c	0.57122207
145	0x4002f9bc	2.0464926
146	0x3e29c79d	0.16580053
147	0xbf8c6328	-1.096776
148	0xbfba71ae	-1.4565942
149	0xbfb92a54	-1.4466043
150	0xbfbe3b1b	-1.4861788
151	0xbf0fae65	-0.5612548
152	0x3e549b85	0.20762451
153	0x3e820103	0.25391397
154	0xbfc9da9e	-1.5769842
155	0xbedbc9e0	-0.42927456
156	0xbf99c5b0	-1.2013454
157	0x3de07930	0.10960615
158	0xbf48095f	-0.781393
159	0xc01314ff	-2.2981565
160	0xbed88d4d	-0.42295304
161	0xbec7af49	-0.3900092
162	0x3fe69118	1.8013029
163	0xbf4aafa1	-0.7917424
164	0x3fb7794d	1.4333893
165	0xbf0abfde	-0.54199016
166	0xbfae66ca	-1.3625119
167	0x3f5df40c	0.8670051
168	0xbfe560bf	-1.792015
169	0xbdfa1ff5	-0.122131266
170	0xbdb9f174	-0.09079257
171	0x3ecbcb2a	0.3980344
172	0x3ea34b00	0.31893158
173	0xbf74c04b	-0.95605916
174	0xbf46e2fa	-0.7769009
175	0x3f2305e4	0.63680863
176	0xbff6f164	-1.9292417
177	0xbf356cfc	-0.7086942
178	0xbec4b078	-0.38415885
179	0xbf81ea78	-1.0149679
180	0x3f04a7eb	0.5181872
181	0xbee37005	-0.44421402
182	0xbeaab020	-0.33337498
183	0x3f98eea9	1.1947833
184	0x3e9e465e	0.3091306
185	0x3f1a3256	0.60233057
186	0xbe80f6cb	-0.25188288
187	0x3f9a74aa	1.2066853
188	0x3fb39916	1.4031093
189	0xbf00dfae	-0.5034131
190	0xbff3fd40	-1.9061661
191	0x3fb7c9d3	1.4358467
192	0xbfb4ec84	-1.4134679
193	0x3f47c4b3	0.78034514
194	0xbf1f779e	-0.62291896
195	0x3fd1a28d	1.6377732
196	0x40268f6e	2.6025043
197	0xbeda4d91	-0.42637303
198	0x3f0d7cb4	0.55268407
199	0xbf6b06a8	-0.9180703
200	0xc013db26	-2.3102508
201	0x3ea333b9	0.318754
202	0x3f3ece0f	0.7453317
203	0x3f9a8d1f	1.2074317
204	0xbdaaaf71	-0.08334244
205	0x3fb592cb	1.4185423
206	0x3eda8751	0.42681363
207	0xbf140320	-0.5781727
208	0xbe04c3ca	-0.12965313
209	0xbfaca3ad	-1.348745
210	0x3edad38f	0.4273953
211	0xbe5a5c62	-0.21324304
212	0xbec6f9d5	-0.38862482
213	0xbe98b3ef	-0.29824778
214	0xbf93805d	-1.1523548
215	0x3f2cf9d9	0.6756874
216	0xbf85d093	-1.0454277
217	0x3f891228	1.0708666
218	0xbff39ad0	-1.903162
219	0xbf9e8753	-1.2385048
220	0x3ed7b963	0.42133626
221	0x3e8c00ba	0.27344304
222	0x3fc92d93	1.5717033
223	0xbef22f71	-0.4730182
224	0x3f6691ce	0.9006623
225	0xbf5eef9f	-0.8708438
226	0x3f8a5c60	1.0809441
227	0x3ef03c5f	0.4692106
228	0x3f9d2844	1.2277913
229	0xc005f11d	-2.0928414
230	0xbde2d12b	-0.11075052
231	0xbf12541c	-0.5715959
232	0xbf8ab8d9	-1.0837661
233	0xbf30fa2f	-0.6913175
234	0xbdf5f4d4	-0.12009588
235	0xbf6f97dd	-0.935911
236	0xbf1f14d9	-0.62141186
237	0xbdbae013	-0.0912477
238	0x3f82aef5	1.0209643
239	0xbf50cbf0	-0.81561184
240	0x3fd38187	1.6523904
241	0x3fdaa7da	1.7082474
242	0xbf13c3fb	-0.5772092
243	0x3e41ea92	0.18937138
244	0xbfc363e9	-1.5264865
245	0x3e90713b	0.28211388
246	0x3ff219bf	1.8914107
247	0xbe863196	-0.26209706
248	0x3fa720e6	1.3056915
249	0xbe49874e	-0.19680521
250	0x3f942e92	1.1576712
251	0x3e650e66	0.22368774
252	0xbf62e9c2	-0.88637936
253	0x3e953010	0.2913823
254	0x3e83b71b	0.25725636
255	0xbe383b18	-0.17991292

feat.conv3d_2.bias f4 [4, 16]
0	0xbc83779f	-0.01604825
1	0x3c2590f8	0.010105364
2	0xbc5ac2dc	-0.013352122
3	0xbbdd921f	-0.0067618038
4	0xbc7963e0	-0.015221566
5	0x3b5f57c9	0.0034079424
6	0xbc1ab0b3	-0.009441542
7	0x3b5caa5a	0.0033670873
8	0xbc9bb42d	-0.019006813
9	0xbcb19258	-0.021676227
10	0xbc8ddd38	-0.0173174
11	0xbc99698f	-0.018727092
12	0x3ca1b465	0.01973934
13	0xba2f029f	-0.0006676111
14	0x3c2a355f	0.010388701
15	0xba1158ab	-0.00055445236
16	0xbc7fa5ce	-0.015603496
17	0xba393b42	-0.000706602
18	0xbc62567f	-0.013814568
19	0xbb9d6251	-0.00480298
20	0xbc8a581c	-0.016887717
21	0xb95f36be	-0.0002128733
22	0xbc40487f	-0.011736034
23	0xbb4e7317	-0.0031501704
24	0xbc9ac1ee	-0.018891301
25	0xbcb52f63	-0.022117322
26	0xbc8d13e9	-0.017221408
27	0xbc85d316	-0.016336005
28	0x3c9b84c6	0.01898421
29	0xb9cd67e7	-0.0003917806
30	0x3c33b7f4	0.010969151
31	0x39404efc	0.00018339971
32	0x3c9df6a9	0.019282656
33	0xbb8b0b6d	-0.0042433054
34	0xbc209fa5	-0.009803687
35	0x3cc17bfc	0.02361869
36	0x3b95890a	0.0045634555
37	0xbc3029e4	-0.010752175
38	0x3bb7d74c	0.005610382
39	0xbb421198	-0.0029612537
40	0x3cc2ed5b	0.02379482
41	0x3c68adfb	0.014201636
42	0x3c461119	0.012089037
43	0x3cd2ebb7	0.025747163
44	0x3c8c5b1a	0.017133284
45	0x3c3fb9a2	0.011701973
46	0x3ae2e877	0.0017311712
47	0x3c2d4e4c	0.010577749
48	0xbc9d83c6	-0.019227874
49	0x3a7ea06b	0.0009713235
50	0x3ca3eeb9	0.020011293
51	0xbcce1c59	-0.025160002
52	0x3c051169	0.008121827
53	0x3c4e71f8	0.012600414
54	0x3a25fe13	0.00063321105
55	0x3b85b884	0.004080834
56	0xbcce8295	-0.02520875
57	0x3ab3a044	0.0013704379
58	0xb88cf319	-6.721001e-05
59	0xbcd4723c	-0.025933377
60	0xbcc90054	-0.02453629
61	0xbca0d748	-0.019633904
62	0xbc502e25	-0.012706314
63	0xbc7d723c	-0.01546913

feat.conv3d_2.attention.fc1.weight f4 [3, 8, 1, 1, 1]
0	0x3e68bd10	0.22728372
1	0x3ceb2892	0.028705869
2	0xbe6fb6a9	-0.23409523
3	0x3d4214d8	0.04738316
4	0x3cbec4aa	0.023287136
5	0xbe13e187	-0.144415
6	0x3eb307de	0.3496694
7	0x3d84e7cb	0.064895235
8	0xbb74563b	-0.0037282843
9	0xbe6d7f1c	-0.2319302
10	0xbe581556	-0.21101889
11	0xbc5dff37	-0.0135496175
12	0x3e8cb9fb	0.27485642
13	0x3e7c6073	0.24646167
14	0x3e75918e	0.23981306
15	0xbe5e4e53	-0.21709566
16	0x3d7b5020	0.06135571
17	0xbe908484	-0.282261
18	0x3e113edf	0.1418414
19	0xbe2bc0ad	-0.16772719
20	0x3e0c3870	0.13693404
21	0x3e4eb0f7	0.20184694
22	0xbe0e0e52	-0.1387265
23	0xbe2b966c	-0.167566

feat.conv3d_2.attention.fc2.weight f4 [4, 3, 1, 1, 1]
0	0x3ef09b0e	0.46993297
1	0xbf15ac56	-0.5846609
2	0xbed5857f	-0.41703412
3	0x3ee3d172	0.44495732
4	0xbf1302da	-0.57426226
5	0x3ea662ee	0.32497352
6	0x3c88a477	0.016679985
7	0xbef09e95	-0.46995988
8	0xbe847c50	-0.25876093
9	0x3f08d4d6	0.5344976
10	0x3e3b1692	0.18270329
11	0x3ecae088	0.3962443

feat.bn3.weight f4 [16]
0	0x3f82b879	1.0212547
1	0x3f82bde7	1.0214204
2	0x3f82f1be	1.0230024
3	0x3f83211c	1.0244479
4	0x3f831498	1.024066
5	0x3f82f25c	1.0230212
6	0x3f82bb15	1.0213343
7	0x3f82c049	1.0214931
8	0x3f82fba2	1.0233042
9	0x3f828cf2	1.0199263
10	0x3f82af3e	1.020973
11	0x3f82d97c	1.0222621
12	0x3f82cf68	1.0219545
13	0x3f830197	1.023486
14	0x3f834dcd	1.0258118
15	0x3f82fbf8	1.0233145

feat.bn3.bias f4 [16]
0	0x3cb6d057	0.022316141
1	0x3c93c7b9	0.018039571
2	0x3cad3dbf	0.021147607
3	0x3ccdebac	0.025136791
4	0x3cb5c948	0.022190705
5	0x3ca904f7	0.02063225
6	0x3c976e74	0.018485285
7	0x3c9332f3	0.01796863
8	0x3cc2705e	0.023735221
9	0x3ca79994	0.020458974
10	0x3c9d2d23	0.019186562
11	0x3cb03f01	0.021514418
12	0x3ca64479	0.020296322
13	0x3cb91e7a	0.02259754
14	0x3cd1ee2f	0.02562627
15	0x3cc44724	0.023959704

feat.bn3.running_mean f4 [16]
0	0x40be2cc3	5.942964
1	0xc14ba3dc	-12.727505
2	0xc0a918c9	-5.2842755
3	0x3fad64f6	1.3546436
4	0x403b6014	2.9277391
5	0xc0cdf767	-6.4364505
6	0xc15b574e	-13.708815
7	0xc12db019	-10.855493
8	0x3e7cd632	0.24691084
9	0x40c2dcce	6.0894537
10	0x412c7af6	10.78002
11	0x400b3e8a	2.175692
12	0xc0c84486	-6.2583647
13	0x3fcf7e3b	1.6210397
14	0x40893722	4.28798
15	0x40e5bbc5	7.179171

feat.bn3.running_var f4 [16]
0	0x430b0a4a	139.04019
1	0x4302cb7c	130.79486
2	0x425b092b	54.758953
3	0x42beceaa	95.40364
4	0x4295e225	74.94169
5	0x42e98db2	116.77675
6	0x43258d4d	165.55196
7	0x434e1dd7	206.11656
8	0x423c3b3c	47.057846
9	0x4290013f	72.00243
10	0x431a612b	154.37956
11	0x42a2aa05	81.33207
12	0x42ce51bb	103.15963
13	0x429324f0	73.57214
14	0x4238e4b5	46.223347
15	0x427456ed	61.08489

mlp.fc2.weight f4 [10, 2000]
0	0xbc090cc9	-0.008364865
1	0xbb737d1d	-0.003715343
2	0xbc8b242c	-0.016985022
3	0x3c17c4aa	0.009263197
4	0xbd0a0996	-0.033700548
5	0x3ca316c1	0.01990831
6	0x3c7e4640	0.015519679
7	0x3b8ca034	0.0042915586
8	0xbc421807	-0.011846549
9	0xbc8ef6ab	-0.017451605
10	0xbc77ec6f	-0.015132054
11	0x3c21fe18	0.009887241
12	0x3cb09d7d	0.021559471
13	0xbbce079a	-0.0062875273
14	0xbacca650	-0.001561353
15	0x3c42355b	0.011853541
16	0x3c9a92a7	0.018868757
17	0x3c54bf57	0.012985072
18	0xbc950fde	-0.018196043
19	0xbb0300d9	-0.001998952
20	0x3be0b381	0.006857336
21	0xbc7e2145	-0.015510862
22	0xbbf88070	-0.0075836703
23	0x3b55b7a8	0.0032610688
24	0xbbd4c99f	-0.0064937617
25	0xbbbc8d59	-0.0057541546
26	0x3c4112c9	0.011784264
27	0x3c98bdcc	0.01864519
28	0xbcc36978	-0.023854002
29	0xba6d951e	-0.0009063053
30	0x3c535f9d	0.012901214
31	0x3b0bc411	0.0021326581
32	0xbc84bd33	-0.016203498
33	0xbc9476a2	-0.018122975
34	0xbb2848f3	-0.0025678247
35	0xbc32b78f	-0.010908022
36	0xbc0d3ac7	-0.008619971
37	0xbc052666	-0.008126831
38	0x3c596651	0.013269023
39	0x3c409509	0.011754283
40	0x3c6420fa	0.013923878
41	0xbca4c8db	-0.020115307
42	0x3c40c8bd	0.01176661
43	0x3a3e77f8	0.00072658015
44	0xbc02dee0	-0.007987708
45	0xbcb41c44	-0.021986134
46	0x3b5fa7c9	0.0034127107
47	0x3a8eb75a	0.0010888383
48	0x3c1a6f00	0.0094258785
49	0x39e4c57e	0.00043634692
50	0x3b9f4700	0.004860759
51	0xbc441412	-0.011967676
52	0xbb9eb9ee	-0.004843942
53	0xba8ee3cc	-0.0010901629
54	0xbb233b4c	-0.002490717
55	0xbc4f8122	-0.012665065
56	0xbbf8f7e7	-0.0075979116
57	0xbb10f8d2	-0.0022120965
58	0xbc9696d9	-0.018382477
59	0xbbdd12a0	-0.006746605
60	0x3bb2fa3c	0.005461959
61	0x3c930708	0.017947689
62	0xbc0436d1	-0.00806971
63	0x3c2b5177	0.010456434
64	0x3c3aabb4	0.011393476
65	0x3cadc7c8	0.021213427
66	0x3cb6643f	0.022264598
67	0x3bdea986	0.006795111
68	0x3c36b9b1	0.011152671
69	0x3b58b723	0.0033068142
70	0x3c54057c	0.012940761
71	0xbbb79fba	-0.0056037577
72	0xbc7a7b9c	-0.01528826
73	0xbc8ebf7c	-0.017425291
74	0xbbdfc7d2	-0.0068292404
75	0xbb7890d9	-0.0037928133
76	0xbc353f41	-0.011062444
77	0x3c4678e0	0.01211378
78	0xbc025cc2	-0.0079566855
79	0xbcdf9c73	-0.02729628
80	0xbc95b8aa	-0.018276531
81	0x3afca9f3	0.0019276723
82	0x3c89355d	0.016749078
83	0xbc25a952	-0.01011117
84	0x3bbf3cb5	0.0058360943
85	0x3c03a204	0.008034233
86	0xbbdaae47	-0.0066736075
87	0x3c7621bb	0.01502269
88	0xbc806eea	-0.015677888
89	0x3bb9f1a4	0.0056745578
90	0x3c384bef	0.011248573
91	0x3c1871c9	0.009304472
92	0x3bfab627	0.007651109
93	0xbba67ed1	-0.0050810357
94	0xbbd22ede	-0.0064142784
95	0xbc447b52	-0.0119922925
96	0x3c8d1810	0.017223388
97	0xbcaf5396	-0.021402162
98	0xbc0ea845	-0.008707111
99	0xbb1d1fe3	-0.0023975305
100	0xbcab5aec	-0.020917378
101	0xbc82febc	-0.015990607
102	0xbc6ce9ea	-0.014460066
103	0x3bcf264c	0.006321704
104	0xbceaf540	-0.028681397
105	0xbc9b5dd7	-0.018965645
106	0x3c1100c8	0.008850284
107	0x3b4b9d96	0.003106927
108	0xbc89fd3d	-0.016844386
109	0xba8a8d65	-0.0010570703
110	0xbc8fc187	-0.017548336
111	0x3b96a006	0.004596713
112	0x3b6282cc	0.0034562824
113	0x3a31c9bd	0.00067820755
114	0x3b111b66	0.0022141575
115	0x3c652272	0.013985263
116	0xbc2270f9	-0.00991463
117	0x3ba06c53	0.0048957258
118	0xbb884f0b	-0.0041598133
119	0xbca744e4	-0.020418592
120	0xbc8ed1b9	-0.017433988
121	0xbc5129ed	-0.012766344
122	0xbbfc304a	-0.007696186
123	0x3b210fab	0.002457599
124	0xbcc633f4	-0.024194695
125	0x3c7aa70b	0.015298615
126	0xbbe24d8c	-0.006906217
127	0xba77ba9b	-0.00094501086
128	0xbcc96f2c	-0.024589144
129	0x3c5362ac	0.012901943
130	0x3c8ba4ab	0.017046293
131	0xbbc8ec5f	-0.0061316933
132	0xbc9543bf	-0.01822078
133	0xbba88aac	-0.005143484
134	0xbca2ac24	-0.019857474
135	0xbc96e29e	-0.018418606
136	0xbcba9b76	-0.022779208
137	0xbcd3d849	-0.025859969
138	0xbc300c50	-0.010745123
139	0xbca3866c	-0.019961558
140	0x3c6dfbeb	0.014525394
141	0xbcb5a8c0	-0.022175193
142	0xbc38b2c0	-0.011273086
143	0x3c313e80	0.010818124
144	0xbca3ac5a	-0.019979645
145	0xbc91b535	-0.017786602
146	0x3c8c59fe	0.017132755
147	0x3c403eee	0.011733754
148	0xbcab205f	-0.02088946
149	0x3c321645	0.010869567
150	0xbc8d4fee	-0.017250028
151	0xbcd82800	-0.026386261
152	0xbc6bb010	-0.014385238
153	0xbb8d331f	-0.0043090726
154	0xbcb3a65e	-0.021929916
155	0xbc82e93e	-0.01598036
156	0xbc3ff402	-0.011715891
157	0xbad99c81	-0.0016602428
158	0xb9b71f42	-0.0003492777
159	0xbb9e5077	-0.0048313695
160	0xbc555ab0	-0.01302211
161	0x3bef2779	0.0072984067
162	0xbcb01ef1	-0.021499129
163	0xbc551321	-0.013005049
164	0xbc992247	-0.018693103
165	0x3bd0fae4	0.0063775647
166	0x3bd3aa96	0.0064595444
167	0x3c92a05b	0.01789873
168	0x3c0efd36	0.008727362
169	0x3bbad68e	0.0057018464
170	0x3c919d62	0.017775241
171	0x3b15283e	0.0022759582
172	0xbc80e305	-0.015733251
173	0xbb895a4a	-0.0041916715
174	0x3c2845bd	0.010270533
175	0x3c69196c	0.014227252
176	0xbbd160f8	-0.0063897334
177	0xbba4040f	-0.0050053666
178	0x3c3e1105	0.011600737
179	0xbc8d8a43	-0.017277842
180	0xbc92bbb4	-0.01791177
181	0xbb27a49b	-0.002558029
182	0x3bb07e4b	0.005386149
183	0x3c139040	0.00900656
184	0x3b589695	0.0033048738
185	0xbcb1c646	-0.02170099
186	0x3c3172ea	0.01083062
187	0x3cf9ebba	0.030507911
188	0xbc09e17c	-0.008415576
189	0x3b59f5ff	0.0033258197
190	0x3c69af14	0.014262933
191	0xbc1c391a	-0.009535098
192	0x3c1181d1	0.008881048
193	0x3a55f0b0	0.00081611704
194	0xbbf02e8e	-0.0073297685
195	0x3bd3cef5	0.00646388
196	0x3cc2eaa9	0.023793535
197	0x3c7b67c4	0.015344564
198	0xbc6db01c	-0.01450732
199	0xbc72d3aa	-0.014820972
200	0xbb8c4b8b	-0.0042814664
201	0xbc8ec1bd	-0.017426366
202	0xbbb80af0	-0.005616538
203	0xbc76f49c	-0.015072968
204	0xbbce4482	-0.006294788
205	0xbcb8f144	-0.022575982
206	0x3c029c9f	0.007971912
207	0x3cdc0fb5	0.026862958
208	0xbbb5ba63	-0.0055459007
209	0xbc564ae5	-0.01307938
210	0x3c3185f6	0.010835161
211	0xbc7e89b3	-0.01553576
212	0x3c1d26ce	0.009591771
213	0x3ca92821	0.020649018
214	0x3c630de6	0.013858294
215	0xbcaf68bd	-0.021412248
216	0x3cb4793c	0.022030465
217	0xbc11055e	-0.008851377
218	0x3c6a7b1d	0.014311579
219	0x3cc7b3e5	0.024377773
220	0xbc5ed217	-0.013599894
221	0x3c8fe6e6	0.017566156
222	0xbc6d1127	-0.0144694215
223	0x3c87bd68	0.016569808
224	0x3c61e029	0.013786354
225	0x3bfea51a	0.0077711465
226	0xbc874972	-0.016514514
227	0xbc1cc272	-0.009567844
228	0xbad20c0a	-0.0016025316
229	0x3c0ed671	0.008718119
230	0x3a7b28bc	0.000958096
231	0xbcd9e3a3	-0.026597803
232	0xbcc033d4	-0.023462214
233	0x3b00b0c6	0.0019636615
234	0xbbab460f	-0.0052268575
235	0x3b086bdd	0.0020816245
236	0xbb1d4ada	-0.0024000914
237	0x3c9afb4e	0.01891866
238	0xbc908574	-0.01764176
239	0xbcaf0479	-0.021364437
240	0x3c674f86	0.014118081
241	0x3c0cf53a	0.008603388
242	0x3a949d43	0.0011338372
243	0x39f79367	0.00047221335
244	0xbc292e70	-0.010326013
245	0xbb4d4574	-0.0031321915
246	0x3abd0c12	0.0014423153
247	0xbb4150da	-0.0029497654
248	0x3c771d31	0.015082643
249	0xbb8af26a	-0.004240324
250	0x3b92e828	0.0044832416
251	0x3c337196	0.010952374
252	0xbab753e6	-0.0013986796
253	0x3c2f6bcd	0.010706854
254	0x3c1c5b22	0.009543212
255	0x3b07dadd	0.0020729818

mlp.fc2.bias f4 [10]
0	0xbc5932ee	-0.0132567715
1	0x3cc2d4f8	0.023783192
2	0xbcd37c47	-0.025816096
3	0x3c1a37ff	0.009412765
4	0x3c90958d	0.017649436
5	0xbbe9a68d	-0.00713045
6	0xbbabc6ab	-0.005242189
7	0xbca59d0c	-0.020216487
8	0xbc576a86	-0.013147956
9	0x3cc631c3	0.02419365
