cls/cls_model_8856.pth (torch, 158979 bytes, 17 tensors)

feat.conv3d_1.weight f4 [4, 8, 1, 5, 5, 5]
1.0010374 -1.3609328 -0.026167238 -0.22110869 -1.5610862 0.16591513 -1.2770996 -0.14025912
1.6068712 -0.45736137 0.09662591 -1.6257352 -1.6171336 -2.6632605 0.9024443 0.95266193
1.1794478 -0.86970496 0.3015353 0.20679629 2.3323457 0.23745574 -0.72020704 -0.092391476
0.39925596 -0.54534155 -1.8490487 0.17253329 0.5653839 0.39619008 1.7947962 0.5670948
0.50105464 -1.0751233 -0.16905907 1.1071283 -0.4681379 -0.8424103 -0.8635657 -0.05137191
-0.29633188 0.5158655 0.3427837 0.9272875 -0.40695196 -0.19001317 0.50464165 -1.831738
0.16384001 -1.9101081 -0.29886955 1.2974439 -0.16893154 0.79679585 1.4718943 -1.2305926
0.384206 1.083608 1.578558 0.11051558 -2.466581 2.339684 0.05159308 -0.1703193
-2.6704774 -1.3346783 -0.45323646 0.6011342 -0.9494409 0.032128867 -1.2194797 -1.186691
0.1009031 1.2265295 1.5649618 -0.3231441 0.4840196 0.2650759 -1.7424265 0.4661844
1.8424039 0.9475547 -0.7576808 0.5415488 -0.015363604 0.09854583 0.09537555 0.5426934
-1.1057333 0.26638553 -1.7210758 -0.21690188 2.2306185 0.19702613 0.53517276 -0.9091162
-1.2992295 -1.0178983 0.41166297 -0.6020297 0.4109998 0.972531 0.53745365 -0.55835444
0.47767693 0.85845375 -0.0885744 0.4271102 0.28350207 -0.057752047 0.18381271 0.99565643
0.25533274 -0.70440453 1.157577 0.936421 0.13216428 -0.008095014 -0.6642351 0.13205466
-0.98412824 0.016751971 -1.3388348 0.09087866 -0.15680602 -0.39824915 0.7810636 1.7869496
0.28565714 -1.906635 0.9827972 1.2314885 -0.43714747 -0.8373748 -0.48744205 0.063887276
0.100701295 0.7382334 0.17988183 0.042790167 0.7675151 -0.6342475 -1.3158909 0.65174645
0.25256306 -1.5627434 1.7579899 0.60609686 -0.38838345 0.90458846 0.8789443 0.2807314
1.08394 -1.2257016 0.3461639 -1.3827058 -0.07099715 -0.40835193 -0.78391266 0.012505565
-0.313957 0.9565934 -0.43381223 0.17030245 0.80099684 1.4397185 0.27213028 -0.9173048
0.14728062 -0.35279566 -1.4014916 1.7883645 0.03654041 0.22180134 0.96138054 -1.5175716
0.30534208 -0.4374156 -0.07371883 -0.75131506 -0.39721254 -0.8182375 -0.21013673 -0.61454844
-0.11966327 -0.21570015 -0.3893932 -1.2779808 0.05982665 0.4038054 0.8820718 -0.6786939
0.6229787 1.4000129 0.58608663 -0.5507461 -0.69854283 -0.9830538 -1.0102478 -0.40149748
-1.1008999 1.1700553 0.42403498 -0.6453982 -1.6905643 0.25599217 1.3084111 0.3894251
-1.5058435 0.35034123 -0.007775824 -0.39820483 -0.4081695 1.2332376 -0.47912127 0.27776942
0.8575056 0.20636797 -0.03046921 -0.10768962 -1.528475 1.4512991 0.57905674 -0.49664068
-1.3318815 -1.3225945 0.1870096 -2.3079765 0.6739764 -0.14667441 -1.1496764 0.41128033
1.820727 0.9799506 -0.167157 0.60911095 1.2978666 0.2069714 1.4517666 -0.21220657
-0.113663696 -0.61051744 0.8651878 0.12995304 0.89646924 -0.42513135 0.56747645 0.5262507
1.4065897 -0.28727576 0.38333565 0.20065016 -1.5220469 -0.022521097 -0.72076267 -0.83289075
00000000: fe21 803f 0c33 aebf ad5c d6bc 516a 62be
00000010: acd1 c7bf a8e5 293e 0078 a3bf 16a0 0fbe
00000020: f5ad cd3f 452b eabe cee3 c53d 1718 d0bf
00000030: 3cfe cebf dc72 2ac0 9706 673f a7e1 733f
00000040: 25f8 963f fca4 5ebf d662 9a3e 68c2 533e
00000050: 2745 1540 9927 733e 7d5f 38bf be37 bdbd
00000060: 476b cc3e 819b 0bbf a1ad ecbf 91ac 303e
00000070: 00bd 103f 6dd9 ca3e e2bb e53f 202d 113f
00000080: 1e45 003f a49d 89bf d21d 2dbe 61b6 8d3f
00000090: c5af efbe 34a8 57bf a412 5dbf 5a6b 52bd
000000a0: d0b8 97be c30f 043f 5881 af3e b762 6d3f
000000b0: 025c d0be d092 42be 3230 013f 6476 eabf
000000c0: adc5 273e 6c7e f4bf 6e05 99be a412 a63f
000000d0: 64fc 2cbe d0fa 4b3f 0867 bc3f 0f84 9dbf
000000e0: a6b6 c43e abb3 8a3f 300e ca3f fe55 e23d
000000f0: 77dc 1dc0 62bd 1540 4453 533d 2f68 2ebe
00000100: 1ae9 2ac0 bdd6 aabf 9c0e e8be eee3 193f
00000110: 8f0e 73bf 8f99 033d e917 9cbf 7ee5 97bf
00000120: 49a6 ce3d ebfe 9c3f ab50 c83f 2573 a5be
00000130: 6bd1 f73e 07b8 873e d507 dfbf b9af ee3e
00000140: e4d3 eb3f f292 723f 5ef7 41bf f1a2 0a3f
00000150: a0b7 7bbc 65d2 c93d 4254 c33d f4ed 0a3f
00000160: ab88 8dbf af63 883e 364c dcbf 871b 5ebe
00000170: 74c2 0e40 38c1 493e 1501 093f d7bb 68bf
00000180: 274d a6bf 7e4a 82bf 7dc5 d23e 9e1e 1abf
00000190: 916e d23e cbf7 783f 9096 093f 51f0 0ebf
000001a0: 1292 f43e a0c3 5b3f 7f66 b5bd 30ae da3e
000001b0: 2f27 913e 698d 6cbd 6639 3c3e 57e3 7e3f
000001c0: f9ba 823e db53 34bf 7c2b 943f 49b9 6f3f
000001d0: 1356 073e f3a0 04bc 500b 2abf 5639 073e
000001e0: d4ef 7bbf 6e3b 893c f05e abbf 971e ba3d
000001f0: c291 20be 50e7 cbbe c9f3 473f c4ba e43f
00000200: a741 923e 9e0c f4bf 9998 7b3f 6aa1 9d3f
00000210: cbd1 dfbe 325e 56bf 0192 f9be 55d7 823d
00000220: 7b3c ce3d ddfc 3c3f f132 383e be44 2f3d
00000230: df7b 443f 0b5e 22bf 1d6f a8bf dbd8 263f
00000240: f24f 813e fa07 c8bf d005 e13f 2a29 1b3f
00000250: 32da c6be 1c93 673f 7e02 613f 07bc 8f3e
00000260: 8cbe 8a3f cae3 9cbf 653c b13e 81fc b0bf
00000270: f466 91bd 8113 d1be 80ae 48bf 24e4 4c3c
00000280: f9be a0be 4ee3 743f a31c debe c463 2e3e
00000290: 210e 4d3f b248 b83f a954 8b3e 7dd4 6abf
000002a0: bbd0 163e a2a1 b4be 1464 b3bf 21e9 e43f
000002b0: 66ab 153d e41f 633e 091d 763f c93f c2bf
000002c0: cc55 9c3e f0f4 dfbe e6f9 96bd 2f56 40bf
000002d0: 715f cbbe 0378 51bf 152e 57be 0c53 1dbf
000002e0: 0412 f5bd 80e0 5cbe 8c5e c7be e094 a3bf
000002f0: ca0c 753d 95bf ce3e 75cf 613f e2be 2dbf
00000300: 887b 1f3f 9f33 b33f c609 163f b2fd 0cbf
00000310: b4d3 32bf 6aa9 7bbf cd4f 81bf 1491 cdbe
00000320: 4aea 8cbf 5fc4 953f 1d1b d93e d138 25bf
00000330: 6964 d8bf 6811 833e 047a a73f ba62 c73e
00000340: 7bbf c0bf ed5f b33e 57cc febb 81e1 cbbe
00000350: 98fb d0be bbda 9d3f 624f f5be cb37 8e3e
00000360: 7d85 5b3f 2052 533e 919a f9bc 608c dcbd
00000370: 12a5 c3bf 2bc4 b93f 103d 143f b047 febe
00000380: 187b aabf c74a a9bf 727f 3f3e e3b5 13c0
00000390: b889 2c3f d131 16be 9928 93bf 5693 d23e
000003a0: 950d e93f 0bde 7a3f 342b 2bbe b2ee 1b3f
000003b0: 7e20 a63f 50f0 533e 7dd3 b93f ae4c 59be
000003c0: 83c8 e8bd df4a 1cbf f37c 5d3f 6912 053e
000003d0: 027f 653f d1aa d9be 2346 113f 5eb8 063f
000003e0: 220b b43f cf15 93be 9244 c43e 3c77 4d3e
000003f0: 6fd2 c2bf 2a7e b8bc e783 38bf 5438 55bf

feat.conv3d_1.bias f4 [4, 8]
-0.0005908919 0.00016301725 -0.00070549484 -4.4144563e-05 0.00031942068 -0.00061899546 0.000296115 -0.0009919133
-0.0005908919 0.00016301725 -0.00070549484 -4.4144563e-05 0.00031942068 -0.00061899546 0.000296115 -0.0009919133
-0.0005908919 0.00016301725 -0.00070549484 -4.4144563e-05 0.00031942068 -0.00061899546 0.000296115 -0.0009919133
-0.0005908919 0.00016301725 -0.00070549484 -4.4144563e-05 0.00031942068 -0.00061899546 0.000296115 -0.0009919133
00000000: 16e6 1aba 9cef 2a39 f5f0 38ba dd27 39b8
00000010: eb77 a739 1544 22ba e23f 9b39 1603 82ba
00000020: 16e6 1aba 9cef 2a39 f5f0 38ba dd27 39b8
00000030: eb77 a739 1544 22ba e23f 9b39 1603 82ba
00000040: 16e6 1aba 9cef 2a39 f5f0 38ba dd27 39b8
00000050: eb77 a739 1544 22ba e23f 9b39 1603 82ba
00000060: 16e6 1aba 9cef 2a39 f5f0 38ba dd27 39b8
00000070: eb77 a739 1544 22ba e23f 9b39 1603 82ba

feat.conv3d_1.attention.fc2.weight f4 [4, 1, 1, 1, 1]
-0.85226786 -0.27186894 -0.024668336 0.6331439
00000000: 3a2e 5abf 6832 8bbe 4015 cabc b815 223f

feat.bn2.weight f4 [8]
1.0192512 1.0059074 0.96701825 0.9619914 0.9534992 1.0320978 1.0520649 1.0430186
00000000: d376 823f 93c1 803f 828e 773f 1245 763f
00000010: 8618 743f c81b 843f 10aa 863f a281 853f

feat.bn2.bias f4 [8]
0.057617877 0.054513816 0.073102124 -0.029325813 0.01168722 -0.03149719 0.034430534 0.03278717
00000000: b900 6c3d e149 5f3d 91b6 953d b03c f0bc
00000010: c17b 3f3c 3303 01bd 0807 0d3d d74b 063d

feat.bn2.running_mean f4 [8]
0.32222795 0.3419934 0.18982866 0.54066414 1.0709785 -0.32467532 0.038252123 -0.15712763
00000000: 10fb a43e c219 af3e 7262 423e f768 0a3f
00000010: d315 893f d83b a6be 42ae 1c3d 11e6 20be

feat.bn2.running_var f4 [8]
1.6471076 1.4007571 1.2181559 4.0715065 5.7271676 1.329766 1.6610029 0.7126208
00000000: 6cd4 d23f 024c b33f 88ec 9b3f c849 8240
00000010: f544 b740 c635 aa3f be9b d43f 516e 363f

feat.conv3d_2.weight f4 [4, 16, 8, 3, 3, 3]
-0.22183405 2.1793203 -0.9117786 -0.07278346 -0.2175949 0.80791146 0.54131913 0.95349824
0.67662704 0.8214088 0.49765825 0.67534924 -1.0098466 -2.0845337 -2.2902086 0.50154245
1.7623535 0.18961298 -1.5606586 -2.6621592 0.61327255 0.6425713 0.14877109 0.604965
1.333381 -1.7529817 -0.09287425 -0.5197857 1.5461543 -0.37060037 0.51481646 0.2879933
-0.54239 1.0752492 1.3103828 0.7994519 -0.043742623 0.42000982 0.2809752 -2.0000563
-0.96414757 -0.6350311 -0.0977578 1.9430854 -0.5475937 -1.1700555 0.20934933 0.17896451
0.003090485 -0.3342487 0.07908803 -0.42733827 -0.07764682 -0.24438576 -0.6304992 0.17042589
-0.10672163 -0.9402338 -0.441752 -0.17202221 0.76800233 0.49589452 -0.6353862 -1.1893878
-1.7459835 1.025514 -0.67290425 -0.35612956 0.17128655 1.5049886 -0.90464115 0.99826133
0.51416767 -0.7659087 -1.9824779 -1.8264085 -2.231859 0.13351697 0.29578006 -0.7627173
-0.6735036 0.30561963 0.5410363 -1.8721311 -1.0340561 0.15892926 0.01177527 0.6701518
-0.3642167 0.40950435 0.6342532 -0.41981918 0.5394871 -0.72665024 -1.2877235 -1.3053674
0.41636506 0.8408848 1.728788 -0.18212038 2.0428107 0.850115 -1.0421469 -0.5524708
0.20490776 -0.80718845 2.076821 -0.83272105 1.3047961 1.2830371 2.5216737 0.4834965
-0.10272873 -1.3000903 0.58602566 -1.2204126 0.011819365 1.0384942 0.5602526 -2.5114512
0.8297669 -1.3910235 -0.38577586 -0.21644355 -1.3934258 1.2331175 -0.84531105 0.37668675
0.97847396 -0.68060917 -0.50326926 0.75989103 0.8546488 1.2072482 0.98394823 -0.038246732
-0.34721538 -1.3408129 0.31542858 -1.3539479 0.05319626 2.1238813 -0.6564165 0.2250294
0.5545413 2.0383499 0.16982092 -1.1064492 -1.4641458 -1.4332178 -1.466641 -0.5442371
0.24329916 0.23459414 -1.5806469 -0.42324412 -1.2041477 0.10642713 -0.765442 -2.2776508
-0.4010203 -0.35040355 1.773747 -0.83835703 1.3977343 -0.56141293 -1.4044074 0.8569609
-1.8139759 -0.15114874 -0.07092781 0.37513417 0.28128976 -0.99188626 -0.7923756 0.6077884
-1.9437134 -0.7215747 -0.3874336 -0.99310505 0.51899457 -0.46311438 -0.3519364 1.1968187
0.2989027 0.59325063 -0.24397424 1.2245041 1.4325154 -0.523326 -1.9158804 1.4518076
-1.4341904 0.76433516 -0.58937216 1.6394804 2.6077662 -0.39153436 0.544416 -0.92608255
-2.3007834 0.29633602 0.72161466 1.2156186 -0.08975744 1.4136548 0.45715296 -0.57060945
-0.12591912 -1.3398615 0.41431865 -0.23191956 -0.37942702 -0.3048502 -1.1585085 0.69023657
-1.0470746 1.0804142 -1.920262 -1.2158349 0.45121416 0.27505568 1.6000873 -0.43560907
0.9218505 -0.8897808 1.0925641 0.45079106 1.2417387 -2.0490959 -0.11642619 -0.5487464
-1.0391561 -0.6685204 -0.14906923 -0.95737743 -0.6482884 -0.108547114 1.0109514 -0.8362143
1.6434942 1.713058 -0.5748331 0.186266 -1.5363513 0.2584996 1.897594 -0.26346585
1.2890686 -0.17999566 1.1758565 0.22271313 -0.8727157 0.33744195 0.24777234 -0.15819931
00000000: 7728 63be fc79 0b40 536a 69bf 7f0f 95bd
00000010: 33d1 5ebe 49d3 4e3f e493 0a3f 7618 743f
00000020: 6e37 2d3f d947 523f 10cd fe3e b0e3 2c3f
00000030: a742 81bf 0069 05c0 c792 12c0 1665 003f
00000040: cd94 e13f e829 423e a9c3 c7bf d160 2ac0
00000050: 6eff 1c3f 8d7f 243f 7357 183e fcde 1a3f
00000060: 3bac aa3f b461 e0bf db34 bebd ad10 05bf
00000070: 62e8 c53f 55bf bdbe 03cb 033f dc73 933e
00000080: 12da 0abf c4a1 893f a0ba a73f e1a8 4c3f
00000090: 772b 33bd 870b d73e fbdb 8f3e ec00 00c0
000000a0: 60d2 76bf 6691 22bf 3e35 c8bd 06b7 f83f
000000b0: 1a2f 0cbf 61c4 95bf ac5f 563e 7942 373e
000000c0: bc89 4a3b a522 abbe e8f8 a13d 15cc dabe
000000d0: 4c05 9fbd 4340 7abe 6568 21bf 2084 2e3e
000000e0: df90 dabd 2ab3 70bf 512d e2be 9726 30be
000000f0: cd9b 443f e3e5 fd3e aca8 22bf dc3d 98bf
00000100: 637c dfbf 0b44 833f 7443 2cbf 9d56 b6be
00000110: be65 2f3e 77a3 c03f 9096 67bf 0e8e 7f3f
00000120: 7ea0 033f 9812 44bf d6c1 fdbf c1c7 e9bf
00000130: c7d6 0ec0 acb8 083e 7c70 973e 7141 43bf
00000140: bb6a 2cbf 2d7a 9c3e 5b81 0a3f fea1 efbf
00000150: f35b 84bf 5abe 223e 10ed 403c 128f 2b3f
00000160: 9c7a babe 8eaa d13e 6b5e 223f 8af2 d6be
00000170: d41b 0a3f c005 3abf 20d4 a4bf 4716 a7bf
00000180: cd2d d53e 3a44 573f ed48 dd3f c47d 3abe
00000190: 69bd 0240 23a1 593f 1265 85bf ba6e 0dbf
000001a0: 57d3 513e e7a3 4ebf a3ea 0440 352d 55bf
000001b0: 8f03 a73f 8f3a a43f 1a63 2140 da8c f73e
000001c0: 7163 d2bd 5c69 a6bf c705 163f 7b36 9cbf
000001d0: 03a6 413c 61ed 843f b76c 0f3f 9ebb 20c0
000001e0: 9b6b 543f 0f0d b2bf 6a84 c5be 61a3 5dbe
000001f0: c75b b2bf cbd6 9d3f 4e66 58bf 16dd c03e
00000200: 457d 7a3f 673c 2ebf 41d6 00bf 3888 423f
00000210: 44ca 5a3f 1c87 9a3f 08e4 7b3f 9ba8 1cbd
00000220: 37c6 b1be c29f abbf db7f a13e 2a4e adbf
00000230: 52e4 593d aced 0740 e90a 28bf 1b6e 663e
00000240: 6bf6 0d3f 5374 0240 89e5 2d3e 21a0 8dbf
00000250: 2169 bbbf ae73 b7bf e4ba bbbf 1f53 0bbf
00000260: 6a23 793e 7239 703e a352 cabf 74b3 d8be
00000270: 8321 9abf 78f6 d93d 02f4 43bf 08c5 11c0
00000280: 8852 cdbe 1868 b3be 240a e33f 919e 56bf
00000290: f5e8 b23f c2b8 0fbf 9fc3 b3bf ca61 5b3f
000002a0: 5d30 e8bf bcc6 1abe 9a42 91bd 9611 c03e
000002b0: 3605 903e 42ec 7dbf 21d9 4abf 0598 1b3f
000002c0: 9acb f8bf 1fb9 38bf b25d c6be 223c 7ebf
000002d0: d4dc 043f 541d edbe 0231 b4be 5b31 993f
000002e0: c609 993e 46df 173f 62d4 79be 8dbc 9c3f
000002f0: aa5c b73f b1f8 05bf 923b f5bf d5d4 b93f
00000300: 8d93 b7bf 78ab 433f 18e1 16bf 7eda d13f
00000310: a4e5 2640 3177 c8be d95e 0b3f bf13 6dbf
00000320: 0940 13c0 5bb9 973e bdbb 383f 6499 9b3f
00000330: c0d2 b7bd a4f2 b43f f40f ea3e 7613 12bf
00000340: f1f0 00be 9580 abbf 9321 d43e 527c 6dbe
00000350: 4244 c2be 5315 9cbe 024a 94bf 58b3 303f
00000360: 8a06 86bf 034b 8a3f 25cb f5bf 7aa0 9bbf
00000370: 8b05 e73e 19d4 8c3e a9cf cc3f 2708 dfbe
00000380: 65fe 6b3f adc8 63bf 24d9 8b3f 16ce e63e
00000390: 4bf1 9e3f 6324 03c0 db70 eebd a57a 0cbf
000003a0: 1103 85bf 2724 2bbf 9ba5 18be b016 75bf
000003b0: 3bf6 25bf f34d debd db66 813f 2412 56bf
000003c0: 055e d23f 7c45 db3f 4328 13bf 84bc 3e3e
000003d0: 29a7 c4bf 0f5a 843e 5ce4 f23f ffe4 86be
000003e0: 3300 a53f c850 38be 7782 963f e90e 643e
000003f0: 4c6a 5fbf 31c5 ac3e 08b8 7d3e 00ff 21be

feat.conv3d_2.bias f4 [4, 16]
-0.06305909 0.029792525 -0.035696246 -0.03047572 -0.048272055 -0.0069499803 -0.0228286 0.006353
-0.04988802 -0.05606426 -0.036553536 -0.053432878 0.030517796 -0.026018128 -0.021944944 0.0074343504
-0.05930429 0.016590098 -0.035406183 -0.027670842 -0.048817247 -0.014516607 -0.028212147 -0.0019993717
-0.05125573 -0.056192365 -0.03648719 -0.047842436 0.03383166 -0.023939803 -0.020228805 0.008047086
0.07105335 -0.024804078 -0.0038608212 0.05862676 0.037856515 -0.0044055968 0.0051629976 -0.010650965
0.059211712 0.04712095 0.030697124 0.064598225 0.030460788 0.049902786 0.037945926 0.0070601595
-0.06896679 0.015152669 0.030708326 -0.061004363 -0.014492257 0.013896446 0.016783465 0.014324989
-0.059635144 -0.015108974 -0.008517996 -0.06264211 -0.048836846 -0.06059361 -0.043957736 -0.016942767
00000000: 2025 81bd 740f f43c 3a36 12bd 38a8 f9bc
00000010: ebb8 45bd a9bc e3bb 0b03 bbbc d42c d03b
00000020: 6157 4cbd a3a3 65bd 29b9 15bd 6fdc 5abd
00000030: 7500 fa3c f823 d5bc e2c5 b3bc da9b f33b
00000040: 0ee9 72bd f5e7 873c 1306 11bd f6ad e2bc
00000050: 98f4 47bd 10d7 6dbc 291d e7bc e407 03bb
00000060: 87f1 51bd f729 66bd 9773 15bd 6ef6 43bd
00000070: 1193 0a3d 681d c4bc e1b6 a5bc edd7 033c
00000080: 6b84 913d ec31 cbbc d505 7dbb 9d22 703d
00000090: 6f0f 1b3d d35c 90bb 5d2e a93b 6381 2ebc
000000a0: fb87 723d e601 413d 8978 fb3c 134c 843d
000000b0: e788 f93c dd66 4c3d 306d 1b3d e958 e73b
000000c0: 763e 8dbd e642 783c 0790 fb3c b6df 79bd
000000d0: ee70 6dbc ebad 633c 7a7d 893c 5cb3 6a3c
000000e0: fb43 74bd a18b 77bc 118f 0bbc 824a 80bd
000000f0: 2509 48bd 0131 78bd 070d 34bd 8fcb 8abc

feat.conv3d_2.attention.fc1.weight f4 [3, 8, 1, 1, 1]
0.23961748 0.042589948 -0.22249821 0.055109095 0.03510775 -0.13020238 0.36097515 0.075058855
-0.006317731 -0.23386228 -0.21284057 -0.01825662 0.27203095 0.24431132 0.24094124 -0.22050086
0.05049175 -0.2872417 0.13492242 -0.17909113 0.12869902 0.18081866 -0.14697248 -0.18721105
00000000: 495e 753e cc72 2e3d 92d6 63be 13ba 613d
00000010: 25cd 0f3d c653 05be bcd1 b83e 75b8 993d
00000020: f804 cfbb 9879 6fbe e1f2 59be e88e 95bc
00000030: a447 8b3e bf2c 7a3e 4db9 763e faca 61be
00000040: 70d0 4e3d 5811 93be 1a29 0a3e aa63 37be
00000050: adc9 033e 8728 393e f47f 16be 41b4 3fbe

feat.conv3d_2.attention.fc2.weight f4 [4, 3, 1, 1, 1]
0.47287384 -0.5858729 -0.39251566 0.4442406 -0.59073687 0.32685715 0.0040276 -0.45017204
-0.26029068 0.5390575 0.18892999 0.3700963
00000000: 851c f23e c4fb 15bf d0f7 c8be 8173 e33e
00000010: 883a 17bf d259 a73e f5f9 833b f37c e6be
00000020: d244 85be acff 093f dd76 413e 437d bd3e

feat.bn3.weight f4 [16]
1.0574864 1.0521463 1.0679154 1.0606318 1.0611761 1.0554066 1.0536703 1.0481229
1.0616875 1.0541315 1.0527877 1.0596011 1.0516838 1.0623851 1.0635067 1.0574678
00000000: b75b 873f bbac 863f 74b1 883f c8c2 873f
00000010: 9ed4 873f 9017 873f abde 863f e428 863f
00000020: 60e5 873f c8ed 863f bfc1 863f 02a1 873f
00000030: 939d 863f 3cfc 873f fd20 883f 1b5b 873f

feat.bn3.bias f4 [16]
0.052182067 0.034551866 0.05666915 0.053807132 0.053924 0.04318758 0.037429098 0.031033749
0.057741243 0.047862347 0.0433734 0.05550661 0.0391644 0.056343164 0.062251076 0.054694235
00000000: ddbc 553d 4286 0d3d e91d 683d de64 5c3d
00000010: 6adf 5c3d 76e5 303d 414f 193d 7d3a fe3c
00000020: 1582 6c3d 4f0b 443d 4ea8 313d e65a 633d
00000030: da6a 203d 17c8 663d fcfa 7e3d 1007 603d

feat.bn3.running_mean f4 [16]
3.779128 -12.622294 -6.5790143 1.2629907 2.121529 -5.96988 -13.11594 -10.342009
0.5110473 2.8142104 8.723213 1.2611678 -5.28303 1.5467442 3.3707056 7.7449384
00000000: 3cdd 7140 ebf4 49c1 4987 d2c0 aea9 a13f
00000010: 22c7 0740 4209 bfc0 e4da 51c1 de78 25c1
00000020: ffd3 023f 061c 3440 4892 0b41 f26d a13f
00000030: 950e a9c0 b7fb c53f a4b9 5740 89d6 f740

feat.bn3.running_var f4 [16]
116.23863 114.972946 65.4053 99.45459 78.2791 108.28732 152.95235 183.28749
46.434265 60.20504 133.00888 78.97611 85.85321 72.83597 48.241467 64.01123
00000000: 2e7a e842 26f2 e542 83cf 8242 c0e8 c642
00000010: e68e 9c42 1c93 d842 cdf3 1843 9949 3743
00000020: b0bc 3942 f6d1 7042 4602 0543 c5f3 9d42
00000030: d8b4 ab42 04ac 9142 43f7 4042 c005 8042

mlp.fc2.weight f4 [10, 2000]
0.0027538398 0.0063211895 -0.01593155 0.014111581 -0.049007293 0.02558754 0.024692418 0.010883191
-0.003860497 -0.034833957 -0.013871689 0.014862194 0.028219806 0.0029645187 -0.0055317488 0.016927514
0.027907688 0.017714093 -0.023448305 -0.019614639 0.0067138723 -0.017327607 -0.031522233 -0.020432428
-0.030360276 -0.0068191104 0.0044980217 0.003779365 -0.029146355 -0.018252194 0.012051919 -0.0020283062
-0.024870995 -0.016525993 -0.016038971 -0.014630747 -0.012125415 -0.009085395 0.014873389 -0.0025068528
0.0109309275 -0.021228606 0.008214863 -0.005862024 -0.0204107 -0.02470744 0.0022504234 -0.019565677
-0.01638756 -0.024189072 0.0021339501 -0.014513201 -0.016465234 -0.004476572 -0.014456935 -0.015822617
-0.011358746 -0.009039595 -0.02408959 -0.021549478 0.004590838 0.015411645 -0.012771515 0.0035441997
0.00019932726 0.022010023 0.025892703 0.004758507 0.0070933346 -0.007271314 0.022492899 0.0064905714
-0.01483107 -0.033953305 -0.026910897 -0.0010951776 -0.011081636 0.008850359 -0.008139623 -0.035647918
-0.02173557 -0.0013036366 0.010785114 -0.014802114 -0.004182234 0.002749315 -0.00836414 0.009691874
-0.02702252 -0.0023695575 0.012330657 0.011274807 0.004155192 -0.014137349 -0.01498137 -0.00069387263
0.03005269 -0.019166963 -0.022132961 -0.013148151 -0.012630073 -0.007541128 -0.0124214 -0.0020652572
-0.045096505 -0.01652499 0.0069417576 0.0024999306 -0.02365251 -0.009806661 -0.018582072 0.001051277
0.0006650264 -0.006487212 -0.0060240086 0.016479744 -0.009345266 0.0017340654 -0.010240691 -0.028988913
-0.0068173176 -0.00086217484 -0.005164376 -0.010899762 -0.039262142 0.022001607 0.008508796 0.0024830482
-0.026799046 0.015709458 0.01743389 -0.0026340995 -0.021948481 -0.010571339 -0.022121396 -0.018986963
-0.023395581 -0.034273937 -0.016046062 -0.02117794 0.014147217 -0.021800036 -0.019659199 0.0044545173
-0.019524934 -0.017799841 0.020220397 0.011854648 -0.020030044 0.019069908 -0.0158477 -0.028385386
-0.012266782 -0.010679152 -0.017565876 -0.018460946 -0.010534164 -0.0036193086 -0.0018702409 -0.0055164914
-0.015645696 0.0031363845 -0.025583087 -0.019985631 -0.019000348 0.0024538713 0.005328819 0.011317661
-0.0019190026 0.0029260558 0.015703958 0.0053657177 -0.014607693 -0.0073505156 0.011241487 0.009376367
-0.014082879 -0.0036940686 0.017070493 -0.010408502 -0.029593123 -0.0036008093 0.011451616 0.021666352
0.009482164 -0.029126737 0.013179167 0.041777577 0.0060448493 0.010755864 0.010985869 -0.0024541044
0.024674363 0.012009704 -0.0004795812 0.0001654543 0.030096393 0.023011059 -0.009116244 -0.008203176
-0.0040088026 -0.025480311 -0.0060790665 -0.015021052 -0.00194688 -0.031856533 0.0025587261 0.03783714
-0.001895559 -0.00818522 0.008890865 -0.016407149 0.01922839 0.02838798 0.019379357 -0.022551343
0.02714453 0.00347515 0.015075351 0.029623356 -0.019949837 0.02167219 0.000679097 0.023845138
0.02211891 0.018299103 -0.010411776 -0.0059872903 -0.0028201716 0.010557744 -0.0028790324 -0.034273148
-0.020267604 0.00076760084 -0.0046468694 -0.0021014055 -0.0074787294 0.019981734 -0.023644147 -0.02154733
0.013918009 0.009098603 0.0060825725 -0.0028553503 -0.010231242 -0.0021312966 -0.0008309702 0.0042627756
0.016413502 0.0021817386 0.014548438 0.03030823 0.014697784 0.014685642 0.0010188388 0.010206366
00000000: c479 343b fb21 cf3b e282 82bc 4334 673c
00000010: dfbb 48bd f69c d13c c147 ca3c 694f 323c
00000020: 6400 7dbb 0dae 0ebd 1546 63bc 8f80 733c
00000030: 392d e73c 5f48 423b ac43 b5bb 92ab 8a3c
00000040: aa9e e43c 251d 913c a916 c0bc e1ae a0bc
00000050: 0b00 dc3b a0f2 8dbc 751d 01bd e861 a7bc
00000060: 1db6 f8bc d872 dfbb 2464 933b 39af 773b
00000070: 56c4 eebc a085 95bc 6975 453c 55ed 04bb
00000080: 42be cbbc 8561 87bc 2964 83bc cdb5 6fbc
00000090: ada9 46bc e9da 14bc 84af 733c 034a 24bb
000000a0: a217 333c 9de7 adbc a297 063c 3916 c0bb
000000b0: 5734 a7bc 4267 cabc d77b 133b 3348 a0bc
000000c0: 343f 86bc 2928 c6bc bed9 0b3b c7c8 6dbc
000000d0: 19e2 86bc 35b0 92bb c8dc 6cbc 6f9e 81bc
000000e0: 091a 3abc cf1a 14bc 8857 c5bc 8888 b0bc
000000f0: be6e 963b 2081 7c3c 9e3f 51bc ce45 683b
00000100: 8102 5139 5d4e b43c ef1c d43c 40ed 9b3b
00000110: 346f e83b 3444 eebb 0743 b83c dcae d43b
00000120: 04fe 72bc 9f12 0bbd 3e74 dcbc 108c 8fba
00000130: c08f 35bc 1901 113c 0e5c 05bc 8d03 12bd
00000140: cb0e b2bc c9de aaba 0cb4 303c 9184 72bc
00000150: 1f0b 89bb da2d 343b bf09 09bc aaca 1e3c
00000160: 555e ddbc 944a 1bbb 8606 4a3c f8b9 383c
00000170: 4728 883b 57a0 67bc 6c74 75bc 01e5 35ba
00000180: 0f31 f63c 0904 9dbc 2f50 b5bc 586b 57bc
00000190: 5eee 4ebc 911b f7bb 2183 4bbc 4459 07bb
000001a0: 1db7 38bd 6a5f 87bc af77 e33b e0d5 233b
000001b0: e9c2 c1bc 1eac 20bc 6e39 98bc 01cb 893a
000001c0: 2b55 2e3a ae92 d4bb 0c65 c5bb 8700 873c
000001d0: e31c 19bc 9449 e33a 92c8 27bc 287a edbc
000001e0: ce63 dfbb 9303 62ba ed39 a9bb ea94 32bc
000001f0: 57d1 20bd b73c b43c 7a68 0b3c a3ba 223b
00000200: ac89 dbbc 1fb1 803c 84d1 8e3c dba0 2cbb
00000210: 4dcd b3bc 6933 2dbc ee37 b5bc 8c8a 9bbc
00000220: 17a8 bfbc d462 0cbd 0873 83bc 5c7d adbc
00000230: bbc9 673c fd95 b2bc 540c a1bc 33f7 913b
00000240: c1f2 9fbc f9d0 91bc 3fa5 a53c ff39 423c
00000250: 0c16 a4bc 7f38 9c3c 09d3 81bc 7888 e8bc
00000260: 9dfa 48bc 9cf7 2ebc 50e6 8fbc 693b 97bc
00000270: 7c97 2cbc ec31 6dbb df22 f5ba afc3 b4bb
00000280: 672b 80bc cd8b 4d3b 9f93 d1bc e8b8 a3bc
00000290: 9ea6 9bbc 21d1 203b 609d ae3b b66d 393c
000002a0: 0b87 fbba 12c3 3f3b 96a5 803c e7d2 af3b
000002b0: 1b55 6fbc 98dc f0bb 372e 383c 559f 193c
000002c0: e0bb 66bc 3018 72bb 6bd7 8b3c 6c88 2abc
000002d0: 476d f2bc 8efb 6bbb 8f9f 3b3c a27d b13c
000002e0: 145b 1b3c 329b eebc 6fed 573c f71e 2b3d
000002f0: df13 c63b 5d39 303c 13fe 333c 0ad5 20bb
00000300: e421 ca3c 59c4 443c 4d70 fbb9 cd7d 2d39
00000310: b68c f63c b081 bc3c 4c5c 15bc 9d66 06bc
00000320: 465c 83bb 16bc d0bc e832 c7bb dc1a 76bc
00000330: 742e ffba ff7b 02bd 4db0 273b 1efb 1a3d
00000340: 6874 f8ba 4d1b 06bc feaa 113c 4968 86bc
00000350: db84 9d3c e98d e83c 75c1 9e3c 98bd b8bc
00000360: 355e de3c 58bf 633b 9bfe 763c aeac f23c
00000370: d76d a3bc e089 b13c 6e05 323a e156 c33c
00000380: b732 b53c 00e8 953c 2796 2abc 0831 c4bb
00000390: a1d2 38bb 63fa 2c3c 26ae 3cbb 0062 0cbd
000003a0: 3f08 a6bc d238 493a c444 98bb bcb7 09bb
000003b0: 2110 f5bb bcb0 a33c 5fb1 c1bc 0784 b0bc
000003c0: 5c08 643c 4f12 153c 5150 c73b d420 3bbb
000003d0: f0a0 27bc 39ad 0bbb 77d5 59ba c1ae 8b3b
000003e0: 9c75 863c 80fb 0e3b 925c 6e3c f748 f83c
000003f0: f9ce 703c 0c9c 703c 8f8a 853a 9a38 273c

mlp.fc2.bias f4 [10]
-0.013606271 0.022794582 -0.025311325 0.0078004776 0.017314887 -0.009180716 -0.005371321 -0.019236375
-0.014257969 0.028470969
00000000: d6ec 5ebc b4bb ba3c b259 cfbc 269b ff3b
00000010: f3d7 8d3c b76a 16bc e801 b0bb 9a95 9dbc
00000020: 429a 69bc f33b e93c
