cls/cls_model_7335.pth (torch, 538627 bytes, 17 tensors)

feat.conv3d_1.weight f4 [4, 16, 1, 5, 5, 5]
00000000: 9260 98bd 8a74 2c3f 5ff5 8abc 259a cf3f
00000010: 51c7 3fbe 0774 943e 19a8 303f e0c4 02bf
00000020: 1ca0 ee3f 1205 d1be 00bc 33be d7d2 ac3f
00000030: 2362 f03f 821a bfbe a789 813f fd96 c7be
00000040: 38f9 81bf 1f7b da3d 2154 f3be f215 f73e
00000050: 02bc 57bf bdb7 b33f b0ee 973f 6b6a 9dbe
00000060: 7fc2 62bf 61b3 a23f ae91 7dbf 15ca 19bf
00000070: dfc2 64bb df1c 66bf eb29 96bf 806e b1bc
00000080: f353 ff3d d77a 8abf 8950 98bf 185a 2cbf
00000090: 56f6 19be f5fd 4bbd b2db 43be 66be c13f
000000a0: 0ffb 4d3a fcea 24bf a323 4abe 6ebe 71bf
000000b0: 6190 d63f 0912 053f 8db2 7e3f 3e99 873f
000000c0: ffb9 f8bf 8390 983e 31e6 cc3f 27d5 a8be
000000d0: 5dad f73e 869b 9a3e cdf4 2ebe ef20 0ebf
000000e0: 0794 acbe 2594 a33f d892 0bc0 09c2 85be
000000f0: 965c c6bf 4d00 af3e 6650 803d 6be1 053f
00000100: 4cea ed3e ad71 21be 13ce e33e 51ed 033f
00000110: 4dd8 533f 50df 9cbf 915d f73e 7c6e 64bf
00000120: 84f1 2b3e fa11 6d3f b2fd 2dbe c760 443f
00000130: 8fcd f83e 3db6 af3f dfb8 4dbf b379 20bf
00000140: 3f24 2d3f b2ff 1b3f fff8 d93e 5b8e 9dbf
00000150: ff17 243f 169d 8abe 9216 2040 b8a5 303f
00000160: c7eb 3a3e 7fa7 da3c dfa1 1bc0 8474 903f
00000170: e319 9d3e d993 78bf 1b6c 263f c9b0 063f
00000180: 1e45 3e3f 2cf2 be3e 6348 8d3e 5498 0ebf
00000190: f52d 53be d799 6bbd faa8 a63e a02f 3c3e
000001a0: bffb 63be 7dfe af3f 8371 1e3f 6914 02c0
000001b0: a321 09c0 574b 85be b177 d0bf e5ed 35c0
000001c0: 06a9 b73f 1def 0c3f bfcd dcbf cc67 35bd
000001d0: 3231 fb3e d750 04bf afc7 7fbf 4c80 8bbf
000001e0: 79e0 f63d f742 80bf 6f55 9dbf aa92 99bf
000001f0: 9061 523f 5ba1 ed3e b2a5 1c3e 9b24 c73f
00000200: e7b6 f7be 077d 193f b492 443f 78a0 22bd
00000210: 738f 9fbf d8d7 01bf 19e6 fa3f b41c f7be
00000220: 099f d03e c8eb 4f3e 6532 efbe e4d9 f53f
00000230: 16ff 97be 277b 833f 7feb a63e 168e 973f
00000240: ab37 9abf db5b 333e b31d 493e d4c6 653d
00000250: 1b8e 413f c7f9 ec3e 0039 03bf 7630 cf3d
00000260: 98e7 ce3e 420c 11bf d7bf 4fbf c636 57bf
00000270: 42e6 a53e e4a2 ab3f 748f 43bf a583 473f
00000280: d705 243f c591 033f b259 243e dde6 aa3e
00000290: 6467 d73e 5195 d73e f64b b1bf 5e44 31bf
000002a0: 0a62 df3e f9cf fe3e b296 b6bd 25ec 3abf
000002b0: adf5 d3be 6844 853f a4b7 e63f c843 9bbe
000002c0: 1e88 fa3c 7dfc 653e da44 463f bd6e fc3f
000002d0: 77c4 c4bf f207 783e 24b3 d53f 36b0 683f
000002e0: 50f7 233f c9b9 073f 4dfb 9f3e 37c7 0ebf
000002f0: 2ea4 8c3f 664f 49bd 7872 e4be 9d50 0dc0
00000300: c916 d73f 5847 eb3d b2f9 1c3e 4881 30bf
00000310: c627 5fbe a02a b3bf e629 07c0 513e ebbf
00000320: 128d a0bf 5c8f 58bf 4dfc a3bd b75a 913f
00000330: 220d 1a3e 1def 073d 3f64 a4bf c25b 37bf
00000340: 033c 3e3f 52a9 19bf 256a 403f b13a cd3d
00000350: 85b4 3140 0533 873f 2052 2f3f 118e 91be
00000360: 121d a3be 2c74 463f d9b8 32be d42c 193f
00000370: 3d5f 50bd 6aed 703f 1d4a 953f 5349 d4bf
00000380: cdee 22c0 48ea f4be 4f22 153f 850c d5bd
00000390: 7cbe b73e 5842 563f c719 97bf f4b4 d43d
000003a0: a3b3 f1bf e52e 17bf 8c89 87bf 5675 7cbf
000003b0: 3b0f b33e 50cc ecbf ea6a 393f 84c7 c3bf
000003c0: adc4 ecbe 67de 933f f651 a8be bc4a 2cbf
000003d0: 6b12 0fbf 8127 d63f 974b 643d 8ce4 84bf
000003e0: 59bc 413f de13 b8be 2729 b33e 5158 0540
000003f0: 9349 5c3f da3d 87bf f326 9d3e 2008 01c0
-0.07440294 0.67365324 -0.016962705 1.6218916 -0.18728377 0.28994772 0.69006497 -0.5108166
1.8642612 -0.4082418 -0.17552185 1.3501843 1.8779949 -0.3732491 1.0120133 -0.38982382
-1.015418 0.10668015 -0.47525123 0.4825893 -0.8427125 1.4040447 1.1869717 -0.30745253
-0.8857803 1.2710992 -0.99050415 -0.6007398 -0.0034906191 -0.89887804 -1.1731542 -0.021659136
0.12467184 -1.0818738 -1.1899577 -0.6732497 -0.15035376 -0.04980274 -0.19126776 1.513623
0.000785754 -0.6442106 -0.19740157 -0.944312 1.6762811 0.51980644 0.99491197 1.0593641
-1.9431762 0.29797754 1.6007749 -0.32975122 0.48374453 0.3019678 -0.17085572 -0.55519
-0.33706686 1.2779585 -2.1808376 -0.261246 -1.5497005 0.34179917 0.06265335 0.52297086
0.46467817 -0.1576602 0.4449316 0.5153399 0.82751924 -1.225565 0.48313573 -0.89231086
0.1679135 0.92605555 -0.16991308 0.7671017 0.4859433 1.372749 -0.80360216 -0.626857
0.6763343 0.60937035 0.4257278 -1.2309068 0.64099115 -0.27072972 2.5013776 0.69002867
0.18254004 0.026691196 -2.4317548 1.1285558 0.30683812 -0.971006 0.65008706 0.526135
0.74324214 0.37294137 0.2759429 -0.55701184 -0.20623 -0.05751976 0.32550794 0.18377542
-0.22264002 1.3749539 0.61891955 -2.0324957 -2.142678 -0.26034042 -1.6286527 -2.842645
1.4348457 0.5505236 -1.7250289 -0.04428844 0.4906097 -0.5168585 -0.9991407 -1.0898528
0.120545335 -1.0020436 -1.2291697 -1.1997883 0.8218012 0.46412167 0.15297583 1.5558046
-0.4838173 0.599564 0.7678635 -0.039703816 -1.2465652 -0.50719976 1.960147 -0.48264086
0.40746334 0.20304787 -0.46718135 1.920712 -0.29686803 1.0271958 0.32601544 1.1840236
-1.2048239 0.17515509 0.19640236 0.05609782 0.7560746 0.46284315 -0.5125885 0.10116665
0.40411067 -0.5665933 -0.811521 -0.8406795 0.32402235 1.3409085 -0.7639077 0.7793525
0.6407141 0.513943 0.16049841 0.3337926 0.42071068 0.42106107 -1.3851306 -0.69244945
0.43629485 0.49768046 -0.089154616 -0.7301658 -0.41398373 1.0411501 1.8024793 -0.3032515
0.030582484 0.22459598 0.7744881 1.9721295 -1.5372456 0.24221781 1.6695294 0.90893877
0.64049244 0.5301786 0.31246415 -0.5577273 1.0987604 -0.049147986 -0.44618583 -2.2080452
1.6803828 0.11488217 0.15329626 -0.6894727 -0.21792516 -1.3997383 -2.1119323 -1.8378392
-1.2543051 -0.8459375 -0.08007107 1.1355809 0.15044072 0.03318702 -1.2843093 -0.71624386
0.7431032 -0.6002399 0.75161964 0.1002096 2.776643 1.0562445 0.6848469 -0.284287
-0.31858116 0.77521014 -0.17453326 0.5983403 -0.050872076 0.94112265 1.1663243 -1.6584877
-2.5458252 -0.47834992 0.58255476 -0.104027785 0.35887516 0.8369498 -1.1804742 0.103860766
-1.8882946 -0.5905593 -1.0588851 -0.9861654 0.34972557 -1.8499851 0.7242876 -1.5295262
-0.46243802 1.1552247 -0.3287503 -0.67301536 -0.5588748 1.6730806 0.05573615 -1.0382247
0.7567802 -0.35952657 0.34992334 2.0835154 0.86049765 -1.0565751 0.30693778 -2.016121

feat.conv3d_1.bias f4 [4, 16]
00000000: 7f0d 9ab8 fdaa 6fba b330 253b 0f46 f33a
00000010: bf57 9eba 41f5 783a 30ec 89ba c136 bbba
00000020: 6d4b 153b ffc9 de3a 05d6 1cb9 f275 20bb
00000030: f2c0 2fbb 6b37 17ba 4e0c 1e3a 8774 30bb
00000040: af3a d238 86bb 6e3a 1265 25bb 2e96 f2ba
00000050: 35ee 9d3a 3b13 7aba ca0c 8c3a 428b bb3a
00000060: 03d5 15bb 9050 deba a62e 2239 92dd 203b
00000070: c36c 303b 6fec 163a d585 1dba e9de 303b
00000080: 5549 a7b8 7bff 6fba ba64 253b 2dd3 f33a
00000090: 289d 9eba 469e 7a3a 70dc 8aba a267 bbba
000000a0: 0697 153b 8bdc de3a 3bcb 1db9 81bd 20bb
000000b0: 1a3b 30bb dc5e 17ba e9ba 1e3a 7fc6 30bb
000000c0: 8c61 d838 566d 6d3a 3136 25bb d1d1 f1ba
000000d0: ba74 9d3a ac3e 79ba 36bd 8b3a 7d2d bb3a
000000e0: 6fa4 15bb fcce ddba 15a6 2139 7c96 203b
000000f0: 6c13 303b 792b 163a 5258 1dba 89ac 303b
-7.345806e-05 -0.00091426057 0.002520603 0.0018560308 -0.0012080594 0.0009496995 -0.001052266 -0.0014283286
0.0022780553 0.0016997455 -0.00014957048 -0.0024484363 -0.0026817885 -0.0005768451 0.0006029055 -0.0026924924
0.00010024511 0.00091069227 -0.0025237245 -0.0018507892 0.0012049141 -0.0009539609 0.0010684964 0.001430847
-0.002286256 -0.0016961265 0.00015466902 0.0024546129 0.0026920296 0.0005757277 -0.0006009017 0.0026988334
-7.97684e-05 -0.0009155196 0.002523704 0.0018602364 -0.001210128 0.0009560328 -0.001059426 -0.0014297853
0.0022825613 0.0017002983 -0.00015048396 -0.0024527016 -0.0026890696 -0.0005774328 0.00060550735 -0.0026973782
0.00010317852 0.0009057125 -0.0025209303 -0.0018449371 0.0012012937 -0.0009507935 0.0010661248 0.0014280524
-0.0022833606 -0.0016922648 0.00015416027 0.0024503758 0.0026867045 0.0005728524 -0.00060022355 0.0026958308

feat.conv3d_1.attention.fc2.weight f4 [4, 1, 1, 1, 1]
00000000: 61e2 123e c4f7 0bbf bccf a23e e086 d5be
0.14344169 -0.54674935 0.31799114 -0.41704464

feat.bn2.weight f4 [16]
00000000: 3052 803f c0a7 7f3f 86dd 7f3f b609 803f
00000010: 072e 803f 25be 7f3f 7996 7f3f 5318 803f
00000020: 44c5 7f3f 844d 803f 5ce5 7f3f a3aa 7f3f
00000030: 98bb 7f3f b2ce 7f3f 5106 803f 23d2 7f3f
1.0025082 0.9986534 0.9994739 1.0002964 1.0014046 0.9989951 0.9983898 1.0007423
0.9991038 1.0023656 0.9995935 0.99869746 0.9989562 0.99924767 1.0001928 0.9993002

feat.bn2.bias f4 [16]
00000000: f6d4 9cb6 e776 6aba c469 e6ba c09f 08bb
00000010: 4fe1 083b 6cd5 b5ba 4046 d7ba 04d2 033a
00000020: 3b19 8038 106e 7fba 528d 8aba f673 91ba
00000030: 23eb 97ba 8a24 3dba 32a1 8a3a 73b9 8d3a
-4.673954e-06 -0.00089441094 -0.0017579128 -0.0020847172 0.0020886248 -0.0013872809 -0.0016424134 0.0005028548
6.108215e-05 -0.00097438786 -0.0010570681 -0.0011097181 -0.0011590462 -0.00072152226 0.0010576604 0.0010812714

feat.bn2.running_mean f4 [16]
00000000: b0db b3bd 7339 903e 3857 8fbe a777 b5be
00000010: b3d8 003f 2610 d63e 8836 a0be 2ab9 723b
00000020: 00a1 f2bd cfd0 b6bd a4f7 163e c25d 12bf
00000030: 5ee3 60bf 30cc f53e 1b8a d13d adb3 9ebc
-0.087821364 0.2816883 -0.2799623 -0.3544285 0.50330657 0.41809195 -0.31291604 0.0037036636
-0.118471146 -0.08926546 0.14742905 -0.57174313 -0.87846935 0.48007345 0.1023142 -0.019372785

feat.bn2.running_var f4 [16]
00000000: 0c44 b23f 0c86 3640 0821 963f 00d0 1440
00000010: a2fb 0440 3519 1340 ba8f 0d40 ec77 843f
00000020: 5866 f83f 4114 0940 5bf0 9a3f b066 4e40
00000030: 882a 8e40 c2fa d13f 0ae5 3e3f c9c0 843f
1.3927016 2.8519316 1.172883 2.3251953 2.0778584 2.2984135 2.2118974 1.0349097
1.9406233 2.1418612 1.2104601 3.2250175 4.442692 1.640465 0.74568236 1.0371333

feat.conv3d_2.weight f4 [4, 32, 16, 3, 3, 3]
00000000: d320 25bf 3da6 1b3e b246 3940 d84e 373f
00000010: 9662 dabc de0c 393f 7abe 8bbf 3a72 983f
00000020: fd75 e6bf b00e b1bf d275 3b3f 3e57 263f
00000030: 0dfd 993f a053 9e3e 3ffd d4bf cb40 093f
00000040: ae2c b73f c0b4 cdbe ed54 253f 3233 ba3f
00000050: 3bb8 cebe 5345 293f ff8a 063f 9073 3040
00000060: 2cfb d9be df62 973e 6169 333e 2070 0440
00000070: a74a 8abf c1d9 a5bf 2bbe 5a3e d76c 75bf
00000080: f616 463d 9301 6abf 6712 833f f364 bd3e
00000090: dccc f8be 31f8 dcbd b10a 77bf 7c89 d03f
000000a0: 6543 a3be f3bb 833f 45f4 ff3a 2e6c 9dbf
000000b0: 777a ab3f ab30 b53d 2cf6 3dbf 5990 913f
000000c0: 25c3 62bf 5154 18be b929 cf3d 12d0 53be
000000d0: 03dd 76bf 01c5 b7be a986 ae3f 9258 e13f
000000e0: 2ef8 1cbf bb07 1e3e 0631 4fbe 9812 533f
000000f0: 791a c33f 1687 fabd 9436 0abf 84da aa3e
00000100: 61df a9bf d803 173d 056c a3be 7906 1d3f
00000110: e03a 0d40 7d14 5e3f edbe 663e bfe8 c3be
00000120: b153 473f 0964 703e da86 233e a368 163f
00000130: 445e 8f3e e1c0 edbf 6bdd f93e e462 9c3f
00000140: e956 25bc 727b b7bf 03cf 663f cc27 1ebe
00000150: d02b 14bf c71c a7bf 8d56 0740 ba3e 24bf
00000160: 0e65 993f 7509 4cbf 5de9 03bf 5f3b 893f
00000170: 3ddf 51bf 02e2 1ebe fd24 5abf a42b 74bf
00000180: 4169 a13f cabb 943f 32a7 003f 4997 8cbf
00000190: 00b6 aebe 593e 5fbf 2bd0 833e 0869 e0bf
000001a0: 2d1a 6fbf e8c6 09c0 2b71 173f 2e4e 26be
000001b0: cc7d 1bc0 5d9e 68be 7ad8 a03e 9975 b2bf
000001c0: 8274 b6be 5fb1 903e be9a bc3e d9ce d83f
000001d0: 0705 d23e fe74 98bf ab3f 5fbf e6c0 8ebf
000001e0: cd0e 52bf 789c 993f a5ff 12bf d7c0 1abf
000001f0: 5af3 443f b4b4 8e3e 4ee0 73bf dcb2 90bf
00000200: 80ef 233e 8954 c2be be9e 01c0 8afa 83bf
00000210: c812 3f3e 017f 09bf 7f1d f53f 5c41 e4bf
00000220: 4a30 043f 0c68 70bf fed1 373e 1e03 93be
00000230: 9667 1f3c 48dc ecbe bee7 adbf 2baf 70bf
00000240: 86a0 a1bf 4d2d c93e 6812 193f 41eb 2d3f
00000250: ba1e 5c3f 3c5a d9be 32e3 b5bf b4da d6bf
00000260: 94ba 35bf 9eda 4bbf 03cb d8bd f167 b93e
00000270: f392 94bf 64de 383e 4a6f e4be 76de 0740
00000280: 00cd 06c0 7444 31c0 80f8 a8bf f8c6 db3f
00000290: 1bd2 6fbe 1240 a03e a85f 3f3d 7f93 0fbf
000002a0: 885f 11c0 b5ab f83e 3b55 d8be c159 103f
000002b0: a151 9b3f 04fe 97bf 5122 0bc0 4ce6 62bd
000002c0: 0e17 89bf 0c7a cbbf 9a44 953e a61f 653e
000002d0: e3f5 da3d b2fb cb3e 4276 02c0 8a17 013e
000002e0: 21fd 0740 6e4f a8bf 5b6f 9f3f 623b 443e
000002f0: ec6f b23f a763 08bd f726 c7bf 1dcd c4bf
00000300: 7a37 03bf c139 2a3f d772 713f fe80 91bf
00000310: 077e 563f 8607 61be 699a 8fbf 883a 8c3e
00000320: bafc 963f ec55 b7be 5e21 053e 1858 e2bf
00000330: 9b7e b2bf 4c56 1fbf 7d21 f8bf 0be9 8cbf
00000340: ee0e cf3d 23b8 54bf 0cac d2be 5bfb d0bd
00000350: 40ea c2bf 92c7 a23f 49cd 0b40 a526 62bf
00000360: e052 ddbd deee 98bf 585a 5cbe cc8e 413f
00000370: b09f 62be 630d 10bf 0924 66bf 518c 7a3f
00000380: 3fdf 363f a1a4 0e3f 67de 82be f38a c9bd
00000390: f8e2 9dbe 5679 583f 5e9e 03bf d722 a73f
000003a0: b48f 57bf d3b4 633f 82da 313e 2c6f 78bf
000003b0: 6cec e8bf 1a6e 87bf 2e09 3bbf 34e7 533c
000003c0: fe06 a93f 8a23 633f 0533 4a3c f9fc 663f
000003d0: 361c bbbe b601 80bf a0f8 fabf 770f f03f
000003e0: b76e ffbd f356 1ebf 7366 5f3f c074 c13f
000003f0: 65a3 cabf 9904 843c e772 6b3f 8310 a4be
-0.6450321 0.15200134 2.89494 0.7160468 -0.026658338 0.7228526 -1.0917504 1.1909859
-1.8004757 -1.3832607 0.73226655 0.6497687 1.203035 0.30923176 -1.6639785 0.5361449
1.431051 -0.40176964 0.6458271 1.4546874 -0.40374932 0.66121405 0.5255584 2.7570534
-0.4257444 0.2956762 0.17520668 2.0693436 -1.0804032 -1.2957078 0.21361606 -0.958692
0.04836174 -0.9140865 1.0239991 0.3699108 -0.48593795 -0.10789526 -0.9650069 1.6291957
-0.31887355 1.0291733 0.0019527754 -1.2298639 1.3396748 0.08847173 -0.74203753 1.1372176
-0.88579017 -0.14875914 0.1011538 -0.20684841 -0.9643099 -0.3589249 1.3634845 1.7605155
-0.6131619 0.15432636 -0.20233545 0.82450247 1.5242454 -0.12232797 -0.5398953 0.3336984
-1.3271295 0.0368689 -0.3191835 0.61338 2.2067184 0.8675001 0.2253377 -0.3826351
0.7786208 0.2347566 0.1596941 0.5875341 0.28001606 -1.8574487 0.4880174 1.2217679
-0.010091522 -1.4334548 0.90159625 -0.15444869 -0.5787935 -1.3055657 2.1146576 -0.64158213
1.1983964 -0.7970193 -0.5152796 1.0721244 -0.8198126 -0.15515903 -0.8521269 -0.9537909
1.2610246 1.1619809 0.5025512 -1.0983669 -0.3412323 -0.8720451 0.25744757 -1.7532053
-0.93399316 -2.1527653 0.59157056 -0.1624076 -2.429553 -0.22716661 0.3141516 -1.3942138
-0.35635763 0.28260323 0.3683681 1.6938125 0.4101946 -1.1910703 -0.87206525 -1.1152618
-0.82053834 1.2000875 -0.5742133 -0.604505 0.76933825 0.2787224 -0.95264137 -1.1304584
0.16009331 -0.3795512 -2.0253139 -1.0310833 0.18659508 -0.5370942 1.9149626 -1.7832446
0.51636183 -0.9390876 0.179512 -0.28713316 0.009729287 -0.4626181 -1.3586347 -0.94017285
-1.2627113 0.39292374 0.5979371 0.67937094 0.85984385 -0.42451656 -1.420996 -1.6785493
-0.7098782 -0.7963046 -0.105855964 0.36212113 -1.1607345 0.18053585 -0.44616157 2.122953
-2.1062622 -2.769803 -1.3200836 1.7170095 -0.23419993 0.31298882 0.046722084 -0.56084436
-2.2714558 0.48568502 -0.42252526 0.56386954 1.2134286 -1.1874394 -2.1739695 -0.05539541
-1.0710161 -1.5896621 0.291539 0.22375354 0.106914304 0.39840466 -2.038468 0.12606636
2.1248248 -1.314924 1.2455858 0.19163278 1.3940406 -0.03329816 -1.5558766 -1.5375096
-0.51256526 0.66494375 0.94315857 -1.136749 0.8378605 -0.21975526 -1.1218997 0.27388406
1.1795876 -0.3580774 0.1300101 -1.7683134 -1.3944887 -0.62241054 -1.938522 -1.1008619
0.101102695 -0.8309347 -0.41146886 -0.10204192 -1.5227737 1.2717154 2.1844046 -0.88340217
-0.10806823 -1.1947896 -0.21518838 0.75608516 -0.22131228 -0.56270427 -0.89898735 0.97870356
0.71434397 0.55719954 -0.25560305 -0.098409556 -0.30837226 0.84560144 -0.51413524 1.3057507
-0.8420365 0.8894779 0.1736851 -0.97044635 -1.819715 -1.0580475 -0.7306088 0.012933541
1.3205259 0.88726103 0.012341266 0.90229756 -0.3654496 -1.0000522 -1.9607124 1.875472
-0.12472289 -0.61851424 0.872657 1.5113754 -1.5831114 0.016115474 0.919722 -0.32043847

feat.conv3d_2.bias f4 [4, 32]
00000000: 7d68 363b fcc4 103b 4864 ceb9 ec3d e73a
00000010: f395 8d3a e8d1 d1ba 0a48 1abb a24d b539
00000020: 3683 15bb 2b6f 02bb cbe0 293a 3f4a 2bba
00000030: a83a 233b baa6 bf3a 793a 18ba cd91 13bb
00000040: 07b9 2e3b cc6a 253b f298 1abb e974 c9ba
00000050: efab 59ba 8e7f 303b af92 efba 0477 38ba
00000060: ff01 203b 0bf7 f53a 2369 e239 c066 89ba
00000070: 30ce 133b 78da 253b 6a19 cc3a df51 c9b9
00000080: 9637 343b 2f74 223b ba6f 873a ded4 8939
00000090: 782b 1ebb cfae acba e8b5 21bb daaf 10bb
000000a0: 8124 e63a d97d 0b3b 0c80 90b9 7c8a 1b3b
000000b0: 5243 1a3b bdf9 c7ba 71a7 22bb a9a7 24bb
000000c0: 376b 2c3b b182 01bb 77fa 753a af5a 173b
000000d0: d5a4 263b 4391 2e3b 27af 183b 35f7 d9ba
000000e0: 2181 a33a f270 1b3b 8e46 d93a cd96 17bb
000000f0: a477 b5ba 3357 413a c8ef 0a3b cfae 0cbb
00000100: 777e 393b 13de 2d3b 7148 393a d5d1 b83a
00000110: aecb 1dbb 9d44 daba ab8e 21bb ee39 10bb
00000120: 98c3 80b8 d7a4 0f3a 8c9a 0cba d25a 1f3b
00000130: bec8 223b 4758 bcba fab6 17bb 27af 27bb
00000140: c40b 343b ca8a 143a 4b18 13ba 2d3a 173b
00000150: 5c53 2c3b a131 333b 431d 133b bbf8 baba
00000160: 736b 1b3b 0a49 243b 1e0d d23a fe6f 0fbb
00000170: 4f30 313a c5e5 173b 31e2 103b d02d 0abb
00000180: 880b 3dbb 0525 31bb 2fbb 21ba 17fb d7ba
00000190: 4cdb 193b 95b4 ed3a 72ec 233b f2a4 103b
000001a0: 774f 6e3a ff66 2c3a 79f5 a338 2b1a 21bb
000001b0: ebbd 24bb 7f26 863a f9a6 123b 552f 2a3b
000001c0: be0b 36bb ca0f e2ba ad96 bd3a 6c31 17bb
000001d0: 6b31 31bb 3455 38bb f4de 14bb 3441 c73a
000001e0: f5c2 1fbb 93d2 23bb 326e d2ba 663a 0e3b
000001f0: 7a08 abba 3a86 26bb da5d 0dbb 93ed 053b
0.0027833276 0.0022090068 -0.00039366097 0.0017642356 0.0010802135 -0.0016007992 -0.0023541474 0.0003458085
-0.0022813804 -0.0019902687 0.0006480335 -0.0006534196 0.0024906788 0.0014621832 -0.0005807053 -0.0022517324
0.0026660578 0.0025240658 -0.0023589698 -0.0015369925 -0.0008303513 0.0026931497 -0.0018277968 -0.00070367777
0.0024415252 0.0018765641 0.00043184412 -0.0010482892 0.0022553317 0.002530722 0.0015571539 -0.00038398706
0.0027498952 0.002478849 0.001033298 0.00026289275 -0.0024134796 -0.0013174656 -0.0024675075 -0.0022077472
0.0017558486 0.0021284728 -0.00027561223 0.0023733666 0.0023538661 -0.0015256923 -0.002481904 -0.0025124347
0.0026309022 -0.0019761736 0.00093833305 0.0023094823 0.0025427837 0.0026636876 0.0023297758 -0.001662946
0.0012474396 0.0023718444 0.0016576813 -0.0023130656 -0.001384486 0.00073753594 0.002120005 -0.0021466499
0.0028304139 0.0026530072 0.00070679846 0.0014100621 -0.0024077701 -0.0016652528 -0.0024651687 -0.0022007185
-6.139948e-05 0.000547958 -0.00053636055 0.0024315608 0.002483889 -0.001436957 -0.0023149834 -0.0025586577
0.0027472833 0.0005666433 -0.0005611225 0.0023075447 0.0026294803 0.0027342814 0.0022447861 -0.0014264801
0.0023715168 0.0025067949 0.0016025638 -0.002188682 0.00067592127 0.0023177725 0.0022107477 -0.0021084435
-0.0028845984 -0.0027030122 -0.0006169555 -0.0016478029 0.0023476658 0.0018135483 0.0025012759 0.0022070971
0.00090908207 0.0006576627 7.8181685e-05 -0.0024582248 -0.0025137614 0.0010234861 0.0022377355 0.0025968153
-0.0027777995 -0.0017247137 0.001446446 -0.002307023 -0.0027037512 -0.0028126957 -0.0022715898 0.0015201927
-0.0024377678 -0.0024997338 -0.0016054569 0.0021702289 -0.0013048791 -0.0025409595 -0.0021570832 0.0020435795

feat.conv3d_2.attention.fc1.weight f4 [5, 16, 1, 1, 1]
00000000: 218d 383e d152 66be e40b 2bbd 5fb5 7c3e
00000010: 3875 673e 41e9 733e b2a4 833d 723d 55be
00000020: f501 18bd f366 433e 4c50 3cbe 46b7 313e
00000030: 5ac2 763e c377 5a3c 5b57 313d 5a52 7bbe
00000040: e7dc 55be e697 94bd 61b3 883c 4c3c 20be
00000050: de5d ed3c 7204 123e 9cf5 1f3e cb92 bb3d
00000060: 4113 43be 7d5f 40bd 3f50 3c3e 8b06 c33d
00000070: 6c1a d73d 2656 16bd bab6 74be 60ae c6bd
00000080: 5236 e53d 5e6e 11bd 690d 803d c340 0a3e
00000090: d761 26be e9b7 41be 34af 10be 5bb4 37bb
000000a0: 6a46 0dbd 8ac3 713e be6f 9d3d 22c3 c1bd
000000b0: 1f9d 63bd f463 c4bd da25 3b3e 0c1c 693e
000000c0: 5191 403c 839d df3d 0b3b 7a3e b423 11be
000000d0: 3e4f 1dbe 17cc d1bd 1167 0fbe 2b53 403e
000000e0: 4387 fe3d 5570 d23d 2168 1e3d 804a 5fbe
000000f0: 7bf7 7b3e da2c 363e c360 38bb 60fa 67be
00000100: ca08 d13d 9d86 72be 1e12 1bbc d66e e1bb
00000110: 5438 9d3d ff88 48be 3401 6abe 630d 1d3e
00000120: 302a dbbd 7506 01bd e262 673e b650 783e
00000130: 242c c73d 457f 30be ac5a 003e 9b97 2e3d
0.18022586 -0.2249253 -0.041759387 0.24678563 0.22603309 0.23819448 0.064278975 -0.20824221
-0.03711124 0.19082241 -0.18390006 0.1735507 0.24097577 0.0133342175 0.0432962 -0.24543133
-0.20885049 -0.07255535 0.016687097 -0.15648001 0.028975423 0.14259508 0.15621036 0.09158858
-0.19050314 -0.046966065 0.18389986 0.09522732 0.105030864 -0.03670325 -0.2389783 -0.09701228
0.111920014 -0.035505645 0.06252558 0.13501267 -0.1624826 -0.18917812 -0.14129335 -0.0028031084
-0.03449098 0.23609748 0.07687329 -0.09461047 -0.055569764 -0.09589377 0.18276158 0.22764605
0.011753396 0.10918715 0.24436586 -0.14173776 -0.1536226 -0.10244005 -0.1400416 0.18781726
0.12428143 0.10275332 0.038673524 -0.21805763 0.24606125 0.17790547 -0.0028133846 -0.22654104
0.102067545 -0.23684163 -0.009464769 -0.0068796678 0.07676759 -0.1958351 -0.22852021 0.15337138
-0.10701406 -0.0315003 0.22596315 0.24249539 0.09725216 -0.1723605 0.12534589 0.04262505

feat.conv3d_2.attention.fc2.weight f4 [4, 5, 1, 1, 1]
00000000: 16b1 adbe ad21 af3e c671 c83e 9cc1 c7bd
00000010: ce6b 6abe 1d38 c7be f7f6 a1be 51ee 563c
00000020: 1a90 2c3e 526e 32be 6b95 d0be 804f 79be
00000030: 00b8 cc3d ef08 583e 5c40 e8bd 4e09 5c3e
00000040: 4cb2 7fbe 47bc 543e 1c4d 83be 5868 a9be
-0.33924168 0.3420538 0.39149302 -0.09753725 -0.22892687 -0.3891 -0.31633732 0.0131183425
0.16851845 -0.17424896 -0.40738997 -0.24346733 0.09996033 0.21097158 -0.113404006 0.21487924
-0.24970359 0.20774947 -0.25644767 -0.3308742

feat.bn3.weight f4 [32]
00000000: d0de 7f3f 4bdd 7f3f ac8f 7f3f 11a5 7f3f
00000010: acc2 7f3f 9081 7f3f fbb9 7f3f 75ed 7f3f
00000020: bcca 7f3f 26b9 7f3f b48d 7f3f b7e6 7f3f
00000030: f8f8 7f3f 8cdc 7f3f 72d6 7f3f 65ef 7f3f
00000040: 3fc3 7f3f 2ba5 7f3f 2b19 803f ce02 803f
00000050: 14e5 7f3f 20b7 7f3f ea96 7f3f e9ef 7f3f
00000060: 56c7 7f3f 29f7 7f3f f2f3 7f3f dd99 7f3f
00000070: 2de2 7f3f 77bb 7f3f c611 803f a515 803f
0.9994936 0.9994704 0.998286 0.99861246 0.9990642 0.9980707 0.9989316 0.99971706
0.99918723 0.9989189 0.99825597 0.9996142 0.9998927 0.999459 0.9993659 0.9997466
0.99907297 0.998614 1.0007681 1.0000856 0.9995892 0.998888 0.9983965 0.9997545
0.9991354 0.9998651 0.99981606 0.9984415 0.9995449 0.99895424 1.0005424 1.0006605

feat.bn3.bias f4 [32]
00000000: 8566 f8b9 7783 2639 100e 88ba 33c6 32ba
00000010: 7091 d3ba 5ccd 1ebb 18ad baba 87ea ca38
00000020: b6ac 00bb dda3 0cbb d61f e7ba 4c3a 36b9
00000030: 3cba 8a39 66d2 bcba 96f0 1bbb 1e85 c7ba
00000040: 3029 823a f7c8 a2ba 070f 17bb 1218 7fba
00000050: 3b5c a3b9 3892 80ba e088 aeba a069 b5ba
00000060: b0bf 093a dda1 eeb9 b1b2 c6b9 1d85 03bb
00000070: 0380 9dba 45ef a7ba d5e7 6838 a4b0 813a
-0.0004737863 0.00015879968 -0.0010380168 -0.0006819695 -0.0016141366 -0.002423129 -0.001424226 9.675795e-05
-0.0019634194 -0.0021459975 -0.0017633389 -0.0001737859 0.00026460167 -0.0014405965 -0.0023794523 -0.0015222167
0.0009930488 -0.0012419511 -0.0023049728 -0.0009731065 -0.000311585 -0.0009809202 -0.0013315938 -0.0013840683
0.0005254699 -0.00045515495 -0.00037898638 -0.0020068355 -0.00120163 -0.0012812397 5.552902e-05 0.0009894562

feat.bn3.running_mean f4 [32]
00000000: 0972 a8c0 aa5b dfc0 5940 8240 b9d2 0f41
00000010: 0fba 2840 a092 bd3d e666 5f40 3606 7f40
00000020: be00 29bf 2f01 69bf 02a0 c1bf 7feb 47c0
00000030: 0a6e 0240 c30a 793e af59 aebe dc93 a340
00000040: 223f 65c0 b163 1c40 882c c0bf 8083 b33e
00000050: ea2a e1bf af1c 93c0 775c 4140 4544 f1be
00000060: 28eb ea3f acea 7ebf dede 3540 d52a c8c0
00000070: dc16 523f 83f1 38c0 ebbf d3c0 a254 8440
-5.2639203 -6.9799395 4.070355 8.988946 2.636356 0.09256482 3.4906554 3.984754
-0.6601676 -0.9101743 -1.5126956 -3.1237485 2.0379663 0.24320512 -0.34052798 5.1117992
-3.5819783 2.4435847 -1.501359 0.35061264 -1.7591221 -4.5972514 3.0212686 -0.47122398
1.8353014 -0.9957683 2.8417277 -6.2552285 0.8206613 -2.8897407 -6.6171775 4.135331

feat.bn3.running_var f4 [32]
00000000: 4e26 1143 bfda 0943 2735 0c43 c9a5 3643
00000010: 65f4 c642 c352 d642 7d2d d142 b87d 3143
00000020: 93cc b142 3c64 f142 f027 c642 17f3 9d42
00000030: 1b69 b042 c495 b242 df1c cc42 b243 fb42
00000040: 4d69 fc42 ce65 ab42 1892 eb42 bb77 c342
00000050: 35cd f942 75b3 c342 e12b e942 ce49 ed42
00000060: 9c45 a642 634f d842 ae6b e042 e98c e342
00000070: 3f12 ab42 cf5d c442 fcfe 0d43 1604 1043
145.14963 137.85448 140.20763 182.6476 99.47733 107.161644 104.588844 177.49109
88.89956 120.69577 99.078 78.974785 88.205284 89.29251 102.05639 125.63222
126.205666 85.69884 117.78534 97.73385 124.900795 97.8505 116.5857 118.64415
83.135956 108.15505 112.21031 113.775215 85.53564 98.18322 141.99603 144.01596

mlp.fc2.weight f4 [10, 6912]
00000000: 9f17 e3bb d7fb df3b c1a0 c2bb 3f03 f4bb
00000010: 1c38 003c 506d f33b fb0d a5bb 40df 3c3c
00000020: 7e17 103c 9b54 abba 49ac 12bc 46a2 b63b
00000030: b1d0 4b3b 279a 02bc 273e 19bc eb6c 403b
00000040: 9993 a2bb f52b 42bb 1223 8d3b 3708 2fbc
00000050: 8b1b 86bb 6bbd 93bb 1bb8 74bb 770f 05bb
00000060: ac43 1a3c c7b6 f9bb 0dfd baba 8802 4a3b
00000070: e2a3 8639 a072 3bbc d737 293c 2783 0d3c
00000080: ff73 a83b 412b 0e3a 1fe7 be3b 86f4 063c
00000090: d452 1cbc 35fe d63b e9e7 debb 7892 ff3a
000000a0: 5e3a 023c fc6b bf3a 0fef cd3b 9dd8 1ebb
000000b0: f598 a7bb 2399 c1bb aaf3 34bc 38da 09b9
000000c0: aab3 26bc 651f 233c 2e33 fc3b 7813 c2ba
000000d0: 72be d0bb 1b8b 32bc 3b6e 883b dcec 1c3c
000000e0: 6493 ed39 58a2 f3bb 4ad4 aabb ca30 e43a
000000f0: 6399 1abc 3bae 0abc 1f8f 363c f919 bfbb
00000100: ae78 f7ba b6a7 35bb 92dc cabb 1ddd 85bb
00000110: 4603 02bb a562 233b f234 e63a da31 33bb
00000120: 4726 07bc 51c7 283c 290e 05bc b5c1 2abb
00000130: 4ade 6fb9 da91 87bb f3a7 0cbb 1dd1 603b
00000140: 6ea8 223c 69de 953b c7f9 eabb ee3c 18bc
00000150: b2d8 b2ba 0aea 373c f170 af3b cb5d 41bc
00000160: 2467 47bc 8af3 243c ad31 6dbb 31ec bd3b
00000170: 84f8 813b 7727 133c 3e0c 25bc 7e7a 0e3c
00000180: c87e abbb b9e1 ab3b 9c58 b2ba 7ee9 73bb
00000190: 675e 60ba 5b22 363c a466 92b9 6c3b 173c
000001a0: 7213 293c 3bfb 423b a730 42bb 42f6 9abb
000001b0: 6b85 d8ba 777b b53b 985f 2f3b bd1f 3a3b
000001c0: ef65 073c 4ad4 13bc e5d1 95bb 6042 b53b
000001d0: 8974 30bc f788 39bc 60fd 8a3b b7da 783b
000001e0: a36b 1aba 397a c7bb 60c6 87bb 42b9 163c
000001f0: c4e4 2b3c a556 37bc 851b bcbb f164 16bc
00000200: 6c71 49bc ecdd 43bc a18a e2bb 5dc7 113c
00000210: 913b 003c d4ba 5b3a 7517 21ba 5054 b2bb
00000220: 7634 eebb e3fe 54bb a5b2 8bba 19d9 1a3c
00000230: c892 2b3c 9e77 4dbb 88b2 12bb afc0 2d3c
00000240: 7180 b83a 5692 583a 4489 14b7 269d d4bb
00000250: 5116 853b 941a 0eb9 6c85 0dbb b9dd 0abb
00000260: e75b 00bb eb6c 02bc 2d9c 753b 3428 48bc
00000270: a988 08bb 3265 c4bb 8b77 04bc cd70 6cbb
00000280: 9988 b5bb 5859 33bc 3964 dbba 4133 8e3b
00000290: 1c34 dd39 9c38 a13b 125f 22bc 1622 2c3c
000002a0: 7aa7 c338 e278 6abb 8546 d43b d04c 0fbc
000002b0: c875 d23b 24a6 0abc 566d 71bb 1b5d b43b
000002c0: 0be6 1c3c 4340 26bc c7e8 3ebc 334e 5cba
000002d0: 758f a23b 5f1e 59b9 4f35 a5bb 5ee8 5dbb
000002e0: 85c0 e53a 9c31 003c 82d4 33bc faff bb3a
000002f0: fd65 c3bb 57a6 2cbb 7b6f aa3b 8c06 14bb
00000300: bd65 3bbc 2106 243b 5f0d 103c 0e51 9fbb
00000310: ff23 c6b9 dab1 26bc cc95 11bc bc31 9fba
00000320: 3e11 9e39 0a9a 293b f0df c63b b568 88bb
00000330: cf7d f03a 7350 aabb 53a5 003c ebfa c73a
00000340: 59bf c8bb d84d 0cbc ca5f f0bb f314 16bc
00000350: bf0f 043c 2136 23bc 7a95 883a f1fd 8bbb
00000360: 4f71 3e3c 2702 283c fb21 a9bb 536d eb3b
00000370: 10d2 13bc bbe8 f7bb 9620 2e3c acb8 a23b
00000380: 833b 343c 03ff 463c 5615 3e3c 210c 04bc
00000390: 77e8 c83a 2f96 923b 584e bb3a d212 5d3b
000003a0: 7588 c0bb 7d42 25bc abfd af3b fa84 903b
000003b0: 9b61 eb3b 7843 143c 3dfa 223c 61f2 16bc
000003c0: 3b46 1d3c 8368 16bb eee7 f6bb 9064 283b
000003d0: d662 24bb 544c ff3b da43 41bb f6f9 d43b
000003e0: b307 05bc c47b 083c e394 f13a 775e 343c
000003f0: 2938 d23b 1976 2fbc 477c 2e3c d956 9a3b
-0.006930306 0.0068354416 -0.0059395735 -0.007446676 0.0078258775 0.0074288025 -0.005037067 0.011527836
0.0087946635 -0.0013071479 -0.008952209 0.0055735437 0.0031099732 -0.007971323 -0.009353197 0.0029361795
-0.0049614427 -0.0029628251 0.004307159 -0.010683111 -0.004092639 -0.0045086644 -0.003734118 -0.0020303407
0.009415548 -0.0076206657 -0.0014266089 0.0030824263 0.00025680574 -0.011440903 0.010328255 0.008637226
0.005140781 0.00054233155 0.0058258916 0.00823701 -0.009541232 0.0065610656 -0.006802548 0.0019498607
0.007948486 0.0014604325 0.0062846015 -0.0024237998 -0.0051146694 -0.005908148 -0.011044422 -0.00013146631
-0.010174671 0.0099562155 0.007696531 -0.0014806828 -0.006370359 -0.010897423 0.004163531 0.009577956
0.00045313977 -0.0074351244 -0.005213295 0.001740956 -0.009435984 -0.008464391 0.011142521 -0.0058319536
-0.001888057 -0.0027718372 -0.006190845 -0.0040851966 -0.0019838377 0.0024930623 0.0017563386 -0.0027342946
-0.008248872 0.010301427 -0.008121052 -0.00260554 -0.00022875625 -0.00413726 -0.002146241 0.0034304329
0.009927852 0.0045736325 -0.007170889 -0.0092918705 -0.0013644903 0.011225233 0.00535404 -0.011802147
-0.012170587 0.01006783 -0.003619294 0.0057959785 0.003966393 0.008981577 -0.01007372 0.008696197
-0.0052336194 0.005245414 -0.001360673 -0.003721803 -0.0008558989 0.011116589 -0.00027923763 0.009230476
0.0103195775 0.0029751796 -0.002963105 -0.0047290633 -0.0016519254 0.0055384 0.002675986 0.0028400265
0.008264049 -0.009022782 -0.0045721405 0.005531594 -0.010769972 -0.011324159 0.0042416304 0.003797216
-0.0005890673 -0.006087568 -0.004143521 0.009199442 0.010491554 -0.011190091 -0.0057405853 -0.00917934
-0.012295108 -0.011954766 -0.0069134985 0.00889763 0.007826702 0.00083820266 -0.0006145158 -0.0054421797
-0.0072694374 -0.0032500557 -0.0010658099 0.009451174 0.010472007 -0.0031351815 -0.0022384245 0.010605021
0.0014076364 0.0008261552 -8.853447e-06 -0.00648846 0.004061498 -0.00013552076 -0.0021594418 -0.0021189286
-0.0019586028 -0.007960538 0.0037477121 -0.012216616 -0.002083341 -0.0059935087 -0.008085142 -0.0036077977
-0.0055399654 -0.010946594 -0.0016738243 0.004339606 0.0004219123 0.0049200784 -0.009910362 0.010506174
9.3295195e-05 -0.0035777618 0.006478133 -0.008746341 0.006422732 -0.008462463 -0.003683885 0.005504263
0.009576331 -0.010147157 -0.011652178 -0.00084039866 0.004960949 -0.00020706047 -0.0050417553 -0.0033860425
0.0017528689 0.007824328 -0.010975959 0.0014343255 -0.0059630857 -0.0026344263 0.005201278 -0.002258691
-0.0114378305 0.0025028067 0.00879225 -0.0048619574 -0.00037792322 -0.010174239 -0.008885812 -0.0012145559
0.00030148955 0.0025879168 0.006069176 -0.0041628727 0.0018348041 -0.0051975786 0.007851916 0.0015257274
-0.006126326 -0.008563481 -0.0073356377 -0.009160268 0.008060395 -0.009961636 0.0010420524 -0.0042722155
0.011623695 0.010254419 -0.0051615215 0.0071846633 -0.009022251 -0.0075655854 0.010627886 0.0049658623
0.011000517 0.0121457605 0.011601767 -0.008059532 0.0015328069 0.0044734697 0.0014290316 0.0033733142
-0.005875642 -0.010086653 0.0053708158 0.0044103833 0.0071832663 0.009049289 0.009947357 -0.009213061
0.009599264 -0.0022950477 -0.0075349724 0.0025694706 -0.0025083325 0.0077910814 -0.0029489906 0.006499524
-0.008119511 0.008330289 0.0018431213 0.01100885 0.006415386 -0.010709309 0.010649747 0.00471006

mlp.fc2.bias f4 [10]
00000000: beab d7bb fbf9 803a b293 1cbc ed33 19bc
00000010: 33b4 e0bb 9907 e1bb 1982 2ebc 5302 ffbb
00000020: 88c5 64bb d1a6 1b39
-0.0065817526 0.0009840125 -0.009556698 -0.009350759 -0.006857419 -0.006867361 -0.010651135 -0.0077822595
-0.0034907777 0.00014844096
