cls/cls_model_8102.pth (torch, 158979 bytes, 17 tensors)

feat.conv3d_1.weight f4 [4, 8, 1, 5, 5, 5]
0	0x3fc95c16	1.5731227
1	0x3fcac5a1	1.5841562
2	0xbf56676c	-0.8375156
3	0x3f3fbbe1	0.74896055
4	0x3f7f6c19	0.9977432
5	0x3f0607bf	0.5235557
6	0xbf429cbe	-0.7602042
7	0x3fdbe787	1.7180032
8	0x3edbbdd6	0.4291827
9	0xbf86c22e	-1.0528009
10	0xbdd8e0bc	-0.1058974
11	0xbf83f8b2	-1.0310271
12	0x3fe21982	1.7664034
13	0x3f53fe78	0.82810163
14	0xbfb7067e	-1.4298856
15	0xbcf8bb42	-0.030362729
16	0x3fca1cca	1.5790036
17	0xbe0e9b35	-0.13926394
18	0x3f63a60f	0.8892526
19	0xbf1bcc5c	-0.608587
20	0x3e47e411	0.19520594
21	0x3f861afd	1.0476986
22	0xbf715ebf	-0.94285196
23	0x3f0f49ab	0.55971783
24	0xbef3e086	-0.47632235
25	0x3f84661b	1.034366
26	0x3fb20dc4	1.3910451
27	0xbf19d5ca	-0.6009184
28	0xbfc40cf9	-1.5316459
29	0x3fad6c85	1.3548743
30	0x3edc589c	0.43036354
31	0x3f864332	1.0489256
32	0xbfb2d329	-1.3970691
33	0x3f3ee127	0.74562305
34	0x3ff2fa3e	1.8982618
35	0xbf5e399b	-0.8680665
36	0xc03570b1	-2.8350031
37	0xbeec6650	-0.46171808
38	0xbdecd613	-0.11564269
39	0xbf36a8c0	-0.7135124
40	0x3ed8244d	0.42215195
41	0x3eff70db	0.4989079
42	0xbe12d0a9	-0.1433741
43	0xbf9969bf	-1.1985396
44	0x403f3bf2	2.9880338
45	0x3f13b695	0.57700473
46	0x3e8b09d7	0.27155945
47	0xbef818e2	-0.48456484
48	0x3fa3c7e5	1.2795378
49	0xbdfe631b	-0.124212466
50	0x3ff7ddbf	1.9364547
51	0x3fc2cdd2	1.5219061
52	0xbf8521d2	-1.0400946
53	0x3feff5a7	1.8746842
54	0xbf71cd88	-0.9445424
55	0x3f3f1fb0	0.74657726
56	0xbf5dea05	-0.8668521
57	0xc02d437e	-2.7072444
58	0xbf1cf4b0	-0.61310863
59	0x3f0d9689	0.55307823
60	0x3e297a0c	0.16550463
61	0x3f69464d	0.91122895
62	0x3ee691e1	0.45033172
63	0xbe8bc300	-0.2729721
64	0x3f32954e	0.6975907
65	0xbe91590d	-0.28388253
66	0x3de77274	0.11301127
67	0x3d863f2b	0.06555017
68	0x3eb9dff8	0.36303687
69	0x3e07ad87	0.13249789
70	0x3fb9f91f	1.4529151
71	0x3f3ace60	0.72971153
72	0x3d372e1a	0.0447217
73	0xbe06f7ad	-0.13180418
74	0x3f60044a	0.87506545
75	0x3fac1727	1.3444566
76	0x3fa0b07b	1.2553858
77	0xbf508dce	-0.81466377
78	0xbf6ff0fd	-0.93727094
79	0x3f19b58b	0.6004264
80	0xbf82d28d	-1.0220505
81	0xc009a126	-2.1504607
82	0xbda366d8	-0.079786
83	0xbf877ccf	-1.0584964
84	0x3f3aac21	0.729189
85	0xbe450956	-0.19241843
86	0xbe46cd62	-0.19414285
87	0xbfd5e162	-1.6709406
88	0xbf388ef0	-0.72093105
89	0xbec07c68	-0.37594914
90	0x3fa1777d	1.261459
91	0x40066621	2.0999835
92	0xbe1d09f5	-0.1533583
93	0x3f56be9e	0.8388461
94	0x3f52c0a2	0.82325184
95	0x3fc20713	1.5158409
96	0x3fa30390	1.2735462
97	0x3ec734fd	0.38907614
98	0x3f219a88	0.6312642
99	0xbfa1ae35	-1.2631289
100	0x3f2de683	0.6792986
101	0xbfbc0bcd	-1.4691101
102	0xbf01ef73	-0.50755996
103	0x3f6371bf	0.8884544
104	0xbece704b	-0.40320048
105	0x3f423d4e	0.75874794
106	0x4016a080	2.3535461
107	0xbfc8f03e	-1.5698316
108	0x3f7c63f8	0.9859004
109	0xbee48734	-0.44634402
110	0xbf2d7e3f	-0.6777076
111	0x3f0ba21f	0.5454425
112	0xbf894ac8	-1.0725946
113	0xbf22398d	-0.63369066
114	0xbf06bcfe	-0.5263213
115	0xbf0d5040	-0.55200577
116	0x3f415e83	0.7553484
117	0x3ec93daf	0.39304873
118	0x3cfb469f	0.030673323
119	0x3f6ba92e	0.9205502
120	0x3ef83eae	0.4848532
121	0xbed6bdc2	-0.4194165
122	0xbf0a65db	-0.5406167
123	0x3e18ea80	0.14933205
124	0x3e7c54e2	0.24641755
125	0xbea3d322	-0.3199702
126	0x3d8a119a	0.067416385
127	0xbf2bb192	-0.67067826
128	0x3fb5a98c	1.4192367
129	0x3e63c063	0.22241358
130	0xbf99194a	-1.1960843
131	0x3fa5b2f3	1.2945236
132	0x3f84e553	1.0382484
133	0x3e862ff5	0.26208463
134	0xbfa839c5	-1.314263
135	0xbfaa6887	-1.3313149
136	0x3fb93917	1.4470547
137	0xbe61f336	-0.22065434
138	0x3f6e3fec	0.9306629
139	0xbe1d8841	-0.15384008
140	0x3fa3a036	1.2783267
141	0x3f600246	0.8750347
142	0xbf87e5ce	-1.0617006
143	0x3da4f8d4	0.08055273
144	0x3f48a5e0	0.78378105
145	0xbdb31ab6	-0.08745329
146	0x3e079c90	0.13243318
147	0x3fa2f1c1	1.2730027
148	0xbe0cceb7	-0.1375073
149	0x3f9584a8	1.1681108
150	0xbebf5381	-0.37368396
151	0x3fc59928	1.5437365
152	0xc0124af8	-2.2858257
153	0x3dc3869e	0.095471606
154	0xbc8152bd	-0.015786523
155	0xbf4c62b4	-0.7983811
156	0x3c036385	0.008019333
157	0xbf6a51cc	-0.9153106
158	0xbe9ba70e	-0.3040089
159	0xbf72c05a	-0.94824755
160	0x3e684207	0.22681437
161	0x3ea54297	0.32277367
162	0x3f4815c2	0.781582
163	0x3f77b327	0.9675774
164	0xbf98e5e1	-1.1945153
165	0x3f13de6f	0.5776128
166	0x3e07e6c8	0.1327163
167	0xbf1dfe08	-0.61715746
168	0xbfa3cb99	-1.2796508
169	0x3fa0a838	1.2551336
170	0x3ec8b37c	0.39199436
171	0x3fdf0aee	1.742521
172	0x3f133133	0.5749695
173	0x3f293c4c	0.6610763
174	0x3c2fd61f	0.010732203
175	0x3e6dbbb0	0.23216128
176	0xbf71ce63	-0.94455546
177	0xc01ffcc7	-2.4998033
178	0x3f2bc587	0.6709828
179	0xbe887f43	-0.26659593
180	0xbfdfd8ba	-1.7488015
181	0xbf57c747	-0.8428845
182	0xbffdbe5a	-1.9823716
183	0xbfd6e038	-1.6787176
184	0xbf64e369	-0.894095
185	0x3fecee11	1.8510152
186	0x3eeb851c	0.45999992
187	0xbedd14b4	-0.43179858
188	0xbf100996	-0.56264627
189	0xbf9b6f20	-1.2143288
190	0x3fa8aa2f	1.3176936
191	0xbf788a8d	-0.9708641
192	0xbfaee274	-1.3662858
193	0x3f45fd26	0.773394
194	0x3c736884	0.014856461
195	0xc02d9d19	-2.7127135
196	0x3ea5da8d	0.32393304
197	0xbf80562b	-1.0026296
198	0x3e08145d	0.13289018
199	0xbfd7c21a	-1.685611
200	0xbec3693a	-0.3816622
201	0x3fa68882	1.3010409
202	0xbf2872f4	-0.65800405
203	0x3e22d5f3	0.15901928
204	0xbfa51375	-1.2896563
205	0xbf6edfce	-0.9331025
206	0x3f74515b	0.9543664
207	0xbf415438	-0.7551913
208	0xbfdc015f	-1.7187918
209	0xbeecc176	-0.4624135
210	0xbee1f5d7	-0.44132873
211	0x3f9d4a27	1.2288254
212	0xbf232cd6	-0.6374029
213	0x3d33754e	0.043813042
214	0x3d2c2867	0.04203072
215	0x3e8b53c3	0.27212343
216	0xbf95b421	-1.1695596
217	0xbe85bde0	-0.26121426
218	0x3f160e3f	0.5861549
219	0x3fb91d8e	1.4462144
220	0xbfa20ca7	-1.2660111
221	0x3f517fe6	0.8183578
222	0x3fdb72ab	1.7144369
223	0x3e870074	0.26367533
224	0xbd8afefa	-0.06786914
225	0x3f1abacd	0.60441285
226	0xbc6a74f2	-0.0143101085
227	0x3e6f0c57	0.23344551
228	0x3f11ac4d	0.56903535
229	0x3fa202f7	1.2657155
230	0x3f938d56	1.1527507
231	0x3fa0a743	1.2551044
232	0x3fbedef7	1.4911793
233	0x3eceadda	0.40367013
234	0xbe47a5c5	-0.1949683
235	0xbdbaedb6	-0.09127371
236	0x3e7075ac	0.23482388
237	0x3f95ebf0	1.1712627
238	0x3fd68a99	1.6761047
239	0xbfc93a19	-1.5720855
240	0x3fdd4684	1.7287145
241	0xbf5a2929	-0.85219055
242	0x3f403f31	0.7509642
243	0xbf2d1d78	-0.6762309
244	0xbf2561c3	-0.646023
245	0x3f21a113	0.63136405
246	0x3f56e100	0.8393707
247	0x3f954a4e	1.1663301
248	0xbe5a449d	-0.21315236
249	0x3e16f15e	0.14740512
250	0xbe98dcc3	-0.29855928
251	0x3fd938f6	1.6970508
252	0x3fbeadfd	1.4896847
253	0xbeb6f325	-0.3573238
254	0x3ead2aa7	0.33821604
255	0x3f252e8e	0.6452416

feat.conv3d_1.bias f4 [4, 8]
0	0xbbbb2ccc	-0.0057121273
1	0x3c514a5a	0.012774074
2	0x3c5c6a26	0.013453042
3	0x3c82aded	0.015952075
4	0x3c20a6d6	0.009805402
5	0x3bc7882a	0.00608923
6	0xbc4e3547	-0.0125859445
7	0xbc4d95bb	-0.012547906
8	0xbbbb1367	-0.0057091
9	0x3c4e8dab	0.012607018
10	0x3c5a14f2	0.013310658
11	0x3c8153da	0.015787054
12	0x3c201375	0.009770264
13	0x3bc807e2	0.0061044553
14	0xbc4b9ce9	-0.012427547
15	0xbc4c5e96	-0.012473723
16	0x3bb56f6b	0.0055369637
17	0xbc501ccf	-0.012702181
18	0xbc595110	-0.013263956
19	0xbc824936	-0.01590405
20	0xbc1db519	-0.009625697
21	0xbbbd01e2	-0.0057680467
22	0x3c4cb116	0.012493392
23	0x3c4a0a90	0.01233162
24	0x3bbca76e	0.005757264
25	0xbc4ff0ac	-0.012691658
26	0xbc5b6365	-0.013390397
27	0xbc81d008	-0.015846267
28	0xbc21a0c6	-0.0098649915
29	0xbbc87afa	-0.0061181756
30	0x3c4c8eee	0.012485249
31	0x3c4e1b8f	0.012579813

feat.conv3d_1.attention.fc2.weight f4 [4, 1, 1, 1, 1]
0	0xbcc68ec0	-0.02423799
1	0xbd9b2ddd	-0.07577107
2	0x3e505153	0.20343523
3	0x3ec3af76	0.38219804

feat.bn2.weight f4 [8]
0	0x3f7d3da9	0.9892221
1	0x3f7da20b	0.9907538
2	0x3f80e056	1.0068462
3	0x3f8080a9	1.0039264
4	0x3f815d3d	1.0106579
5	0x3f7fa046	0.9985393
6	0x3f7f1b38	0.9965091
7	0x3f814473	1.0099014

feat.bn2.bias f4 [8]
0	0xb9bb897a	-0.00035769847
1	0xbbc6c437	-0.006065871
2	0x3c5adea1	0.013358743
3	0x3c762f61	0.015025944
4	0x3c47f91e	0.01220539
5	0xbb113434	-0.002215636
6	0xbc24e75b	-0.010064925
7	0x3c2acff7	0.010425559

feat.bn2.running_mean f4 [8]
0	0x3f33b6da	0.70200884
1	0xbd21c793	-0.03949697
2	0x3f462a6f	0.774085
3	0x3e9d9b6f	0.3078265
4	0x3f943e34	1.1581483
5	0xbf42ba26	-0.7606529
6	0xbc4be0e7	-0.012443758
7	0xbf8d24a4	-1.1026807

feat.bn2.running_var f4 [8]
0	0x405dc298	3.465002
1	0x3f534bfe	0.8253783
2	0x409b41da	4.8517885
3	0x3f8ef0b8	1.1167212
4	0x410353b9	8.20794
5	0x4080b268	4.021778
6	0x3f8a6c79	1.0814353
7	0x40d776c2	6.733247

feat.conv3d_2.weight f4 [4, 16, 8, 3, 3, 3]
0	0xbf406bf5	-0.7516473
1	0x3fc39a35	1.5281435
2	0x401921cf	2.3926885
3	0x3e12f645	0.14351757
4	0x3dc5dfe9	0.09661848
5	0x3f1c3b46	0.61027944
6	0x3e225bd4	0.15855342
7	0xbeeab860	-0.45843792
8	0x3f9129e3	1.1340908
9	0x3e957d07	0.2919695
10	0x3fcb8f33	1.5903076
11	0xbfc576a9	-1.5426837
12	0x3f0f1438	0.55890226
13	0xbf002e11	-0.5007029
14	0x3f45efa5	0.77318794
15	0x3e7c2189	0.24622168
16	0x3e967d21	0.2939234
17	0xbd61f670	-0.05516666
18	0xbfd1bbdd	-1.6385456
19	0x3f9534ef	1.1656779
20	0x3ff5db5b	1.9207567
21	0xbee5103a	-0.44738942
22	0xbf7a80be	-0.97852695
23	0xbe26ec23	-0.16301017
24	0x3e3b1391	0.18269183
25	0x3eb07092	0.34460884
26	0x3f3f5560	0.74739647
27	0xbe59878f	-0.21243118
28	0x3e85cbd2	0.26132065
29	0xbf733826	-0.9500755
30	0xbf97c534	-1.1857057
31	0x3f426ae6	0.75944364
32	0xbf96b02f	-1.1772517
33	0xbfca57c8	-1.5808039
34	0x3fa1d771	1.2643872
35	0xbf26b5ae	-0.6512097
36	0xbe8870d7	-0.2664859
37	0x3fb76d87	1.43303
38	0xbf9c2d38	-1.22013
39	0xbec2a8f0	-0.38019514
40	0x3e758571	0.23976685
41	0x3ec8e962	0.39240557
42	0xbf546068	-0.82959604
43	0x3f4e6573	0.8062355
44	0x3ef58c72	0.47958714
45	0x3f44beaa	0.7685343
46	0x3f68e9a7	0.90981525
47	0x3cb4d420	0.022073805
48	0x3fa88359	1.3165084
49	0x3f692d0c	0.9108436
50	0xc0119eeb	-2.2753246
51	0xbd833ade	-0.064077124
52	0x3f437ebd	0.7636526
53	0x3f6f6d45	0.9352611
54	0x3f23a4d5	0.6392339
55	0x3f915f55	1.1357218
56	0x3f839850	1.0280857
57	0x3d92d394	0.071692616
58	0x3fa49faf	1.2861232
59	0x3f32a3f2	0.6978141
60	0xc0043bcf	-2.0661504
61	0x3ed4a97d	0.4153556
62	0x3e7c91f3	0.2466505
63	0xbf4d5846	-0.8021282
64	0x3ed05875	0.40692487
65	0x3ed23ac5	0.41060463
66	0xbde1a20c	-0.11017236
67	0xbf158e46	-0.5842022
68	0x3fba8739	1.4572517
69	0x4002bd73	2.042813
70	0xbf263b14	-0.64933896
71	0xbea93b49	-0.33053043
72	0xbed3d42a	-0.41372806
73	0x3fc98471	1.5743543
74	0xbd8bf4a9	-0.068337746
75	0x3fcdd673	1.608107
76	0xbf1050de	-0.56373394
77	0x3e87bc4a	0.2651084
78	0xbe5a8dcd	-0.21343155
79	0x3da38c7b	0.07985779
80	0x3fd93856	1.6970317
81	0xbeeaa3e2	-0.45828158
82	0xbf68d61e	-0.90951717
83	0x40086940	2.131424
84	0x3f0ae818	0.54260397
85	0xbf94694c	-1.1594634
86	0xbf991742	-1.1960223
87	0x3fd474a5	1.6598097
88	0x3e897df2	0.268539
89	0x3fde5666	1.7370117
90	0xbec01e17	-0.37522957
91	0xc01f6f99	-2.4911864
92	0x3f6f3975	0.9344705
93	0xbf964c1c	-1.1741977
94	0x3f67b083	0.9050371
95	0xbf936e31	-1.1518003
96	0x3f3f624d	0.7475937
97	0xc027918d	-2.6182587
98	0xbf3b1dcc	-0.7309234
99	0xbee42d61	-0.4456587
100	0xbe35587a	-0.17709532
101	0x401c8212	2.4454389
102	0xbfa30e38	-1.2738714
103	0xbe206942	-0.15665153
104	0x3fc26e73	1.5189956
105	0xbe2228f5	-0.15835936
106	0xbe73676c	-0.23769921
107	0x3eb01ecb	0.34398493
108	0xbf08da4b	-0.5345809
109	0xbfa26018	-1.2685575
110	0x3e367327	0.17817365
111	0x3fb5a58d	1.4191147
112	0x3d055852	0.032554932
113	0xbdd79e40	-0.10528231
114	0xbf0efc33	-0.55853575
115	0x3e65e6dd	0.22451349
116	0x3f8bc60d	1.0919815
117	0xbfa6282a	-1.2981007
118	0xbea077be	-0.31341356
119	0xbf328c2d	-0.6974514
120	0x3fa6785b	1.300548
121	0xbfa0e783	-1.2570652
122	0x3ee87b1d	0.45406428
123	0xbeee7584	-0.46574032
124	0xbed274d1	-0.4110475
125	0xbed0d298	-0.4078567
126	0x3f8c19aa	1.0945332
127	0x3dcfc45e	0.10144876
128	0xbf8e2c74	-1.1107316
129	0x3f7b8a3b	0.982578
130	0x3f6d6ae9	0.92741257
131	0xbea51db4	-0.32249224
132	0xbf47c2fb	-0.7803189
133	0xbfea942a	-1.8326466
134	0xbf0a59e0	-0.5404339
135	0x3d629bd4	0.05532439
136	0x3fb1b3fa	1.388305
137	0xbf5d1d30	-0.8637266
138	0x3e9bff7d	0.3046836
139	0x3debcbbb	0.11513468
140	0x3fa07f68	1.2538881
141	0xbf099f63	-0.5375883
142	0x3d923c5a	0.071404174
143	0xbe53c0d9	-0.20679034
144	0xbdae9ce3	-0.085260175
145	0xbe9951b8	-0.2994516
146	0xbf54edcc	-0.8317535
147	0xbe468078	-0.19384944
148	0x3e6d32f1	0.23163964
149	0xc004741c	-2.0695868
150	0xbf8194f3	-1.0123581
151	0x40227ca6	2.538858
152	0x3f912e6a	1.134229
153	0x3f86dcda	1.0536149
154	0xbfe1969b	-1.7624086
155	0xbe0f84f0	-0.14015555
156	0xbeed4f56	-0.4634959
157	0x3f5127d5	0.81701404
158	0xbeffe2b7	-0.49977657
159	0xbfe3c13e	-1.7793348
160	0xbe8a7daf	-0.27049014
161	0x3f80c1fe	1.0059202
162	0xbfc4c986	-1.5374
163	0x3f8984bf	1.0743636
164	0x3f82820b	1.0195936
165	0x3f425d46	0.75923574
166	0xbf21d8ff	-0.63221735
167	0x3fa15681	1.2604524
168	0x400e4315	2.2228444
169	0xbfba0d9a	-1.4535401
170	0x3ebff082	0.3748818
171	0xbfea654f	-1.8312167
172	0x3ef923ae	0.48660034
173	0x3ea5fc90	0.32419252
174	0x3f8ce303	1.1006778
175	0x3f1193e5	0.56866294
176	0x3ffcd6dc	1.975307
177	0x3f574c1f	0.84100527
178	0xbce905d4	-0.028445162
179	0x3eaab44c	0.3334068
180	0x3f9bdd1b	1.2176851
181	0xbe8ab7b6	-0.27093285
182	0x3f9b4dbf	1.2133101
183	0xbe84d0fd	-0.25940695
184	0x3f570f0d	0.8400734
185	0xbfa24a86	-1.2678993
186	0xbf52f606	-0.8240665
187	0xbd61a742	-0.05509115
188	0xbf8479ae	-1.0349634
189	0x3f27fc05	0.65618926
190	0xbf7a587f	-0.97791284
191	0xbfb360d8	-1.4013929
192	0x3f37fbf4	0.71868825
193	0x3f220403	0.6328737
194	0x4008c004	2.1367197
195	0x3eb6c4f3	0.35697135
196	0x3f297e37	0.66208214
197	0xbd99a5a9	-0.075023
198	0xbf101543	-0.5628244
199	0x3e84632e	0.25856918
200	0xbfac7653	-1.347361
201	0x3feba457	1.8409528
202	0x3efb1b52	0.4904428
203	0xbe1bb2dc	-0.15204948
204	0x3fcbdc0d	1.5926529
205	0x3f294114	0.66114926
206	0x3f790e49	0.9728742
207	0xbed0e196	-0.40797108
208	0xbf9e337e	-1.2359464
209	0x3f83bc94	1.0291924
210	0x3f26707f	0.65015405
211	0x3f613201	0.87966925
212	0xbf9ef8da	-1.2419693
213	0x3f18de9e	0.59714687
214	0xbf83006c	-1.0234504
215	0xbd4b4b71	-0.049632493
216	0xbf7a3c5e	-0.97748363
217	0x3feba750	1.8410435
218	0x3f20ef23	0.62864894
219	0xbe86b912	-0.26313072
220	0xbf555f3e	-0.83348453
221	0x3f2998e8	0.6624894
222	0xbf012e4b	-0.5046126
223	0xbf8fddd4	-1.1239572
224	0xbdff82a1	-0.12476087
225	0xbf213320	-0.62968636
226	0x3f860833	1.0471252
227	0xbe99b9e2	-0.3002463
228	0x3e87f46a	0.2655366
229	0xbef80a36	-0.4844529
230	0xbf54be70	-0.83103085
231	0xbf57da78	-0.8431773
232	0xbf74bc23	-0.95599574
233	0xbf8ecd60	-1.1156425
234	0xbd9d667f	-0.07685565
235	0xc002b544	-2.0423136
236	0xbff1558a	-1.885423
237	0xbedf1fdc	-0.43578994
238	0xbf01ae30	-0.50656414
239	0xbf95989e	-1.16872
240	0xbdba1fdc	-0.09088108
241	0x3fefed7b	1.8744348
242	0x3f63f5ad	0.89046746
243	0xbd685016	-0.056717
244	0x3f458d30	0.7716856
245	0x3e6f1a82	0.23349956
246	0xbf24c1b1	-0.6435805
247	0xbf0e2d75	-0.5553811
248	0xbe8a8efa	-0.27062207
249	0x3ffac5c0	1.9591599
250	0x3fa3bd3a	1.2792122
251	0x3fef5230	1.8696957
252	0x3ef34118	0.475106
253	0xbf9199ce	-1.1375062
254	0x3f48bedd	0.78416234
255	0x3f9577e9	1.1677219

feat.conv3d_2.bias f4 [4, 16]
0	0xbbbaad12	-0.005696901
1	0x3c5fd93d	0.0136626335
2	0x3c2643bd	0.010147986
3	0x3c4bc0c6	0.0124360975
4	0x3c4c40b6	0.0124666
5	0x3afa0c7b	0.0019077206
6	0xbc0e4b92	-0.00868501
7	0xbb363b15	-0.0027806212
8	0x3c2cfaf6	0.010557881
9	0x3c3589d6	0.011080226
10	0x3c1683b4	0.009186674
11	0x3c26c1aa	0.010178009
12	0x3c59a541	0.0132840285
13	0x3c07f466	0.008298015
14	0x3c066959	0.008203828
15	0x3bede9ae	0.007260523
16	0xbbae7d03	-0.005324961
17	0x3c5f4155	0.013626416
18	0x3c275e44	0.010215346
19	0x3c4d4030	0.0125275105
20	0x3c4c32c6	0.012463277
21	0x3ae28dbc	0.0017284672
22	0xbc1091d8	-0.008823834
23	0xbb423180	-0.0029631555
24	0x3c2e7514	0.010648031
25	0x3c35a92d	0.011087698
26	0x3c14b1ca	0.009075591
27	0x3c23d13b	0.009998615
28	0x3c5ac225	0.013351952
29	0x3c07fc93	0.0082999645
30	0x3bff1846	0.007784876
31	0x3beae90b	0.007168894
32	0x3b87cf87	0.0041446122
33	0xbc55caa8	-0.013048805
34	0xbc24ff34	-0.010070611
35	0xbc4554b4	-0.012044121
36	0xbc4552c9	-0.012043663
37	0xba919258	-0.0011106236
38	0x3c0c4e91	0.008563654
39	0x3b64c434	0.0034906985
40	0xbc2a2b49	-0.010386297
41	0xbc350778	-0.011049144
42	0xbc14edfd	-0.009089944
43	0xbc14135a	-0.009037817
44	0xbc549a3f	-0.012976228
45	0xbc030f94	-0.00799932
46	0xbbcf0a66	-0.0063183783
47	0xbbeaff0c	-0.0071715172
48	0x3bc70d82	0.0060746083
49	0xbc639c9a	-0.013892317
50	0xbc273976	-0.010206571
51	0xbc4eda93	-0.012625354
52	0xbc4e640d	-0.012597096
53	0xbb0ba553	-0.0021308258
54	0x3c10411e	0.008804588
55	0x3b285620	0.00256861
56	0xbc2ebc06	-0.0106649455
57	0xbc35d5fa	-0.011098379
58	0xbc164181	-0.009170891
59	0xbc2b55e2	-0.010457488
60	0xbc5c22f5	-0.013436069
61	0xbc09cc06	-0.008410459
62	0xbc0d6972	-0.008631097
63	0xbbed5e85	-0.0072439336

feat.conv3d_2.attention.fc1.weight f4 [3, 8, 1, 1, 1]
0	0xbd5e5ecd	-0.054289628
1	0xbda99372	-0.08280076
2	0xbe5f36f5	-0.21798308
3	0x3d1c61db	0.03817926
4	0x3e945224	0.28968918
5	0xbc64a7d0	-0.013956025
6	0x3e142ff6	0.1447142
7	0xbea42223	-0.32057294
8	0xbe3a8a90	-0.1821692
9	0xbeab38a8	-0.33441663
10	0xbe02eafb	-0.1278495
11	0xbd587c56	-0.05285295
12	0x3d119ffb	0.03555296
13	0xbe0b4463	-0.13600306
14	0xbe1ea543	-0.1549273
15	0x3e924bff	0.28573605
16	0x3eb25762	0.34832293
17	0x3d96debf	0.07366704
18	0xbe476d66	-0.19475326
19	0x3e91475f	0.28374764
20	0xbd450a73	-0.04810567
21	0x3e1d9d36	0.15392002
22	0x3b01cd51	0.0019806216
23	0x3e0523a5	0.13001879

feat.conv3d_2.attention.fc2.weight f4 [4, 3, 1, 1, 1]
0	0x3ea1bbeb	0.31588683
1	0xbf09579e	-0.5364932
2	0xbf0431cd	-0.5163849
3	0x3e9f07f2	0.3106075
4	0xbea96047	-0.33081266
5	0xbeafe390	-0.34353304
6	0xbe483550	-0.19551587
7	0xbde27dff	-0.11059188
8	0x3df394b5	0.11893598
9	0x3d9056d5	0.07047812
10	0x3e1aa227	0.15100919
11	0x3ed6ad90	0.41929293

feat.bn3.weight f4 [16]
0	0x3f81abca	1.0130551
1	0x3f82025c	1.015697
2	0x3f81ba93	1.0135063
3	0x3f81eaaf	1.0149745
4	0x3f81cc0b	1.0140394
5	0x3f81fc9f	1.0155219
6	0x3f821f14	1.0165734
7	0x3f8205d9	1.0158035
8	0x3f81b37d	1.01329
9	0x3f81fa1f	1.0154456
10	0x3f81cc6a	1.0140507
11	0x3f81921c	1.0122714
12	0x3f81d956	1.0144451
13	0x3f81f95e	1.0154226
14	0x3f820061	1.0156366
15	0x3f81fdc7	1.0155572

feat.bn3.bias f4 [16]
0	0x3c3bf2aa	0.01147143
1	0x3c845cbb	0.016157499
2	0x3c5c59a3	0.013449105
3	0x3c78c615	0.015183945
4	0x3c5ba86a	0.013406852
5	0x3c80b23c	0.015709989
6	0x3c6b974c	0.014379334
7	0x3c75a0c7	0.014991946
8	0x3c624737	0.013810924
9	0x3c755963	0.014974925
10	0x3c5cf3d2	0.013485866
11	0x3c3ede16	0.011649629
12	0x3c71eff0	0.014766678
13	0x3c6d9980	0.014501929
14	0x3c6ea4f9	0.0145657
15	0x3c612345	0.013741319

feat.bn3.running_mean f4 [16]
0	0x4012cc71	2.293728
1	0x40c10cb4	6.0328007
2	0xc107c4db	-8.48556
3	0xbfc40909	-1.5315257
4	0x4102103b	8.1289625
5	0x4087fc4b	4.2495475
6	0xc00b76d8	-2.1791286
7	0x3fed7a7f	1.8553008
8	0xbf91b9c3	-1.1384815
9	0xc0bd582e	-5.917014
10	0xc13c9065	-11.785253
11	0xc0297c8b	-2.6482265
12	0x3fedee63	1.8588375
13	0xbf5fc8ce	-0.8741578
14	0x40c22ed8	6.068218
15	0xbfbc0e4c	-1.4691863

feat.bn3.running_var f4 [16]
0	0x41ead9e5	29.356394
1	0x428aab47	69.334526
2	0x429ba8ab	77.82943
3	0x423e032e	47.503105
4	0x42b31397	89.53826
5	0x4269517c	58.329575
6	0x42557b27	53.370266
7	0x4259dd35	54.466022
8	0x422c1762	43.022835
9	0x4258f6e0	54.24109
10	0x4351d438	209.82898
11	0x4241c697	48.443935
12	0x42122d38	36.54416
13	0x4228f55d	42.239613
14	0x424d4c70	51.324646
15	0x41f9e310	31.23587

mlp.fc2.weight f4 [10, 2000]
0	0x3c0d4d09	0.008624324
1	0x3cbcf6ce	0.023066904
2	0xbc2961ff	-0.0103383055
3	0x3c80d829	0.015728073
4	0x3caaea53	0.020863688
5	0x3b41bfe8	0.0029563848
6	0x3c457ad3	0.012053209
7	0xbcb0bcc9	-0.021574395
8	0xbbff0bae	-0.0077833747
9	0x3c84f665	0.016230771
10	0x3c66be9d	0.014083532
11	0xbc847613	-0.016169583
12	0x3c8f001a	0.017456103
13	0xbc630782	-0.0138567705
14	0x3c7a2874	0.015268434
15	0xbbe4d6be	-0.006983607
16	0x3c7e2cf7	0.01551365
17	0xbcb5ed36	-0.022207838
18	0xbb8a6000	-0.00422287
19	0xbb51d8f9	-0.0032020195
20	0xbc9e6773	-0.019336438
21	0xbc14f9c0	-0.009092748
22	0xbca2f338	-0.019891366
23	0xbbd394e9	-0.0064569605
24	0xbc0ba79f	-0.008523851
25	0x3ca6da3e	0.020367738
26	0xbcab4fa6	-0.020912003
27	0x3ab0c192	0.0013485423
28	0xbc01aa69	-0.007914164
29	0xbbcea04a	-0.006305729
30	0xbc50939e	-0.012730507
31	0x3bd6db85	0.0065569305
32	0xbbf1bd01	-0.0073772673
33	0xbcce09bd	-0.025151128
34	0xbc11f2a9	-0.008907952
35	0xbb644bbf	-0.0034835187
36	0x3b96b2c9	0.0045989496
37	0x3c348622	0.011018308
38	0x3b73f906	0.0037227287
39	0x3c4f8347	0.012665576
40	0x3c00afc8	0.0078544095
41	0x3b6f646b	0.003652836
42	0xbb643962	-0.0034824242
43	0xbaf2b2d6	-0.0018516432
44	0x3ab4d4f8	0.001379638
45	0xbc345f25	-0.011009012
46	0x3c7d4da1	0.015460403
47	0xbbf38743	-0.007431896
48	0xbc9093c8	-0.017648593
49	0xbbb095ed	-0.0053889663
50	0xbcbd5700	-0.023112774
51	0xbb715c9e	-0.0036828886
52	0x3cbd5a10	0.023114234
53	0xbc8cee97	-0.017203612
54	0x3c6bba2b	0.014387648
55	0x3b8883d0	0.004166104
56	0x3c4414da	0.011967862
57	0x3a0f1705	0.0005458447
58	0xbbabb2f5	-0.005239839
59	0x3c7026e7	0.014657713
60	0xbc1e14da	-0.009648526
61	0xbaeb44a6	-0.0017949536
62	0x3befa29b	0.0073130853
63	0x38a1b34a	7.7104734e-05
64	0x3c01ff05	0.007934337
65	0xbbd0be9f	-0.00637038
66	0xbb7aea25	-0.0038286534
67	0xbb8fa0e1	-0.004383192
68	0x3aa3b487	0.0012489714
69	0x3c0a2529	0.008431711
70	0xbb99e1fd	-0.0046961294
71	0xbc657b14	-0.014006395
72	0x3a4d43dc	0.0007830241
73	0x3c80d83f	0.015728114
74	0xbb338f9a	-0.0027398826
75	0x39ac439e	0.00032856775
76	0x3bf0e989	0.0073520583
77	0x3b52c374	0.0032159956
78	0xbb2fb35c	-0.0026809787
79	0x3b1584c5	0.0022814733
80	0x3c8f5b2d	0.01749953
81	0xbbdf6071	-0.0068169166
82	0xbc1b586e	-0.0094815325
83	0xbc29c3cf	-0.010361626
84	0x3c5b24bb	0.013375456
85	0xbca78a1c	-0.020451598
86	0xbc8ed7e6	-0.017436933
87	0x3c9cf72a	0.019160826
88	0x3c8a136d	0.016854966
89	0x3beafdf5	0.0071713873
90	0xbcac564e	-0.021037247
91	0xbc1c4e13	-0.009540099
92	0xbb6f1891	-0.0036483149
93	0xba2b3b51	-0.0006531971
94	0xbc2f88c2	-0.010713758
95	0x3c43ab89	0.011942753
96	0xbbcc01ac	-0.0062257852
97	0xbcb69fe7	-0.022293044
98	0x3cb6567f	0.022258041
99	0x3c9732f0	0.018456906
100	0xbc6e8f95	-0.0145606
101	0xbcc06844	-0.023487218
102	0x38d66120	0.00010222406
103	0x3bc4fce3	0.0060115918
104	0x3b805679	0.0039165583
105	0x3b23e59f	0.002500869
106	0xbbf62744	-0.007512005
107	0x3adaf5f8	0.0016705384
108	0x3c25fd62	0.010131212
109	0x3aedf421	0.0018154421
110	0x3c83b4f9	0.016077505
111	0x3b08c3eb	0.002086873
112	0x3c39ccbc	0.011340316
113	0xbb8efd55	-0.0043636956
114	0xbc3dfac6	-0.011595434
115	0x3c966248	0.018357411
116	0x3c231b38	0.00995522
117	0x3c4604ff	0.012086152
118	0x3c2c6112	0.01052119
119	0xbccb14d9	-0.024790214
120	0x3c3b5b06	0.011435276
121	0x3c7018c3	0.014654341
122	0x3a28c8b2	0.00064385973
123	0x3c12d1ba	0.0089611355
124	0x3aba9223	0.0014234226
125	0x3c812a17	0.01576714
126	0x3aff6f38	0.0019488102
127	0x3cb3854c	0.021914147
128	0x3c027361	0.007962079
129	0x3b161c68	0.0022905115
130	0x3c341852	0.010992127
131	0x3cb325ac	0.02186855
132	0xbb4b4623	-0.0031017147
133	0xbaf8040c	-0.0018922105
134	0xbc604a64	-0.013689611
135	0x3b9e6574	0.0048338715
136	0x3ca3884f	0.019962458
137	0xb9fdf3c7	-0.0004843755
138	0x3c26e18f	0.010185613
139	0x3c20b408	0.009808548
140	0x3c8e90a7	0.01740296
141	0x3be85d96	0.0070912344
142	0x3cc36a60	0.023854434
143	0xbc6eca3d	-0.014574585
144	0x3b08cc0b	0.0020873572
145	0x3c4a2b01	0.0123393545
146	0xbc38c243	-0.011276784
147	0xbbe35951	-0.0069381376
148	0xbcc09e5a	-0.023513008
149	0xbcc01c8f	-0.023451118
150	0xbb618e7f	-0.003441721
151	0xbcd09f3a	-0.02546655
152	0xbc230431	-0.00994973
153	0xbcd2a003	-0.025711065
154	0xbc2e02c6	-0.010620778
155	0xbc770a91	-0.015078203
156	0x3b62f9eb	0.0034633826
157	0xbca84c39	-0.020544158
158	0x3a3b86ec	0.0007153589
159	0x3bde6c39	0.0067878035
160	0x3be3deb3	0.006954038
161	0xbb32cff2	-0.002728459
162	0x3c6388ba	0.013887579
163	0xbc69b713	-0.01426484
164	0xbccc919c	-0.024971776
165	0xbc29401b	-0.010330225
166	0x3beabc0e	0.007163531
167	0xbc27e61f	-0.010247736
168	0x3c5640d1	0.013076977
169	0x3c1488a0	0.009065777
170	0xb98e6787	-0.00027161484
171	0xbc9fb20b	-0.019494077
172	0x3c4ba9a3	0.012430581
173	0xbc85c038	-0.016327009
174	0xbcea5749	-0.028606074
175	0x3c53c560	0.012925476
176	0x3c76e457	0.015069089
177	0x3c410ab8	0.011782341
178	0x3bb7c75f	0.0056084837
179	0xbb37b85d	-0.0028033473
180	0x3c940110	0.018066913
181	0xbc8f805d	-0.017517263
182	0xbcaf79e4	-0.021420427
183	0x3c3b2ea4	0.011424694
184	0x3a2f3392	0.0006683405
185	0xbb60baa4	-0.0034290934
186	0x3c18e1da	0.009331191
187	0xbc584952	-0.013201075
188	0xbca95f21	-0.020675244
189	0xbbf3181c	-0.0074186455
190	0x3c75770d	0.014981997
191	0x3c3f283f	0.01166731
192	0xbbf94b80	-0.0076078773
193	0xbc9b9dd4	-0.018996157
194	0xbcb5d159	-0.022194551
195	0x3c5adc95	0.013358255
196	0xbb95bca7	-0.0045696083
197	0x3c8e5706	0.01737548
198	0x3c48f6d5	0.012265881
199	0xbc3f6463	-0.011681649
200	0xbb509bf4	-0.0031831237
201	0xbc6ed806	-0.014577871
202	0x3c9c3572	0.019068453
203	0xbc942c66	-0.018087577
204	0xbca88909	-0.020573156
205	0x3c915418	0.017740294
206	0x3c85580b	0.016277334
207	0xbc4f99d2	-0.012670951
208	0xbc0d1764	-0.008611534
209	0x3bb13111	0.0054074605
210	0x3a937e04	0.0011252766
211	0xba585cd2	-0.00082535774
212	0xbb4dd227	-0.0031405778
213	0xbcd1b07e	-0.025596853
214	0xbb818753	-0.0039528995
215	0xbac7725d	-0.0015216578
216	0xbba2525e	-0.0049536666
217	0xbc99e5ee	-0.018786397
218	0xbc27dc35	-0.010245373
219	0x391f0576	0.00015165456
220	0x3cd1d125	0.025612423
221	0x3c5f4843	0.013628068
222	0xbbe19dbf	-0.00688526
223	0xbcee045a	-0.02905481
224	0x3b3ff763	0.002929174
225	0x3c96964e	0.018382218
226	0xbc1a7398	-0.009426974
227	0x3bebbea1	0.0071943556
228	0xbad6ba2a	-0.0016382386
229	0x3b97921d	0.0046255724
230	0x3985695d	0.0002544624
231	0xbbb43da1	-0.005500511
232	0xbc9240ef	-0.017853228
233	0x3c27b80c	0.010236751
234	0xbbb7fa1a	-0.005614531
235	0x3c7d406a	0.015457252
236	0xbbc919ab	-0.006137093
237	0xbc8af405	-0.01696206
238	0xbc12f7d6	-0.0089702215
239	0xbca4807b	-0.020080796
240	0xbc82336c	-0.01589366
241	0xbc848594	-0.016176976
242	0xba65513f	-0.00087477633
243	0xbd01c1a8	-0.031678826
244	0xbc9477b3	-0.018123483
245	0xbaa4dccb	-0.0012578008
246	0x3a3c506a	0.00071836135
247	0xbc19c820	-0.009386092
248	0xbca230ef	-0.019798724
249	0xbce2e0d8	-0.027695104
250	0x3c282cd2	0.010264592
251	0xbcb7e3bd	-0.022447461
252	0xbb07a5a0	-0.0020698085
253	0x3b3d2459	0.0028860776
254	0xbc86d4b8	-0.016458854
255	0x3c88c088	0.016693369

mlp.fc2.bias f4 [10]
0	0x3c4a8e2c	0.012362998
1	0xbc0e6002	-0.008689882
2	0xba4093f8	-0.0007346268
3	0xbca08e62	-0.019599143
4	0x3c1e6407	0.009667403
5	0xbb9e326a	-0.004827787
6	0xbcac6833	-0.02104578
7	0x3c9fe477	0.01951812
8	0xbcae1965	-0.021252343
9	0x3b6c4e7a	0.0036057518
