cls/cls_model_8783.pth (torch, 158979 bytes, 17 tensors)

feat.conv3d_1.weight f4 [4, 8, 1, 5, 5, 5]
0	0x3f8027bd	1.0012127
1	0xbfade9d1	-1.358698
2	0xbcbdb567	-0.023157788
3	0xbe60c459	-0.219499
4	0xbfc76b87	-1.557969
5	0x3e28bd8e	0.1647856
6	0xbfa347d4	-1.2756295
7	0xbe0d5f73	-0.13805942
8	0x3fcdd6d7	1.6081189
9	0xbee8f896	-0.45502156
10	0x3dc448b1	0.09584177
11	0xbfcf8b42	-1.6214373
12	0xbfceb7d3	-1.6149849
13	0xc02a5e5c	-2.6620092
14	0x3f67b1f0	0.90505886
15	0x3f733640	0.95004654
16	0x3f9745c2	1.1818163
17	0xbf5e74f4	-0.86897206
18	0x3e9ac5e7	0.30229113
19	0x3e56d434	0.20979387
20	0x40154a88	2.332674
21	0x3e7734e8	0.24141276
22	0xbf3809cb	-0.7188994
23	0xbdb7a6c2	-0.089673534
24	0x3ece40b0	0.40283728
25	0xbf0b27d4	-0.5435765
26	0xbfecbfa9	-1.849599
27	0x3e325f4e	0.17419168
28	0x3f10cad1	0.56559473
29	0x3ecc90c4	0.39954197
30	0x3fe5d741	1.7956315
31	0x3f10fb46	0.5663341
32	0x3f008912	0.5020915
33	0xbf8984e7	-1.0743684
34	0xbe29b597	-0.16573177
35	0x3f8dbf50	1.1074009
36	0xbeee7902	-0.46576697
37	0xbf576e71	-0.84152895
38	0xbf5cad6c	-0.8620212
39	0xbd3fb722	-0.04680551
40	0xbe98794f	-0.2978005
41	0x3f043716	0.51646554
42	0x3eaf4601	0.34233096
43	0x3f6daf3f	0.9284553
44	0xbecdcd52	-0.4019571
45	0xbe419453	-0.18904237
46	0x3f0196c2	0.50620663
47	0xbfea7349	-1.8316432
48	0x3e2abf35	0.16674502
49	0xbff3cc32	-1.904669
50	0xbe995a73	-0.2995182
51	0x3fa58b36	1.2933109
52	0xbe31e140	-0.17371082
53	0x3f4b3d03	0.7938997
54	0x3fbcc841	1.4748613
55	0xbf9d8374	-1.2305741
56	0x3ec2f460	0.38077068
57	0x3f8a398d	1.0798813
58	0x3fca0022	1.578129
59	0x3de973bc	0.11399028
60	0xc01df222	-2.4679036
61	0x4015b400	2.3391113
62	0x3d440982	0.04786063
63	0xbe2eceda	-0.17071095
64	0xc02a9540	-2.6653595
65	0xbfab2a61	-1.3372308
66	0xbee9724e	-0.4559502
67	0x3f18a827	0.5963158
68	0xbf733784	-0.95006585
69	0x3d193b6e	0.037410192
70	0xbf9c1807	-1.2194833
71	0xbf98136b	-1.1880926
72	0x3dc63d4f	0.096796624
73	0x3f9d3d87	1.2284402
74	0x3fc91856	1.5710552
75	0xbea4f29b	-0.32216343
76	0x3ef6619a	0.4812134
77	0x3e84fc03	0.2597352
78	0xbfdf4759	-1.7443649
79	0x3ef1a8c6	0.47199076
80	0x3fec23c0	1.844841
81	0x3f72226a	0.9458376
82	0xbf430ded	-0.76193124
83	0x3f0a6b88	0.5407033
84	0xbc1e6240	-0.009666979
85	0x3dce748d	0.10080824
86	0x3dc6212a	0.09674294
87	0x3f09f8a3	0.53895015
88	0xbf8d871d	-1.1056858
89	0x3e8c219b	0.2736939
90	0xbfdc3425	-1.7203413
91	0xbe5f84a2	-0.21827939
92	0x400e6fbe	2.2255702
93	0x3e48ee2a	0.19622102
94	0x3f0b02e7	0.54301304
95	0xbf684814	-0.9073498
96	0xbfa66b12	-1.3001425
97	0xbf82dc6e	-1.022352
98	0x3ed3599a	0.41279298
99	0xbf17e735	-0.5933717
100	0x3ed2fa93	0.41206798
101	0x3f7960f2	0.9741355
102	0x3f09a7b4	0.5377152
103	0xbf0ed000	-0.5578613
104	0x3ef6c722	0.481988
105	0x3f5bf9df	0.8592815
106	0xbdb4027d	-0.08789537
107	0x3eda9338	0.42690444
108	0x3e91b1ca	0.28455955
109	0xbd5e510f	-0.054276522
110	0x3e3c562d	0.18392248
111	0x3f7f969d	0.9983919
112	0x3e82b758	0.25530505
113	0xbf33faf2	-0.7030479
114	0x3f94d5d2	1.1627753
115	0x3f6f64e6	0.93513334
116	0x3e084050	0.13305783
117	0xbc0fcb10	-0.008776441
118	0xbf297e97	-0.66208786
119	0x3e0db359	0.13837947
120	0xbf7b888c	-0.9825523
121	0x3c9f02de	0.019410547
122	0xbfab5982	-1.3386691
123	0x3dc12ca7	0.09432345
124	0xbe19aacf	-0.15006565
125	0xbecaf93f	-0.39643285
126	0x3f48b143	0.7839548
127	0x3fe44936	1.7834842
128	0x3e92929c	0.2862748
129	0xbff35fbc	-1.9013591
130	0x3f7bfb63	0.9843046
131	0x3f9dcff0	1.2329082
132	0xbee21a7a	-0.44160825
133	0xbf5669f1	-0.83755404
134	0xbef68e60	-0.48155499
135	0x3d8a92cb	0.0676628
136	0x3dd8c4db	0.10584422
137	0x3f3c78d0	0.73621845
138	0x3e38afb6	0.18035778
139	0x3d48d646	0.049032472
140	0x3f4588ed	0.7716206
141	0xbf2108cc	-0.6290405
142	0xbfa8b1e2	-1.3179286
143	0x3f26c52a	0.651446
144	0x3e84106a	0.25793773
145	0xbfc74c24	-1.5570111
146	0x3fe1dce6	1.7645538
147	0x3f1af21f	0.605257
148	0xbec5e17d	-0.38648596
149	0x3f6919de	0.91055095
150	0x3f614d75	0.88008815
151	0x3e912446	0.28347987
152	0x3f8abe40	1.083931
153	0xbf9caf0f	-1.2240924
154	0x3eb2d9ed	0.3493189
155	0xbfb0f9cb	-1.3826231
156	0xbd9082f8	-0.0705623
157	0xbed1b8e3	-0.4096137
158	0xbf489458	-0.78351355
159	0x3c85ac39	0.016317474
160	0xbe9eafe7	-0.30993578
161	0x3f75eaff	0.960617
162	0xbedd8ae4	-0.43270028
163	0x3e2f1468	0.17097628
164	0x3f4df12b	0.8044612
165	0x3fb8acee	1.4427774
166	0x3e8dc2f1	0.2768779
167	0xbf6a421f	-0.9150714
168	0x3e175608	0.14778912
169	0xbeb369df	-0.3504171
170	0xbfb2e787	-1.3976907
171	0x3fe582a8	1.7930498
172	0x3d219dc1	0.039457086
173	0x3e65a46d	0.22426005
174	0x3f771ee5	0.96531516
175	0xbfc254c4	-1.5182118
176	0x3e9d11ef	0.30677745
177	0xbedf5cc8	-0.43625474
178	0xbd917b8a	-0.07103641
179	0xbf3f16dd	-0.7464426
180	0xbecc4dea	-0.39903194
181	0xbf519632	-0.81869805
182	0xbe575411	-0.21028163
183	0xbf1d5d44	-0.6147044
184	0xbdedad70	-0.11605346
185	0xbe5b9612	-0.21443966
186	0xbec6345d	-0.38711825
187	0xbfa38bd7	-1.2777051
188	0x3d779b25	0.06045069
189	0x3ed0f60d	0.40812722
190	0x3f628dcc	0.88497615
191	0xbf2ceb03	-0.675461
192	0x3f1fe60b	0.6246039
193	0x3fb30e4e	1.398874
194	0x3f168e71	0.588111
195	0xbf0c1b6d	-0.5472935
196	0xbf31ffa9	-0.6953073
197	0xbf7b8a25	-0.98257667
198	0xbf814d19	-1.0101653
199	0xbecc3d93	-0.39890727
200	0xbf8d4c49	-1.1038905
201	0x3f95a9b1	1.1692411
202	0x3ed7f73f	0.4218082
203	0xbf251145	-0.64479476
204	0xbfd7fecf	-1.6874636
205	0x3e808b84	0.25106442
206	0x3fa6f6dc	1.3044086
207	0x3ec597bc	0.38592327
208	0xbfc0d826	-1.5065963
209	0x3eb4b160	0.35291576
210	0xbc0ea897	-0.008707187
211	0xbecbe5f8	-0.3982389
212	0xbed21df2	-0.4103847
213	0x3f9dc91b	1.2326998
214	0xbef49dfe	-0.47776788
215	0x3e8ce458	0.27517962
216	0x3f5b7eee	0.85740554
217	0x3e4fd715	0.20296891
218	0xbd076a7f	-0.033060547
219	0xbddba1c3	-0.10724213
220	0xbfc37faa	-1.5273335
221	0x3fb9dd0a	1.4520581
222	0x3f138eec	0.57639956
223	0xbeffc258	-0.4995296
224	0xbfaa6c97	-1.3314389
225	0xbfa99eb8	-1.3251562
226	0x3e41b4fb	0.18916695
227	0xc013bf34	-2.308545
228	0x3f2d1b03	0.6761934
229	0xbe1158b8	-0.14194
230	0xbf93998e	-1.1531236
231	0x3ed2ba4c	0.41157758
232	0x3fe8f77e	1.8200529
233	0x3f7b4c0c	0.98162913
234	0xbe269159	-0.16266383
235	0x3f1bfc4d	0.60931855
236	0x3fa68256	1.3008525
237	0x3e53d0c7	0.20685111
238	0x3fba283b	1.4543527
239	0xbe54b26d	-0.20771189
240	0xbdef07a7	-0.116713814
241	0xbf1bfb79	-0.6093059
242	0x3f5d06b9	0.8633838
243	0x3e055b90	0.1302321
244	0x3f66a680	0.9009781
245	0xbeda3997	-0.42622063
246	0x3f115f61	0.5678616
247	0x3f0608c2	0.52357113
248	0x3fb4133e	1.4068372
249	0xbe90b314	-0.28261626
250	0x3ec42cbb	0.38315377
251	0x3e4fa677	0.20278345
252	0xbfc30f40	-1.5239029
253	0xbcd15403	-0.025552755
254	0xbf39e5d8	-0.7261634
255	0xbf544098	-0.8291106

feat.conv3d_1.bias f4 [4, 8]
0	0xba294288	-0.00064567523
1	0x3963ba1c	0.00021717738
2	0xb9c44f78	-0.00037443242
3	0xb847cebd	-4.7637837e-05
4	0x3994c333	0.00028374195
5	0xba015d76	-0.0004934886
6	0x398d17b4	0.00026911276
7	0xba9f366f	-0.001214696
8	0xba294288	-0.00064567523
9	0x3963ba1c	0.00021717738
10	0xb9c44f78	-0.00037443242
11	0xb847cebd	-4.7637837e-05
12	0x3994c333	0.00028374195
13	0xba015d76	-0.0004934886
14	0x398d17b4	0.00026911276
15	0xba9f366f	-0.001214696
16	0xba294288	-0.00064567523
17	0x3963ba1c	0.00021717738
18	0xb9c44f78	-0.00037443242
19	0xb847cebd	-4.7637837e-05
20	0x3994c333	0.00028374195
21	0xba015d76	-0.0004934886
22	0x398d17b4	0.00026911276
23	0xba9f366f	-0.001214696
24	0xba294288	-0.00064567523
25	0x3963ba1c	0.00021717738
26	0xb9c44f78	-0.00037443242
27	0xb847cebd	-4.7637837e-05
28	0x3994c333	0.00028374195
29	0xba015d76	-0.0004934886
30	0x398d17b4	0.00026911276
31	0xba9f366f	-0.001214696

feat.conv3d_1.attention.fc2.weight f4 [4, 1, 1, 1, 1]
0	0xbf5a2e3a	-0.85226786
1	0xbe8b3268	-0.27186894
2	0xbcca1540	-0.024668336
3	0x3f2215b8	0.6331439

feat.bn2.weight f4 [8]
0	0x3f82cca1	1.0218698
1	0x3f8111c2	1.0083544
2	0x3f77a618	0.96737814
3	0x3f770742	0.9649545
4	0x3f754e53	0.9582264
5	0x3f8348db	1.0256609
6	0x3f85cc3f	1.0452956
7	0x3f8536a8	1.0407305

feat.bn2.bias f4 [8]
0	0x3d5259d8	0.051355213
1	0x3d4a6cf9	0.04942033
2	0x3d8228f3	0.06355467
3	0xbce12d13	-0.027487313
4	0x3c2a616f	0.010399207
5	0xbce83130	-0.028343767
6	0x3d0ef054	0.034897164
7	0x3cf2ced8	0.029639646

feat.bn2.running_mean f4 [8]
0	0x3eab7e66	0.33494872
1	0x3eb78b06	0.35848254
2	0x3e68283c	0.22671598
3	0x3f103a67	0.56339115
4	0x3f88d669	1.0690433
5	0xbea61e34	-0.32444918
6	0x3d1e8195	0.038697798
7	0xbe20daba	-0.15708438

feat.bn2.running_var f4 [8]
0	0x3fd814b5	1.6881319
1	0x3fbabe38	1.45893
2	0x3faa56af	1.3307704
3	0x40855372	4.166436
4	0x40b760df	5.730575
5	0x3fac9baa	1.3485005
6	0x3fd9086b	1.6955694
7	0x3f358681	0.7090836

feat.conv3d_2.weight f4 [4, 16, 8, 3, 3, 3]
0	0xbe5cf844	-0.21579081
1	0x400bedff	2.1864011
2	0xbf67f052	-0.90601075
3	0xbd8ba0ee	-0.06817804
4	0xbe5800b4	-0.21094018
5	0x3f5023b3	0.8130447
6	0x3f0bac56	0.5455984
7	0x3f740b57	0.95329803
8	0x3f2c9290	0.67411137
9	0x3f532ffe	0.82495105
10	0x3f010532	0.5039855
11	0x3f2e3854	0.680547
12	0xbf80e5b7	-1.0070103
13	0xc004f949	-2.0777152
14	0xc012461a	-2.2855287
15	0x3f00e2ed	0.5034626
16	0x3fe1f1eb	1.7651953
17	0x3e4131fd	0.18866725
18	0xbfc74e2c	-1.5570731
19	0xc029fa1e	-2.655891
20	0x3f1e2877	0.61780494
21	0x3f254fae	0.64574707
22	0x3e1e85a1	0.15480663
23	0x3f1be949	0.6090284
24	0x3fab0fb0	1.3364162
25	0xbfdfe68c	-1.7492232
26	0xbdbacb59	-0.09120817
27	0xbf04126b	-0.51590604
28	0x3fc68fba	1.5512612
29	0xbeb9c884	-0.36285794
30	0x3f046f79	0.51732594
31	0x3e95572f	0.29168078
32	0xbf09541f	-0.53643984
33	0x3f89d44b	1.0767912
34	0x3fa7905a	1.3090928
35	0x3f4c8bba	0.79900706
36	0xbd2005f3	-0.039068174
37	0x3ed9a2f6	0.42507142
38	0x3e93e80a	0.2888797
39	0xbfff75bb	-1.9957803
40	0xbf755e95	-0.95847446
41	0xbf20b4b2	-0.6277572
42	0xbdc34f75	-0.095366396
43	0x3ff86ca9	1.940816
44	0xbf0cf5f2	-0.5506278
45	0xbf952292	-1.1651175
46	0x3e5b5403	0.21418767
47	0x3e3edecb	0.18639676
48	0x3bf6f336	0.007536317
49	0xbea8c6d9	-0.3296421
50	0x3daf814d	0.08569584
51	0xbed97603	-0.42472848
52	0xbda274d9	-0.07932443
53	0xbe7bb2dc	-0.24579948
54	0xbf216a64	-0.63052964
55	0x3e2e083a	0.16995326
56	0xbdd31a3a	-0.10307737
57	0xbf7031a0	-0.9382572
58	0xbee19b21	-0.44063666
59	0xbe2c795a	-0.16843167
60	0x3f450ac1	0.76969534
61	0x3efedf32	0.4977966
62	0xbf2271d0	-0.63454914
63	0xbf983ee4	-1.1894193
64	0xbfdfb563	-1.747723
65	0x3f83796b	1.0271429
66	0xbf2be011	-0.67138773
67	0xbeb5e3fb	-0.35525498
68	0x3e335ab8	0.17515075
69	0x3fc12826	1.5090377
70	0xbf66c7b6	-0.90148485
71	0x3f803346	1.0015647
72	0x3f034ee1	0.51292235
73	0xbf44b62a	-0.7684046
74	0xbffd9cfe	-1.9813535
75	0xbfe9b9f2	-1.8259871
76	0xc00ec1c9	-2.2305777
77	0x3e0bbc16	0.13645968
78	0x3e9977c6	0.29974192
79	0xbf4293a0	-0.7600651
80	0xbf2b8a8f	-0.670083
81	0x3e9d4c67	0.30722353
82	0x3f0c14ca	0.5471922
83	0xbfef10c3	-1.867699
84	0xbf842ea9	-1.032674
85	0x3e299f4c	0.16564673
86	0x3c75b304	0.014996294
87	0x3f2bb3cc	0.67071223
88	0xbeb84713	-0.35991725
89	0x3ed1e02f	0.4099135
90	0x3f228fa2	0.63500416
91	0xbed4d32e	-0.41567367
92	0x3f0a9c6c	0.5414493
93	0xbf39c551	-0.72566706
94	0xbfa40fd7	-1.2817334
95	0xbfa6e363	-1.3038143
96	0x3ed51ab9	0.4162195
97	0x3f57c340	0.842823
98	0x3fdcf212	1.7261374
99	0xbe3b505a	-0.1829237
100	0x4002e8b9	2.0454543
101	0x3f5a15bb	0.8518941
102	0xbf856825	-1.0422407
103	0xbf0c55e8	-0.5481858
104	0x3e537661	0.20650627
105	0xbf4eae74	-0.80734944
106	0x400504e7	2.0784242
107	0xbf556444	-0.8335612
108	0x3fa76210	1.3076801
109	0x3fa4c487	1.2872475
110	0x4021d282	2.5284734
111	0x3ef8aa4e	0.48567432
112	0xbdc9f48d	-0.098610975
113	0xbfa5975a	-1.2936814
114	0x3f1695c7	0.5882229
115	0xbf9be508	-1.217927
116	0x3c83f76e	0.016109195
117	0x3f85516e	1.0415475
118	0x3f105c5e	0.5639094
119	0xc0205290	-2.5050392
120	0x3f555614	0.8333447
121	0xbfb16edf	-1.386196
122	0xbec21df3	-0.37913474
123	0xbe5a8ca6	-0.21342716
124	0xbfb20648	-1.3908167
125	0x3f9e5c21	1.2371866
126	0xbf576ec9	-0.8415342
127	0x3ec33b7d	0.38131323
128	0x3f7c1fed	0.98486215
129	0xbf2cff27	-0.6757683
130	0xbefeb0e7	-0.4974434
131	0x3f442e63	0.7663328
132	0x3f5bf545	0.85921127
133	0x3f9b26b7	1.212119
134	0x3f7d4fc0	0.98949814
135	0xbd088ef7	-0.033339467
136	0xbeb1267c	-0.34599674
137	0xbfabdf17	-1.3427457
138	0x3ea0a241	0.3137379
139	0xbfad61ea	-1.3545506
140	0x3d466b34	0.04844208
141	0x40079831	2.118664
142	0xbf291ef9	-0.66062886
143	0x3e5e97ce	0.21737596
144	0x3f0e8924	0.5567801
145	0x40027e56	2.038961
146	0x3e2d29ad	0.1691043
147	0xbf8db01a	-1.1069367
148	0xbfbb4c7f	-1.463272
149	0xbfb7d6d8	-1.436244
150	0xbfbc917e	-1.4731901
151	0xbf0c744f	-0.5486497
152	0x3e715244	0.23566538
153	0x3e7364b3	0.23768882
154	0xbfca53c7	-1.5806817
155	0xbed938b6	-0.4242608
156	0xbf9a7dd1	-1.2069646
157	0x3dd96968	0.10615808
158	0xbf44e8a8	-0.76917505
159	0xc01237ad	-2.2846482
160	0xbed00b6b	-0.4063371
161	0xbeb7b707	-0.35881826
162	0x3fe3dc42	1.7801592
163	0xbf545785	-0.82946044
164	0x3fb3db42	1.4051287
165	0xbf0e8cd3	-0.5568363
166	0xbfb2b8ff	-1.3962706
167	0x3f5c3528	0.8601861
168	0xbfe79509	-1.8092357
169	0xbe14747c	-0.1449756
170	0xbd96a095	-0.07354847
171	0x3ec2b032	0.3802505
172	0x3e93b520	0.28849125
173	0xbf7c10f6	-0.9846338
174	0xbf4a1a5e	-0.78946483
175	0x3f1cffad	0.6132763
176	0xbff84bb4	-1.9398103
177	0xbf382bb2	-0.71941674
178	0xbec5ff18	-0.38671184
179	0xbf7f1810	-0.9964609
180	0x3f04d861	0.5189267
181	0xbeebadf1	-0.46031144
182	0xbeb25185	-0.3482782
183	0x3f98ef1e	1.1947973
184	0x3e993647	0.29924223
185	0x3f187d6f	0.59566396
186	0xbe7c8b17	-0.24662434
187	0x3f9c452a	1.2208607
188	0x3fb6c425	1.4278609
189	0xbf050049	-0.5195356
190	0xbff4f02d	-1.9135796
191	0x3fb96b0a	1.4485791
192	0xbfb720aa	-1.4306843
193	0x3f4483c7	0.76763576
194	0xbf188a44	-0.59585977
195	0x3fd1bdfb	1.6386102
196	0x4026dac8	2.6071033
197	0xbecc0d97	-0.39854118
198	0x3f0b7164	0.54469895
199	0xbf6d3b7d	-0.92668897
200	0xc013702d	-2.3037217
201	0x3e990a95	0.29890886
202	0x3f39cda3	0.725794
203	0x3f9b5f15	1.2138392
204	0xbdb88674	-0.0901002
205	0x3fb4ecd7	1.4134778
206	0x3ee6b1cb	0.4505752
207	0xbf12aca7	-0.57294697
208	0xbe036f53	-0.12835436
209	0xbfabd839	-1.3425361
210	0x3ed4406a	0.41455394
211	0xbe6a8810	-0.22903466
212	0xbec36e44	-0.38170063
213	0xbe9bc787	-0.30425665
214	0xbf94246d	-1.1573616
215	0x3f30220d	0.6880196
216	0xbf864791	-1.049059
217	0x3f89d8d3	1.0769295
218	0xbff588ab	-1.9182333
219	0xbf9c3589	-1.2203838
220	0x3ee45198	0.445935
221	0x3e8c29b6	0.27375573
222	0x3fcc39e1	1.5955163
223	0xbee23c7a	-0.44186765
224	0x3f6b06dc	0.9180734
225	0xbf638137	-0.8886904
226	0x3f8b3345	1.0875021
227	0x3ee7a62a	0.4524396
228	0x3f9e8e6e	1.2387216
229	0xc003aa21	-2.0572588
230	0xbdf08567	-0.117441945
231	0xbf0d5981	-0.552147
232	0xbf860ec0	-1.0473251
233	0xbf2c70b7	-0.6735949
234	0xbe13b2a5	-0.14423616
235	0xbf74397c	-0.95400214
236	0xbf24db62	-0.6439725
237	0xbdd71859	-0.10502691
238	0x3f81a1a2	1.0127451
239	0xbf5520af	-0.83252996
240	0x3fd2b1f9	1.6460563
241	0x3fdb2cd8	1.712306
242	0xbf132022	-0.57470906
243	0x3e3e359a	0.18575135
244	0xbfc4a8a4	-1.5363965
245	0x3e85a2ef	0.2610087
246	0x3ff2d031	1.8969785
247	0xbe86e035	-0.2634293
248	0x3fa538fb	1.2908014
249	0xbe3a4469	-0.18190159
250	0x3f9625b0	1.1730251
251	0x3e646312	0.22303417
252	0xbf607a50	-0.87686634
253	0x3ea799a9	0.3273442
254	0x3e7c3a6b	0.2463166
255	0xbe2580c1	-0.16162397

feat.conv3d_2.bias f4 [4, 16]
0	0xbd5bf1fc	-0.05369757
1	0x3cd47520	0.025934756
2	0xbd09856b	-0.033574503
3	0xbcd9c49f	-0.026583014
4	0xbd2c8718	-0.042121023
5	0xbb83959a	-0.0040156366
6	0xbca8905d	-0.02057665
7	0x3bd4d0bd	0.00649461
8	0xbd354fee	-0.04426568
9	0xbd50b672	-0.050955243
10	0xbd0f542a	-0.034992374
11	0xbd4320b8	-0.047638625
12	0x3cfbbe96	0.030730527
13	0xbcadf7bb	-0.021236291
14	0xbc6d428e	-0.0144812
15	0x3bd55b0a	0.006511097
16	0xbd4ef138	-0.050523013
17	0x3c4bfc40	0.012450278
18	0xbd08b7fc	-0.033378586
19	0xbcc4a207	-0.024003042
20	0xbd3059b1	-0.043054286
21	0xbc351cf1	-0.011054263
22	0xbcd04445	-0.025423178
23	0xbaebc8bb	-0.00179889
24	0xbd3a4efa	-0.045485474
25	0xbd516b2f	-0.05112761
26	0xbd0edd7d	-0.034879196
27	0xbd2dccc6	-0.042431615
28	0x3d08fe7e	0.033445828
29	0xbca013d6	-0.019540709
30	0xbc52ca0d	-0.0128655555
31	0x3be6d53a	0.0070444616
32	0x3d79eaf9	0.061015103
33	0xbcad4409	-0.021150606
34	0xbb9bc2c3	-0.004753442
35	0x3d574850	0.052559197
36	0x3cfd81f0	0.030945748
37	0xbbdc92fd	-0.0067313896
38	0x3b89e1fe	0.0042078486
39	0xbc23982a	-0.009985009
40	0x3d59e591	0.053197447
41	0x3d2d1646	0.04225757
42	0x3cf01cdb	0.029310634
43	0x3d6ed16a	0.05830518
44	0x3ce8fdac	0.028441273
45	0x3d30a662	0.043127425
46	0x3cfefefa	0.031127442
47	0x3bf47ab3	0.007460916
48	0xbd73cc70	-0.05952114
49	0x3c59ce0f	0.013293757
50	0x3cf7e87d	0.030262226
51	0xbd5e1f4a	-0.05422906
52	0xbc07f728	-0.008298673
53	0x3c70ffb0	0.014709398
54	0x3c822a74	0.015889384
55	0x3c54e7e1	0.012994737
56	0xbd5d3ea2	-0.05401481
57	0xbc486881	-0.012231947
58	0xbc030ef1	-0.007999168
59	0xbd685c1d	-0.05672847
60	0xbd3baf46	-0.04582145
61	0xbd59ccb1	-0.053173725
62	0xbd1fa3b6	-0.038974486
63	0xbc88d187	-0.016701473

feat.conv3d_2.attention.fc1.weight f4 [3, 8, 1, 1, 1]
0	0x3e736d2c	0.23772115
1	0x3d258788	0.040412456
2	0xbe659f93	-0.22424154
3	0x3d5e986b	0.054344576
4	0x3d0884c1	0.03332973
5	0xbe07a394	-0.13245994
6	0x3eb7d551	0.35904935
7	0x3d9712bf	0.073766224
8	0xbbcc0bcc	-0.0062269922
9	0xbe6fd5e0	-0.2342143
10	0xbe59f3af	-0.21284364
11	0xbc91ca6e	-0.017796721
12	0x3e8b4012	0.2719732
13	0x3e7acb13	0.24491529
14	0x3e760098	0.24023664
15	0xbe61a580	-0.2203579
16	0x3d52eb2e	0.051493816
17	0xbe92972c	-0.2863096
18	0x3e0bc1fa	0.13648215
19	0xbe363b06	-0.17795953
20	0x3e04ee58	0.12981546
21	0x3e3b468a	0.18288627
22	0xbe15979d	-0.14608617
23	0xbe3d90ea	-0.18512312

feat.conv3d_2.attention.fc2.weight f4 [4, 3, 1, 1, 1]
0	0x3ef252e5	0.47328869
1	0xbf1647ec	-0.58703494
2	0xbeca40ef	-0.39502665
3	0x3ee45124	0.44593155
4	0xbf169711	-0.5882426
5	0x3ea7333b	0.32656273
6	0x3bb5bd88	0.0055462755
7	0xbee7d293	-0.45277843
8	0xbe849da3	-0.25901517
9	0x3f09851d	0.5371874
10	0x3e4145d3	0.18874292
11	0x3ebe7b8b	0.3720363

feat.bn3.weight f4 [16]
0	0x3f866361	1.0499078
1	0x3f85deaf	1.0458583
2	0x3f878a49	1.0589076
3	0x3f86df18	1.0536833
4	0x3f86e270	1.0537853
5	0x3f8642c8	1.048913
6	0x3f86048a	1.0470135
7	0x3f857f4b	1.0429472
8	0x3f86e46c	1.0538459
9	0x3f8603cd	1.046991
10	0x3f85f803	1.0466312
11	0x3f86a165	1.0518004
12	0x3f85dd24	1.0458112
13	0x3f86fbda	1.0545609
14	0x3f872781	1.0558931
15	0x3f867277	1.0503682

feat.bn3.bias f4 [16]
0	0x3d3ce8e0	0.046120524
1	0x3d0214d2	0.031758137
2	0x3d4d5430	0.050129116
3	0x3d4938b1	0.04912633
4	0x3d43e4cd	0.047825623
5	0x3d207b3e	0.039180033
6	0x3d0a6dad	0.033796
7	0x3ced2216	0.028946918
8	0x3d51f1c7	0.051255967
9	0x3d2f3611	0.04277617
10	0x3d215a8d	0.039392997
11	0x3d4aad7f	0.049481865
12	0x3d138da6	0.03602376
13	0x3d4e6f0f	0.050398882
14	0x3d6375a4	0.055532113
15	0x3d488c0c	0.048961684

feat.bn3.running_mean f4 [16]
0	0x408519ae	4.1593847
1	0xc149f830	-12.623093
2	0xc0cd488c	-6.415106
3	0x3fa3b8a7	1.2790726
4	0x400fa332	2.2443357
5	0xc0bfb495	-5.9907937
6	0xc153e507	-13.243415
7	0xc127c223	-10.484897
8	0x3eeb3396	0.45937794
9	0x404e4f02	3.2235723
10	0x4110fda1	9.061921
11	0x3f99bff8	1.2011709
12	0xc0ae7b2a	-5.4525347
13	0x3fcb2c1c	1.5872836
14	0x4064e95a	3.5767426
15	0x40f73f89	7.7265058

feat.bn3.running_var f4 [16]
0	0x42ee6bd6	119.21062
1	0x42ec85a7	118.26104
2	0x427e0612	63.505928
3	0x42c50027	98.5003
4	0x429b0f37	77.52972
5	0x42db88a2	109.76686
6	0x431c3af9	156.23036
7	0x433d3135	189.19221
8	0x4239baf1	46.43256
9	0x4272bad8	60.682465
10	0x430950af	137.31517
11	0x429c941b	78.28927
12	0x42b3d34d	89.9127
13	0x4291bfb4	72.87442
14	0x423f2171	47.782658
15	0x427e7690	63.615784

mlp.fc2.weight f4 [10, 2000]
0	0x3981872e	0.00024705514
1	0x3b8d49d5	0.00431178
2	0xbc81bc8f	-0.015836982
3	0x3c5762d6	0.013146123
4	0xbd3de6b6	-0.0463626
5	0x3cc6bdb8	0.024260387
6	0x3cbba828	0.022907332
7	0x3c22d0f2	0.009937512
8	0xbbbc5db8	-0.005748477
9	0xbd00a7f2	-0.031410165
10	0xbc68043e	-0.014161168
11	0x3c655a06	0.013998514
12	0x3cdc8299	0.026917743
13	0x3a230c79	0.0006219815
14	0xbbc82d0a	-0.0061088847
15	0x3c7fb443	0.015606943
16	0x3cd4740c	0.025934242
17	0x3c856414	0.016283073
18	0xbcbd1b6c	-0.023084365
19	0xbc83c030	-0.016082853
20	0x3bd1550c	0.006388312
21	0xbc8d9b9e	-0.017286118
22	0xbcdff706	-0.02733947
23	0xbc8804fc	-0.01660394
24	0xbcd06151	-0.02543703
25	0xbbd4ef1d	-0.006498231
26	0x3bcc7808	0.006239895
27	0x3befff2b	0.0073241196
28	0xbce664b2	-0.028124187
29	0xbc7f97d4	-0.0156001635
30	0x3c460b3c	0.012087639
31	0xba808ba8	-0.0009807246
32	0xbcb798b8	-0.02241169
33	0xbc897c0c	-0.016782783
34	0xbc66089b	-0.014040138
35	0xbc660bd4	-0.014040906
36	0xbc362d87	-0.011119253
37	0xbc08c552	-0.008347826
38	0x3c6ad5c2	0.01433319
39	0x3922683c	0.00015488354
40	0x3c390a51	0.0112939635
41	0xbcaa260a	-0.020770092
42	0x3c1ba413	0.009499568
43	0xbb94923f	-0.0045340355
44	0xbc95a654	-0.018267788
45	0xbcc66eda	-0.02422278
46	0x3b2911c2	0.0025797938
47	0xbc7534a3	-0.014966163
48	0xbc31bafc	-0.010847803
49	0xbc9cc4e5	-0.019136855
50	0x3b33d0e3	0.0027437739
51	0xbc6327c0	-0.013864458
52	0xbc6212d2	-0.013798432
53	0xbb831747	-0.0040005776
54	0xbc530ccf	-0.012881472
55	0xbc787751	-0.015165166
56	0xbc28955b	-0.010289515
57	0xbbf744d3	-0.0075460463
58	0xbcbc52b0	-0.022988647
59	0xbc9949f7	-0.018712027
60	0x3b9ad940	0.0047256052
61	0x3c84f311	0.016229184
62	0xbc3ed100	-0.011646509
63	0x3b9c5941	0.004771382
64	0x3b15e6cc	0.0022873161
65	0x3cb26b6f	0.021779744
66	0x3cd03411	0.025415452
67	0x3ba9e6a3	0.0051849647
68	0x3bf89cce	0.007587052
69	0xbbb29715	-0.0054501393
70	0x3ca95c55	0.02067391
71	0x3b936aa8	0.0044987984
72	0xbc6e8cd0	-0.0145599395
73	0xbcfb36da	-0.030665804
74	0xbcbb0ded	-0.022833789
75	0xbafb4956	-0.0019171636
76	0xbc3514e0	-0.01105234
77	0x3c1bdf48	0.009513684
78	0xbc0558c5	-0.00813884
79	0xbd0cb7b8	-0.034354895
80	0xbcad9124	-0.021187373
81	0xba00ab15	-0.0004908306
82	0x3c426d8b	0.011866937
83	0xbc6897d6	-0.014196357
84	0xbb1f774b	-0.0024332579
85	0x3b72267e	0.0036949213
86	0xbc019059	-0.00790795
87	0x3c2f2c20	0.010691673
88	0xbccb000b	-0.024780294
89	0xba89d531	-0.0010515806
90	0x3c4262a4	0.011864338
91	0x3c32e6a3	0.010919246
92	0x3b9b1c82	0.004733623
93	0xbc4d8c95	-0.012545724
94	0xbc5e393f	-0.013563453
95	0xbb4f256f	-0.0031608006
96	0x3ce26d50	0.027640015
97	0xbca0ae2b	-0.0196143
98	0xbca2e3b3	-0.019883966
99	0xbc3dc49f	-0.011582523
100	0xbc72664b	-0.014794896
101	0xbc20d193	-0.009815591
102	0xbc526d68	-0.012843467
103	0xb972c65a	-0.0002315281
104	0xbd2c936e	-0.042132787
105	0xbc8e8ce1	-0.01740116
106	0x3beec05d	0.007286115
107	0x3b2d8ff0	0.0026483499
108	0xbcba84f1	-0.02276847
109	0xbc12f7b4	-0.00897019
110	0xbc998f02	-0.01874495
111	0x3ae0fe76	0.0017165679
112	0x3aabc6ee	0.001310555
113	0xbbb46d09	-0.005506162
114	0xbba3ed81	-0.005002678
115	0x3c80d526	0.015726637
116	0xbc1b44f5	-0.00947689
117	0x3b27bfef	0.002559658
118	0xbc1920f5	-0.0093462365
119	0xbce2d2b9	-0.027688371
120	0xbc177721	-0.009244711
121	0xbb493e7f	-0.0030707417
122	0xbba43e57	-0.0050123143
123	0xbc053309	-0.0081298435
124	0xbd169b29	-0.036769066
125	0x3ca9ce58	0.020728275
126	0x3bae85ec	0.0053260233
127	0x3aca9096	0.0015454467
128	0xbcdae200	-0.026719093
129	0x3c74e4d3	0.014947134
130	0x3c92911a	0.017891455
131	0xbb482d52	-0.003054459
132	0xbcacefa9	-0.021110373
133	0xbc1c2d5a	-0.009532297
134	0xbcb18dad	-0.021674002
135	0xbc970a9b	-0.018437674
136	0xbcbcb5bc	-0.023035876
137	0xbd04c823	-0.032417428
138	0xbc76ff30	-0.01507549
139	0xbcac1ca1	-0.021009745
140	0x3c6f487f	0.014604687
141	0xbcafbf3f	-0.021453498
142	0xbc90a541	-0.017656924
143	0x3bb79282	0.005602182
144	0xbca1e00d	-0.019760156
145	0xbc8e4057	-0.017364664
146	0x3ca4647d	0.020067448
147	0x3c4683b8	0.012116365
148	0xbca510aa	-0.020149548
149	0x3c90fff1	0.017700167
150	0xbc84f247	-0.016228808
151	0xbce8e01a	-0.028427172
152	0xbc5536a7	-0.013013518
153	0xbc1af49c	-0.0094577335
154	0xbc9850c1	-0.018593194
155	0xbc8fc002	-0.017547611
156	0xbc2e6844	-0.010644976
157	0xbb4936e0	-0.0030702874
158	0xbab94c3e	-0.0014137102
159	0xbbb0a428	-0.0053906627
160	0xbc6f2572	-0.01459633
161	0x3b83dfa8	0.0040244646
162	0xbcc98f02	-0.024604324
163	0xbc96e828	-0.018421248
164	0xbc9a7716	-0.018855613
165	0x3b67b5ec	0.0035356237
166	0x3bb39bc2	0.0054812143
167	0x3c4f83ae	0.012665672
168	0x3947ed7b	0.00019066587
169	0x3b69d43a	0.0035679475
170	0x3c8745cf	0.01651278
171	0x3b979dd3	0.0046269684
172	0xbc71c209	-0.014755734
173	0xbbd72988	-0.00656623
174	0x3c3a1a31	0.011358784
175	0x3c24cf00	0.010059118
176	0xbc53f4d4	-0.01293679
177	0xbb8a4adc	-0.0042203497
178	0x3c83b9ca	0.016079802
179	0xbc428f25	-0.011874949
180	0xbcddb489	-0.027063625
181	0xbb2aba5a	-0.0026051016
182	0x3c35ec95	0.011103769
183	0x3ca1c076	0.019745093
184	0x3c0c7307	0.0085723465
185	0xbce09513	-0.027414834
186	0x3c5ff5a6	0.013669407
187	0x3d267772	0.040641256
188	0x3b7961f7	0.0038052776
189	0x3c1fa14e	0.009743048
190	0x3c3e7f41	0.011627019
191	0xbb5452ab	-0.0032397907
192	0x3cb6928f	0.022286681
193	0x3c2a7e0e	0.01040603
194	0xbab11ed8	-0.001351322
195	0x3ac15293	0.001474934
196	0x3cf0f7f4	0.029415108
197	0x3cb5b440	0.022180676
198	0xbc192573	-0.0093473075
199	0xbc0cb59e	-0.008588223
200	0xbb8e95e0	-0.0043513626
201	0xbcc6bd9b	-0.024260333
202	0xbbd52a49	-0.006505285
203	0xbc768102	-0.015045406
204	0xbb2eb6d6	-0.0026659272
205	0xbcf20300	-0.029542446
206	0x3b7c038b	0.003845426
207	0x3d12ffb7	0.0358884
208	0xbb06c40b	-0.0020563628
209	0xbc0e22df	-0.008675306
210	0x3c1ec698	0.009690903
211	0xbc8081cb	-0.01568689
212	0x3c932ce7	0.017965747
213	0x3ce1af32	0.02754936
214	0x3c9afb0c	0.018918537
215	0xbcb4bae6	-0.022061776
216	0x3cd98619	0.0265532
217	0x3ac2dbb4	0.0014866502
218	0x3c7e222e	0.015511079
219	0x3cf04e35	0.029334167
220	0xbc96f799	-0.01842861
221	0x3cac272b	0.02101477
222	0xbaf813ae	-0.0018926763
223	0x3cbc439f	0.022981463
224	0x3cae0f35	0.021247486
225	0x3c80eaeb	0.015737018
226	0xbc45d288	-0.01207412
227	0xbbe980fb	-0.0071259714
228	0xbb46242c	-0.0030233962
229	0x3c2384f2	0.009980427
230	0xbaed9cdd	-0.0018128414
231	0xbd0544d4	-0.032536343
232	0xbcab84dc	-0.020937376
233	0x3a5bc531	0.0008383571
234	0xbb9a5630	-0.0047099814
235	0xba831ee3	-0.0010003712
236	0xbbc91e8e	-0.0061376756
237	0x3ca4e11e	0.020126875
238	0xbcb6c094	-0.022308625
239	0xbcae7208	-0.021294609
240	0x3c661c8f	0.014044895
241	0x3c15635e	0.009117929
242	0x3bb0774c	0.005385315
243	0xbb08fcd9	-0.0020902662
244	0xbc206fe4	-0.009792302
245	0xbb119b2a	-0.002221773
246	0xb93b343e	-0.00017853171
247	0x3b44058a	0.0029910528
248	0x3c87380d	0.01650622
249	0x3aba8b84	0.0014232253
250	0x3c52c85c	0.012865152
251	0x3cd6656a	0.026171405
252	0x3c38e87b	0.011285896
253	0x3c617642	0.013761105
254	0x3b20bbb0	0.0024525933
255	0x3c12ede0	0.008967847

mlp.fc2.bias f4 [10]
0	0xbc5bd5a4	-0.013417635
1	0x3cbc8e4f	0.023017077
2	0xbccf406d	-0.025299275
3	0x3c034f3c	0.008014496
4	0x3c8eb2ec	0.017419301
5	0xbc1036c6	-0.0088021215
6	0xbbb4a58c	-0.005512899
7	0xbc9e127a	-0.01929592
8	0xbc68c9c0	-0.014208257
9	0x3ce30748	0.027713433
