cls/cls_model_7043.pth (torch, 158979 bytes, 17 tensors)

feat.conv3d_1.weight f4 [4, 8, 1, 5, 5, 5]
000000 7c 1d 81 3f 94 44 aa bf 35 77 aa 3b 3d c9 42 be
       1.0087123 -1.3302178 0.005202199 -0.19022079
000010 2b 8c c2 bf 4b 4c 2b 3e c0 dc 9f bf 18 b5 e3 bd
       -1.5199026 0.16728322 -1.2489243 -0.11118525
000020 9f be d1 3f c2 10 d6 be cb 56 c2 3d 7d 9f ca bf
       1.6386298 -0.4180966 0.09489211 -1.5829922
000030 a8 62 cb bf e2 8b 28 c0 ef 54 71 3f 7e 86 6e 3f
       -1.5889482 -2.6335378 0.94270223 0.9317397
000040 75 6b 9a 3f 44 67 5a bf d6 25 a8 3e d4 0b 7d 3e
       1.2064043 -0.8531382 0.32841367 0.24711543
000050 38 38 15 40 8e 91 8b 3e aa 02 34 bf 2f 06 71 bd
       2.3315563 0.27259487 -0.70316565 -0.058843788
000060 56 da e2 3e 17 71 07 bf 38 bf ea bf 89 3d 4b 3e
       0.44307202 -0.52906936 -1.8339605 0.19847693
000070 a8 3a 17 3f 13 b3 e0 3e 84 1a e7 3f c9 79 14 3f
       0.5907388 0.43886623 1.8054967 0.5799833
000080 25 a2 06 3f e4 9b 85 bf 2e 98 fe bd 34 96 8d 3f
       0.5259116 -1.0438199 -0.1243137 1.1061463
000090 32 93 e1 be f1 5e 52 bf de 00 55 bf 61 8d 33 bb
       -0.44057614 -0.8217612 -0.8320445 -0.00273975
0000a0 05 64 9c be 9c 0c 09 3f b4 b9 b5 3e b6 35 75 3f
       -0.3054506 0.53534865 0.35493243 0.9578508
0000b0 ea 9f b6 be 67 fe 3c be 49 40 07 3f 4e f5 e8 bf
       -0.3566888 -0.18456422 0.52832466 -1.8199861
0000c0 2f ab 4d 3e 95 a8 ed bf 73 fd 9e be f7 68 a2 3f
       0.20084833 -1.8567072 -0.3105274 1.2688283
0000d0 13 87 44 be a3 22 4d 3f c1 a6 c1 3f e2 9a 9e bf
       -0.19192152 0.80130976 1.5129014 -1.2391016
0000e0 c3 c4 b8 3e 69 f3 88 3f b7 a3 cc 3f 49 f3 1e 3e
       0.36087617 1.0699283 1.5987462 0.15522493
0000f0 64 4e 1f c0 d6 e1 14 40 61 62 f6 3c 3a de 1d be
       -2.4891596 2.326284 0.030076208 -0.15416804
000100 2a b0 27 c0 dd 4b ae bf 38 c0 f3 be 62 90 10 3f
       -2.6201272 -1.3616902 -0.4760759 0.5647031
000110 e0 60 6f bf 31 7a ac 3d 3b 84 9d bf c0 92 99 bf
       -0.93507195 0.08421744 -1.2305979 -1.199791
000120 71 67 91 3d b5 e9 9f 3f 19 84 cf 3f cd d0 a8 be
       0.07099808 1.2493197 1.6212188 -0.32971802
000130 d4 59 e7 3e f6 19 62 3e d0 a4 de bf 9d b9 04 3f
       0.4518572 0.22080216 -1.7394047 0.51845723
000140 1c 5e eb 3f 07 ad 6b 3f 8d 59 4c bf bc 16 0d 3f
       1.8388095 0.92060894 -0.79824144 0.55112815
000150 26 ce 1b 3d 3c 89 b5 3d 05 ad a5 3d 5b 44 00 3f
       0.038038395 0.08864066 0.080896415 0.501043
000160 7e 9f 8c bf 73 10 a7 3e 02 84 de bf fd 32 78 be
       -1.0986173 0.32629737 -1.7384036 -0.242382
000170 30 a1 0b 40 6c 1c 46 3e 56 4f 19 3f 7f f4 6b bf
       2.181713 0.1934678 0.5988668 -0.92169946
000180 07 98 a9 bf c9 00 88 bf 58 c4 d2 3e 42 18 08 bf
       -1.324952 -1.062524 0.41165423 -0.53162014
000190 77 92 de 3e 17 83 80 3f fb 9d 0f 3f 93 9f 07 bf
       0.4347112 1.0040005 0.56100434 -0.52977866
0001a0 26 33 06 3f d9 fe 5e 3f 7a ff 87 bd f8 9d e4 3e
       0.52421796 0.87107617 -0.06640525 0.4465177
0001b0 c7 b0 a1 3e ec b1 58 bc 17 62 36 3e a7 6b 82 3f
       0.31580183 -0.013226014 0.17810856 1.0189103
0001c0 a8 8e 88 3e fb ec 2b bf d9 f9 9a 3f 83 ea 6c 3f
       0.26671338 -0.6715848 1.2107497 0.92545336
0001d0 92 12 15 3e 20 95 8e bb e9 22 21 bf 01 11 43 3e
       0.14557865 -0.004351273 -0.62943894 0.19049455
0001e0 bb 36 7a bf 2f 24 21 3d 7e 09 ab bf ed 60 06 3e
       -0.9773976 0.039341148 -1.3362272 0.13122912
0001f0 6c c5 bc bd fd d7 c1 be 9e f2 4d 3f 6e ba e0 3f
       -0.09217343 -0.37860098 0.8044833 1.7556894
000200 2a 3a 90 3e ac 6d ef bf 9c 5f 7f 3f 22 bb 9f 3f
       0.28169376 -1.8705344 0.99755263 1.2478983
000210 0b 34 f2 be 47 b0 57 bf 17 3c e4 be 55 54 cc 3d
       -0.4730533 -0.8425335 -0.44577095 0.099770226
000220 72 16 0f 3e bf 95 36 3f 02 d5 34 3e 31 be b0 3d
       0.13973406 0.71322244 0.17659381 0.08630026
000230 b1 eb 4f 3f 9d da 16 bf a3 ac aa bf bc 03 26 3f
       0.8121901 -0.5892733 -1.3333935 0.6484945
000240 bd 0e 95 3e 6a 8b c1 bf dd 69 e7 3f 60 b7 18 3f
       0.29112807 -1.5120671 1.8079182 0.5965481
000250 3b ac c0 be e6 9a 72 3f 34 1e 66 3f 41 1b 9d 3e
       -0.376314 0.94767606 0.89889836 0.30684856
000260 cb f3 89 3f 65 01 9c bf 56 b3 ba 3e e0 fe ae bf
       1.0777525 -1.2187926 0.36464947 -1.3671532
000270 d6 51 5a bd 4b 43 d4 be 8f eb 47 bf b6 99 24 3d
       -0.0533007 -0.4145759 -0.7809381 0.040185653
000280 f7 86 8d be c9 d6 7d 3f f0 a7 d8 be 65 c9 38 3e
       -0.27642033 0.9915586 -0.42315626 0.18045576
000290 bf 8e 53 3f 2a af bc 3f 45 19 a0 3e 9e d2 66 bf
       0.8263969 1.4740956 0.3126928 -0.90165126
0002a0 4f a0 23 3e 4b f3 a7 be 5b bf ae bf 52 1c ea 3f
       0.15979122 -0.32802805 -1.3652147 1.8289893
0002b0 f8 8a 74 3d 45 3c 7e 3e 17 77 7f 3f e3 04 c1 bf
       0.059702843 0.24827679 0.9979109 -1.5079616
0002c0 a7 b7 a3 3e d1 5e e3 be 3b e4 8c bd 6d a8 3a bf
       0.31976053 -0.44408277 -0.06879469 -0.7291325
0002d0 96 38 c8 be ac 9f 4e bf 6b 8c 5d be 4a b6 1e bf
       -0.39105672 -0.8071239 -0.21635596 -0.619969
0002e0 17 ff c9 bd 1a 27 45 be 15 09 bb be c7 fa a3 bf
       -0.09863108 -0.19253197 -0.36530367 -1.2810906
0002f0 e5 f8 76 3d 09 45 dc 3e c6 53 6a 3f 0a 14 26 bf
       0.060295958 0.4302142 0.9153408 -0.6487433
000300 27 aa 1f 3f 19 43 b2 3f 91 9e 18 3f 86 49 04 bf
       0.62369007 1.3926727 0.59616953 -0.5167469
000310 e4 30 2b bf db 7a 7c bf 76 33 81 bf 5e ae c3 be
       -0.66871476 -0.9862496 -1.009383 -0.3821897
000320 ca 48 90 bf 02 d9 93 3f 21 ba c7 3e c0 1e 29 bf
       -1.1272213 1.15506 0.39009193 -0.66062546
000330 2d d0 d8 bf 2e 85 65 3e c1 36 a4 3f 8f 1c b4 3e
       -1.693853 0.22414085 1.282921 0.35178038
000340 78 3e c3 bf a9 70 b0 3e 30 0b 51 bc bd fe ce be
       -1.5253439 0.34460953 -0.012759015 -0.40428725
000350 58 33 e2 be 04 3f 9b 3f 8f 10 fc be fe 7d 88 3e
       -0.44179797 1.2128606 -0.49231383 0.26658624
000360 68 58 5a 3f dd 02 2d 3e ae ae 79 bd 26 b7 03 be
       0.8529115 0.16895624 -0.060957603 -0.12862834
000370 35 0d c3 bf 28 b3 b9 3f 4b bc 0b 3f 2c e1 06 bf
       -1.5238405 1.4507799 0.5458419 -0.52687335
000380 5c 24 ad bf da ae aa bf 17 31 4e 3e ac 01 15 c0
       -1.3526721 -1.333461 0.20135914 -2.328227
000390 44 64 2c 3f 6b 3d 07 be e5 17 94 bf 26 81 d7 3e
       0.67340493 -0.13207023 -1.1569792 0.4209072
0003a0 13 e5 e6 3f 11 07 7b 3f ef f8 18 be bd e9 1f 3f
       1.8038658 0.9805766 -0.1493871 0.6246603
0003b0 c2 38 a9 3f 13 47 47 3e 2a 5f ba 3f e5 ae 45 be
       1.3220446 0.19460706 1.4560292 -0.19304998
0003c0 3c b4 f6 bd 60 fb 18 bf 0d 60 57 3f ee 2a f5 3d
       -0.12046096 -0.5975857 0.84130937 0.11971079
0003d0 a3 a2 69 3f c1 7a d9 be 9f e3 12 3f 22 cd fe 3e
       0.9126379 -0.42476466 0.5737857 0.4976588
0003e0 87 e4 b2 3f f5 08 8a be 1d 3e cb 3e 06 e8 62 3e
       1.3975991 -0.2695996 0.39695826 0.22158822
0003f0 48 d8 c2 bf 14 52 37 bd 1a c2 41 bf bf 30 4c bf
       -1.5222254 -0.04475601 -0.756868 -0.7976188

feat.conv3d_1.bias f4 [4, 8]
000000 20 40 c0 b9 15 fd 03 3a 85 64 04 b8 e9 5d 80 b8
       -0.0003666887 0.00050349656 -3.156487e-05 -6.121008e-05
000010 4a f9 76 39 b8 a1 ca 39 1b 3c 70 38 df 4d 0d ba
       0.00023553256 0.00038648932 5.7276437e-05 -0.0005390327
000020 20 40 c0 b9 15 fd 03 3a 85 64 04 b8 e9 5d 80 b8
       -0.0003666887 0.00050349656 -3.156487e-05 -6.121008e-05
000030 4a f9 76 39 b8 a1 ca 39 1b 3c 70 38 df 4d 0d ba
       0.00023553256 0.00038648932 5.7276437e-05 -0.0005390327
000040 20 40 c0 b9 15 fd 03 3a 85 64 04 b8 e9 5d 80 b8
       -0.0003666887 0.00050349656 -3.156487e-05 -6.121008e-05
000050 4a f9 76 39 b8 a1 ca 39 1b 3c 70 38 df 4d 0d ba
       0.00023553256 0.00038648932 5.7276437e-05 -0.0005390327
000060 20 40 c0 b9 15 fd 03 3a 85 64 04 b8 e9 5d 80 b8
       -0.0003666887 0.00050349656 -3.156487e-05 -6.121008e-05
000070 4a f9 76 39 b8 a1 ca 39 1b 3c 70 38 df 4d 0d ba
       0.00023553256 0.00038648932 5.7276437e-05 -0.0005390327

feat.conv3d_1.attention.fc2.weight f4 [4, 1, 1, 1, 1]
000000 3a 2e 5a bf 68 32 8b be 40 15 ca bc b8 15 22 3f
       -0.85226786 -0.27186894 -0.024668336 0.6331439

feat.bn2.weight f4 [8]
000000 5f be 80 3f c8 59 80 3f a2 18 7f 3f e4 89 7e 3f
       1.0058097 1.0027399 0.9964696 0.99429154
000010 34 4b 80 3f e4 6b 7f 3f 0e 95 7f 3f 90 b4 80 3f
       1.002295 0.99774003 0.99836814 1.0055103

feat.bn2.bias f4 [8]
000000 2a c7 ce 3b ec 9e c8 3b 58 49 6c 3b 35 58 be bb
       0.0063103633 0.0061224606 0.0036054458 -0.005808855
000010 1c ac 9a 3b 1c 64 0a bb ce 98 61 3b 9b be b1 3b
       0.004720224 -0.0021116799 0.0034423354 0.0054243333

feat.bn2.running_mean f4 [8]
000000 cb fe 06 3f 38 6d dc 3e 70 5b d2 3e 52 64 0d 3f
       0.52732533 0.43052077 0.41085386 0.552312
000010 5f 3f 85 3f c1 43 ac be 31 8f 65 3d 7a 3b 16 be
       1.0409964 -0.33645442 0.05604476 -0.14671126

feat.bn2.running_var f4 [8]
000000 98 2b 22 40 95 69 e4 3f 2e e2 14 40 24 34 83 40
       2.5339108 1.7844721 2.326305 4.100115
000010 ee 40 ac 40 b0 e8 c8 3f 80 98 05 40 cb c5 4a 3f
       5.382926 1.569601 2.0874329 0.7920806

feat.conv3d_2.weight f4 [4, 16, 8, 3, 3, 3]
000000 46 65 46 be b2 42 0e 40 b8 ee 5d bf 86 1b 5a bd
       -0.1937457 2.2228208 -0.8669238 -0.053248905
000010 17 47 38 be a4 49 58 3f 6e 3d 0e 3f b8 bc 70 3f
       -0.17995869 0.84487367 0.55562484 0.9403796
000020 a8 32 26 3f cc a8 59 3f c5 6d 0c 3f 44 fd 35 3f
       0.64921045 0.8502319 0.54854995 0.7108958
000030 e0 8e 7a bf 44 f1 01 c0 20 8c 10 c0 87 7a 05 3f
       -0.9787426 -2.0303507 -2.2585526 0.52140087
000040 6f dc e3 3f 5e ec 36 3e 5d 4d c4 bf 6a 72 27 c0
       1.7801646 0.17863604 -1.5336109 -2.6163583
000050 2c 36 26 3f 8b cd 2c 3f 63 3d 47 3e a6 05 23 3f
       0.6492641 0.67501134 0.19457011 0.63680494
000060 1f ca ad 3f 85 57 de bf 46 4a a7 bd dd 58 01 bf
       1.3577307 -1.7370459 -0.081684634 -0.5052622
000070 9c c7 c9 3f ef fa a5 be 1e 52 05 3f 74 32 9c 3e
       1.5764041 -0.3241801 0.52078426 0.30507243
000080 1f 51 03 bf 6f f9 89 3f aa 23 a6 3f eb d8 47 3f
       -0.51295656 1.0779246 1.2979634 0.78065366
000090 10 83 85 bc 45 92 eb 3e 9c 78 ad 3e c8 23 fc bf
       -0.016297847 0.46010032 0.3388108 -1.969842
0000a0 67 94 6b bf cb e3 14 bf d6 ef af bd 31 eb f6 3f
       -0.9202332 -0.58160084 -0.08590667 1.9290525
0000b0 4a 37 14 bf ab d4 91 bf ee 38 7e 3e ac 0e 6e 3e
       -0.57896864 -1.1393026 0.24826404 0.23247784
0000c0 29 8d 27 3d a2 01 95 be 63 f9 fe 3d ac ec cf be
       0.040906105 -0.29102808 0.124499105 -0.40610254
0000d0 88 32 bd bd a0 c5 89 be 37 88 25 bf c4 36 25 3e
       -0.09238154 -0.26908588 -0.6466097 0.16134173
0000e0 5d 0a b4 bd 11 bc 71 bf d4 39 de be a8 73 17 be
       -0.08791039 -0.9442759 -0.43403494 -0.14790213
0000f0 aa 9c 43 3f 00 17 01 3f 78 34 22 bf 94 34 99 bf
       0.76410925 0.5042572 -0.6336131 -1.196917
000100 02 d3 e0 bf b1 cb 83 3f 5e f9 29 bf 0c 37 ac be
       -1.7564394 1.0296537 -0.6639613 -0.33635747
000110 b2 88 52 3e 37 a8 c3 3f 64 3d 62 bf ac 7f 80 3f
       0.20559958 1.528571 -0.88374925 1.0038962
000120 82 5b 01 3f 34 1c 47 bf 89 3a fc bf 1e 7b e8 bf
       0.50530255 -0.7777741 -1.9705364 -1.8162572
000130 c0 95 0d c0 fa 89 24 3e 39 fe a7 3e 09 a1 3e bf
       -2.212265 0.16068259 0.32811144 -0.7446447
000140 a4 2f 29 bf 79 b7 9f 3e 4a e4 16 3f 6b 7e ea bf
       -0.6608832 0.31194666 0.5894209 -1.831983
000150 96 83 83 bf 24 ed 54 3e 52 70 2b 3d c0 fc 2b 3f
       -1.0274532 0.20793587 0.041855164 0.6718254
000160 54 95 ad be 29 a0 d4 3e 08 ac 23 3f 70 5e c2 be
       -0.3390299 0.41528443 0.63934374 -0.37962675
000170 50 7b 10 3f 71 2f 37 bf f7 68 9e bf cd ca a4 bf
       0.5643816 -0.71556765 -1.2375783 -1.287439
000180 96 9a d5 3e 5d 06 5a 3f 43 65 db 3f 63 2d 3f be
       0.41719502 0.8516596 1.7140278 -0.18669657
000190 0d 5f 04 40 6f 23 5f 3f 00 bd 84 bf e8 d3 04 bf
       2.0683014 0.8716344 -1.0370178 -0.51885843
0001a0 af c0 62 3e 38 de 4e bf d9 2c 05 40 79 5a 57 bf
       0.22143815 -0.8080783 2.0808623 -0.84122425
0001b0 33 6a a8 3f ca b9 a7 3f ae d5 24 40 d9 4d fb 3e
       1.315741 1.3103573 2.575542 0.4908283
0001c0 9e 57 9a bd 25 2d a0 bf 96 80 17 3f b9 c8 9a bf
       -0.07536243 -1.2513777 0.5918058 -1.2092506
0001d0 3a f4 23 3d 3a 35 87 3f 1e c1 17 3f 28 a6 1d c0
       0.040027834 1.0563118 0.5927905 -2.4632664
0001e0 e2 02 5b 3f 89 63 ac bf 9b 83 ac be 1a 1d 4b be
       0.85551274 -1.3467876 -0.33694157 -0.1983532
0001f0 aa 43 b0 bf 86 04 a1 3f c2 07 52 bf 07 f6 d3 3e
       -1.377065 1.2579505 -0.8204309 0.4139864
000200 ad e8 82 3f ef e9 24 bf c3 46 e9 be 31 a4 4d 3f
       1.0227257 -0.64419454 -0.455618 0.8032866
000210 e2 80 62 3f 51 75 9e 3f fb d2 81 3f b6 69 66 bc
       0.8847791 1.2379552 1.0142511 -0.014063289
000220 91 31 b2 be c8 22 ae bf f8 83 97 3e 8a 68 af bf
       -0.3480344 -1.3604364 0.29592872 -1.3703778
000230 a6 75 8f 3c 2d 24 06 40 6c 10 31 bf 5d 66 2f 3e
       0.017512154 2.095958 -0.6916568 0.17128892
000240 f9 52 13 3f 54 c1 02 40 bd 8b 20 3e 11 7d 8b bf
       0.5754848 2.0430498 0.15678306 -1.0897542
000250 4a f6 ba bf d3 16 ba bf 10 99 be bf 75 c5 12 bf
       -1.4606411 -1.4538215 -1.4890461 -0.57332546
000260 8a 07 43 3e 1c b8 84 3e 38 67 ca bf 2a 88 df be
       0.19045845 0.25921714 -1.581275 -0.43658572
000270 0c b7 98 bf be aa d8 3d 15 b7 48 bf de cc 12 c0
       -1.1930861 0.105794415 -0.7840436 -2.293754
000280 da b2 de be 12 d7 d0 be 2e 8d e6 3f a7 6a 46 bf
       -0.43495828 -0.40789086 1.8011835 -0.7750649
000290 60 8e b8 3f 61 1b 0b bf 38 0b ad bf 45 ec 5c 3f
       1.4418449 -0.5433865 -1.3519049 0.8629802
0002a0 4d 4e e5 bf ea 49 f5 bd d7 72 d5 bd 55 60 cc 3e
       -1.791452 -0.119769886 -0.104222946 0.39917246
0002b0 20 6b a9 3e 3e 81 72 bf 52 8e 46 bf 53 b2 25 3f
       0.33089542 -0.9472846 -0.77560914 0.64725226
0002c0 ad f7 f6 bf 9e 76 35 bf f5 6e c7 be 94 d7 83 bf
       -1.9294335 -0.7088412 -0.3895184 -1.0300164
0002d0 31 fe 03 3f fe 3e de be 94 10 a8 be f2 38 99 3f
       0.5155974 -0.43407434 -0.32825148 1.1970503
0002e0 1b b3 a3 3e f7 f4 1a 3f 0f 72 7f be a6 22 9a 3f
       0.31972584 0.60530037 -0.24945854 1.2041824
0002f0 a6 6d b1 3f 41 3d 00 bf b3 4a f4 bf f2 08 b6 3f
       1.3861587 -0.50093466 -1.9085296 1.422148
000300 90 1e b4 bf 2d 57 49 3f c7 15 23 bf a8 08 d1 3f
       -1.4071827 0.78648645 -0.63705105 1.6330767
000310 9f 70 26 40 29 d8 e0 be a4 42 0e 3f 51 4a 68 bf
       2.6006238 -0.43914917 0.55570436 -0.907384
000320 86 20 14 c0 7d b3 aa 3e f4 5b 42 3f 6c 89 9a 3f
       -2.314485 0.33340064 0.7592156 1.2073188
000330 eb 34 9e bd dc 84 b6 3f 2b c8 d6 3e 60 bf 14 bf
       -0.07724937 1.4259295 0.4194959 -0.58104515
000340 00 ec 03 be 49 21 ad bf ff b2 e0 3e a7 9c 4e be
       -0.12882996 -1.3525783 0.43886563 -0.20176946
000350 5f 4f c6 be d1 22 97 be 64 09 93 bf 35 4f 2b 3f
       -0.3873243 -0.2951875 -1.1487241 0.66917735
000360 83 c0 84 bf d1 d5 89 3f 12 e2 f1 bf e6 66 9f bf
       -1.037125 1.0768377 -1.8897116 -1.2453277
000370 c8 75 d2 3e cb 46 8e 3e 6c 7b c7 3f 75 28 fb be
       0.41105485 0.27788386 1.558454 -0.49054304
000380 99 87 64 3f 15 11 5b bf 91 fb 8b 3f 34 b8 f8 3e
       0.89269406 -0.8557294 1.0936147 0.48578036
000390 dc 42 9c 3f ba 57 06 c0 1f e9 ca bd 2f 90 15 bf
       1.2207904 -2.0991044 -0.099077456 -0.5842313
0003a0 1d 4d 8c bf 95 14 31 bf af e8 d6 bd eb d1 6b bf
       -1.0961033 -0.6917203 -0.104935996 -0.92117184
0003b0 22 1f 1b bf 6c 94 ac bd f2 ec 83 3f ab 52 4e bf
       -0.6059438 -0.08426747 1.0306685 -0.8059489
0003c0 0a e4 d3 3f dd 1a db 3f cf 1d 14 bf 5e e9 46 3e
       1.6553967 1.7117573 -0.57857984 0.1942496
0003d0 2f 3f c2 bf 97 30 98 3e 67 b1 f1 3f 4f e9 85 be
       -1.5175532 0.2972457 1.8882264 -0.26154563
0003e0 1f e7 a7 3f 5d 72 54 be d4 e9 92 3f b2 00 5f 3e
       1.3117408 -0.20746751 1.1477609 0.21777609
0003f0 ef 4d 62 bf 1c 0e 8f 3e cb 57 8b 3e 16 a3 42 be
       -0.8840017 0.27940452 0.27215418 -0.19007525

feat.conv3d_2.bias f4 [4, 16]
000000 65 08 0f 3b 8a 88 a4 ba 20 af 16 3b 44 42 3a 3b
       0.0021825072 -0.0012552899 0.0022992566 0.0028420845
000010 d8 1e 31 ba 02 d0 59 b9 fc f3 7e bb d0 cc 2b bb
       -0.000675661 -0.00020772222 -0.003890275 -0.0026214607
000020 0a 33 89 bb 93 1c 97 ba a7 a3 50 3a 46 70 79 bb
       -0.0041869925 -0.0011528902 0.00079589564 -0.0038061305
000030 33 71 88 3b 27 8a 92 3b ef 2f 8b 3b 8d d0 b2 ba
       0.004163885 0.0044720354 0.0042476575 -0.0013642475
000040 8d 5e ea 3a 7f 39 85 bb 8e 22 0e 3b 6b db 38 3b
       0.0017880962 -0.004065692 0.0021688077 0.0028206955
000050 a9 9b ec ba b8 32 24 b9 fa 0a 84 bb 30 f6 74 bb
       -0.0018051761 -0.00015659153 -0.004029629 -0.0037378184
000060 52 f9 90 bb 9a 77 e2 ba 58 f1 28 3a 12 99 4c bb
       -0.0044242525 -0.0017278076 0.00064446544 -0.0031219167
000070 87 d2 5d 3b ca 06 8c 3b 8c 5b 83 3b 1f 45 8b ba
       0.0033847408 0.0042732703 0.004008716 -0.0010625458
000080 ea fc 0b bb d4 e5 85 3b 42 93 af bb 4e 98 52 3b
       -0.0021360465 0.0040862355 -0.0053581307 0.0032134238
000090 56 d2 18 bb 56 55 6f bb 49 21 98 3b 34 1b 8a 3a
       -0.002331873 -0.003651937 0.00464264 0.0010536672
0000a0 e5 29 a0 3b 26 f7 2d bb 16 8c 44 bb 42 b9 c2 3b
       0.0048878067 -0.0026545017 -0.0029990724 0.0059424946
0000b0 e0 04 9d 3b c5 f5 72 bb 15 37 67 bb f8 e4 68 3b
       0.004791841 -0.003707276 -0.0035280634 0.0035536867
0000c0 6c b4 05 3b 1c 81 83 bb b5 f2 c0 3b 77 5a b0 bb
       0.002040173 -0.004013194 0.005888308 -0.005381878
0000d0 33 ad 86 3b 7d 34 99 3b 96 f4 93 bb 65 1d 24 3b
       0.0041100024 0.0046754465 -0.004515241 0.0025041935
0000e0 16 39 a6 bb b1 6c 8b 3b 58 69 87 3b 19 63 c3 bb
       -0.005072723 0.0042549004 0.004132431 -0.005962741
0000f0 8e c7 c8 bb 3a db d3 3a 2a fc fd 3a f2 3c 8b bb
       -0.0061273044 0.0016163357 0.0019377519 -0.0042492086

feat.conv3d_2.attention.fc1.weight f4 [3, 8, 1, 1, 1]
000000 c1 b2 5f 3e 6c 52 9f 3c 4d 37 79 be a0 d1 1e 3d
       0.21845533 0.019448482 -0.24337502 0.038774133
000010 a7 df 6c 3c 5d 85 1e be a9 24 af 3e 78 e5 62 3d
       0.01445762 -0.15480562 0.34207657 0.05539462
000020 3c 79 14 bc ae 5e 72 be 1c 7b 5e be fe fb 97 bc
       -0.009062108 -0.2366893 -0.2172665 -0.018552776
000030 78 17 8a 3e cc 73 74 3e 98 b2 6f 3e ea 8f 63 be
       0.2697103 0.23872298 0.23407972 -0.22222868
000040 70 fd 7c 3d 94 cb 90 be d7 89 10 3e 46 95 2b be
       0.061765134 -0.28280318 0.14115082 -0.16756162
000050 ab 78 0b 3e d2 8b 55 3e a2 ef 0c be dd e7 25 be
       0.1362025 0.20854118 -0.13763288 -0.1620173

feat.conv3d_2.attention.fc2.weight f4 [4, 3, 1, 1, 1]
000000 46 57 ee 3e 6a 64 14 bf 35 20 da be 14 28 e1 3e
       0.4655096 -0.5796572 -0.42602697 0.4397589
000010 24 a2 0e bf dc 18 aa 3e 9f bf d9 3c 56 95 f9 be
       -0.55716157 0.3322209 0.02658063 -0.48746747
000020 2f 70 8a be b4 e2 08 3f ca 39 2e 3e 25 31 d2 3e
       -0.27038714 0.5347092 0.17014232 0.4105312

feat.bn3.weight f4 [16]
000000 25 5d 80 3f d2 c4 80 3f c5 3c 80 3f ea 78 80 3f
       1.0028425 1.0060065 1.0018545 1.00369
000010 8e a4 80 3f b5 c2 80 3f 23 c5 80 3f 95 ad 80 3f
       1.0050218 1.005942 1.0060161 1.0052973
000020 0b 9a 80 3f 19 59 80 3f 7b 5f 80 3f 65 7c 80 3f
       1.004701 1.002719 1.0029138 1.0037962
000030 6e c1 80 3f 48 8c 80 3f 66 d4 80 3f db a6 80 3f
       1.005903 1.004281 1.0064819 1.005092

feat.bn3.bias f4 [16]
000000 44 cf b0 3b 65 02 bd 3b 71 d9 e4 3a 1b 5a b6 3b
       0.0053958017 0.0057681077 0.0017459822 0.0055649406
000010 e1 f8 99 3b 82 cc b7 3b 04 b7 c1 3b 8c 2d ca 3b
       0.004698858 0.005609096 0.0059117097 0.0061699804
000020 1a a9 9c 3b d3 8b 55 3b 83 1f 04 3b 35 5e 36 3b
       0.0047809007 0.0032584562 0.0020160384 0.0027827148
000030 e9 8b cf 3b 0d 24 0a 3b ca 48 cb 3b 55 ad b2 3b
       0.0063338173 0.0021078617 0.0062037455 0.0054527917

feat.bn3.running_mean f4 [16]
000000 3a 0e cb 40 39 dc 45 c1 4c 4b 8f c0 bf c5 d5 3f
       6.3454866 -12.366265 -4.4779415 1.6700972
000010 fd 95 6f 40 c0 0a cf c0 f0 e5 51 c1 40 21 26 c1
       3.7435296 -6.4700623 -13.118637 -10.383118
000020 fa 8e 81 3e bd dc f3 40 c4 65 3d 41 2f 14 2c 40
       0.25304395 7.6206956 11.837345 2.688732
000030 ac 0f cf c0 8e 4c 9a 3f d5 b4 6e 40 78 2f da 40
       -6.470663 1.2054613 3.729787 6.8182945

feat.bn3.running_var f4 [16]
000000 c1 6f 0d 43 bb 9a 02 43 db c3 42 42 af 63 ae 42
       141.43654 130.60442 48.691265 87.194695
000010 b4 64 92 42 64 06 e8 42 28 98 1d 43 c8 7f 4d 43
       73.196686 116.01248 157.59436 205.49915
000020 ba 9a 40 42 82 6a a2 42 6a bd 25 43 c7 3a ae 42
       48.1511 81.20802 165.7399 87.1148
000030 8c 60 d9 42 d6 94 96 42 be 3a 2f 42 a6 b6 6d 42
       108.68857 75.290695 43.807365 59.428368

mlp.fc2.weight f4 [10, 2000]
000000 a9 f1 64 bc ca 05 23 bc 3a 6a 98 bc 13 b4 1b 3c
       -0.013973632 -0.009950111 -0.01860534 0.009503382
000010 b7 69 ce bc cc 7f 83 3c fb 30 1b 3c 68 18 e2 39
       -0.025196893 0.01605215 0.009472127 0.00043124263
000020 26 07 3f bc 80 ef 12 bc e6 9b 93 bc 58 43 ae 3b
       -0.011659419 -0.008968234 -0.018018674 0.0053180866
000030 63 5f 98 3c 87 b6 b3 bb 68 16 a9 3b 60 77 05 3c
       0.018600171 -0.0054844054 0.0051601417 0.008146137
000040 07 49 5f 3c 27 5a 45 3c 59 17 53 bc f6 68 d1 3b
       0.013628251 0.01204542 -0.0128839845 0.006390686
000050 57 67 87 3b 16 cf 93 bc f6 d6 b7 b8 76 8d 56 3c
       0.004132192 -0.018043082 -8.7661596e-05 0.01309525
000060 ed 7d 3c 3b bb 33 ff bb 3b 4f 38 3c b5 54 9a 3c
       0.002876158 -0.007788149 0.011249359 0.01883922
000070 ac a0 b9 bc e0 f4 fa 3b d8 47 37 3c 9e 55 46 3a
       -0.022659622 0.007658586 0.0111865625 0.00075658585
000080 c2 09 98 bc 74 4a 9e bc 0e c6 8d 3b 18 98 3a bc
       -0.01855934 -0.019322611 0.0043265885 -0.011388801
000090 74 78 23 bc e2 fb 3a bc ab 79 61 3c eb b5 97 3c
       -0.009977449 -0.011412593 0.013761918 0.018519362
0000a0 64 f8 5b 3c 6e 0f b6 bc 44 13 1f 3c 1c 5a 81 3b
       0.01342592 -0.022224154 0.009709183 0.0039475095
0000b0 c7 a0 55 ba 15 bc c6 bc 50 5c b2 b9 ee ba d5 3a
       -0.0008149263 -0.024259606 -0.00034019584 0.001630632
0000c0 3c eb 80 3c 5b 97 18 3c 3a aa 4b 3b fb fd 56 bc
       0.015737168 0.00931343 0.0031076805 -0.013122077
0000d0 9e 89 81 bb db c2 a0 3a 25 9d a9 3b 18 b1 62 bc
       -0.003953173 0.0012265103 0.005176204 -0.013836168
0000e0 36 c4 0e bc 6c 71 05 bb b1 37 80 bc 02 ae 00 3a
       -0.0087137725 -0.0020361794 -0.015651556 0.00049087417
0000f0 d0 e1 7e 3b 6f 16 89 3c 82 1f 02 bc 69 13 6c 3c
       0.003889192 0.01673433 -0.007942082 0.014408925
000100 55 b0 92 3c cf 12 99 3c 32 1d 9b 3c 45 77 d6 3b
       0.017906347 0.018685726 0.01893482 0.0065449798
000110 23 a9 76 3c cd 30 27 3c b2 35 c0 3b 0b cb 64 bc
       0.015054974 0.010204506 0.005865776 -0.013964425
000120 91 c7 a0 bc bb 6b 5e bc a8 ee 89 3a 3d e7 bf bb
       -0.01962641 -0.01357549 0.0010523396 -0.005856423
000130 2b 7d 3e bc ec 8e 55 3c 02 3d c9 bb 12 6e ae bc
       -0.011626522 0.0130345635 -0.006141306 -0.02129272
000140 b0 bf 94 bc 4c b7 03 3b d4 8f 98 3c 31 cc cf bb
       -0.01815781 0.0020098267 0.01862327 -0.00634148
000150 8c 07 4a 3c 8e 65 12 3c 4d cf d8 bb 6b a5 8b 3c
       0.012330901 0.008935345 -0.006616509 0.01704665
000160 0c f7 29 bc 82 f0 3e 3c ef 3f 20 3c 65 0a 02 3c
       -0.010373842 0.011654021 0.009780868 0.007937049
000170 cb 25 18 3c 31 a2 ab 38 84 ce 2a b8 cd b5 94 bc
       0.009286354 8.184126e-05 -4.072349e-05 -0.018153096
000180 f4 57 29 3c 88 d7 c2 bc b3 cc 71 bb df c1 8b 3b
       0.010335911 -0.023784414 -0.0036895692 0.0042650546
000190 a1 31 bf bc 89 4c 96 bc fe a5 7f bc 9b ab 0b 3c
       -0.023339095 -0.018347042 -0.01560354 0.008524801
0001a0 4d 00 a8 bc 00 af 9c bc 45 c8 0d 3c ff 2b 5f 3b
       -0.020507956 -0.019126415 0.008653705 0.0034053323
0001b0 94 ff 5e bc 15 8e c1 3b 1d c4 88 bc c7 44 af 3b
       -0.013610739 0.00590683 -0.016695077 0.005348775
0001c0 d2 25 9c 3b ee 0a 99 3b f3 7a 0f 3c 98 52 56 3c
       0.0047652507 0.0046704924 0.008757341 0.013081215
0001d0 b8 0f 2e bc 09 cc c9 3b 65 f8 8a b9 d5 5e 64 bc
       -0.010623865 0.006158356 -0.0002650648 -0.013938625
0001e0 02 a2 b6 bc 40 91 a1 bc 4c 3b 42 bc fa f0 9c 3b
       -0.022294048 -0.01972258 -0.011854958 0.004789469
0001f0 1e 6a 8b bc 94 6c 69 3c e6 61 14 bc 88 d6 38 3a
       -0.017018374 0.014247078 -0.009056544 0.00070510106
000200 c8 7e af bc b1 3a 54 3c 29 b6 81 3c 30 7a d5 bb
       -0.021422759 0.012953446 0.015833931 -0.00651481
000210 6c 5a 86 bc ee df 14 bb e6 68 9b bc 26 fe 9d bc
       -0.016400538 -0.002271648 -0.018970918 -0.019286226
000220 b3 cb b5 bc 5c cf ba bc b1 9f fd bb ed a1 9e bc
       -0.022191858 -0.022803955 -0.007739984 -0.019364322
000230 83 37 55 3c 55 87 ba bc 1a e6 0d bc ec 16 64 3c
       0.013013723 -0.02276961 -0.0086608175 0.013921481
000240 78 6e a4 bc 45 be 9c bc 0f 6c 82 3c a6 18 3a 3c
       -0.020072207 -0.019133696 0.015920667 0.011358416
000250 78 7b ae bc d0 1b d2 3b e3 f5 80 bc 3e f7 bd bc
       -0.021299109 0.006412007 -0.015742248 -0.023189183
000260 81 7a 54 bc 8a 4f 8e ba da e3 b8 bc 75 7e 82 bc
       -0.01296866 -0.0010857445 -0.022569586 -0.01592944
000270 b1 df 46 bc 25 45 df ba 7d 4e 57 3a f5 62 96 bb
       -0.012138293 -0.0017034156 0.0008213295 -0.0045894333
000280 f9 c8 60 bc aa 7a 02 3c 9b 9c b0 bc c4 32 31 bc
       -0.013719791 0.007963816 -0.02155905 -0.010815326
000290 99 82 9d bc b9 48 da 3b 69 3e d3 3b fb 21 9a 3c
       -0.019227313 0.0066615012 0.006446649 0.018815031
0002a0 c3 28 46 3c d3 7d b7 3b 0c 1e 8c 3c e7 be 65 3a
       0.012094679 0.005599716 0.017104171 0.00087641034
0002b0 8b 53 8f bc 59 c3 8f bb f2 ad ea 3b 34 aa 8e 3c
       -0.017495891 -0.004387301 0.007161849 0.017415144
0002c0 c6 c5 40 bb 5c f9 ab bb 95 38 17 3c c1 a6 a3 bc
       -0.0029414757 -0.005248232 0.009229799 -0.019976975
0002d0 89 0c 81 bc 1c cf ca bb 74 1f 20 bb e1 ae 56 3a
       -0.015753048 -0.00618924 -0.002443281 0.0008189511
0002e0 18 d0 6d ba 30 e6 ac bc 58 b2 a2 3b d9 8f a2 3c
       -0.0009071841 -0.021105856 0.004965108 0.019843983
0002f0 21 7f 90 bc e0 f3 05 bb 11 53 6a 3c ac 82 83 bc
       -0.017638745 -0.002043955 0.014302031 -0.01605352
000300 e0 25 14 bb bf 3f f1 bb db c4 55 bc 5a 15 e1 3b
       -0.0022605583 -0.0073623355 -0.013047422 0.0068690004
000310 8d 63 8d 3c 3b fb e1 3b 24 7b b7 bc d9 1b bc bc
       0.017259384 0.006896404 -0.022397585 -0.022962498
000320 07 a0 40 bb ae 49 5b bc 02 4e 74 bb 41 11 72 bc
       -0.0029392259 -0.013384266 -0.0037277942 -0.014774621
000330 9e 00 08 bc 1c 56 af bc ce c7 fb 3b 13 94 a6 3c
       -0.008300928 -0.021403365 0.0076837307 0.02033428
000340 7f 30 21 bc 71 43 89 bc 5d 0a 1e 3c 91 d0 95 bc
       -0.0098382225 -0.016755791 0.0096460255 -0.018287929
000350 1d 13 17 3b ac 88 6f 3c 60 21 11 3c cc 64 bd bc
       0.0023052164 0.014619987 0.008858055 -0.023119353
000360 77 8e 88 3c b4 01 8c bc 95 8d 26 3c c4 a1 97 3c
       0.016669495 -0.017090656 0.010165592 0.018509753
000370 96 be 5f bc 87 60 67 3c dd 7c b7 bc e5 92 23 3c
       -0.013656279 0.014122135 -0.022398407 0.009983753
000380 a8 fe b7 3b a3 8a db 3b 43 c1 78 bc 83 35 fe bb
       0.005615074 0.0066998764 -0.015182796 -0.007757844
000390 50 e9 8b 3a 5c 3c 16 3c 1a 90 ea 3a 74 e2 c2 bc
       0.0010674391 0.009169664 0.0017895729 -0.023789622
0003a0 bb 19 bf bc f5 f8 66 3b 52 c7 b2 bb 55 a7 30 3b
       -0.023327699 0.0035243605 -0.0054558897 0.0026955206
0003b0 a5 82 83 ba e8 d1 95 3c 84 5e 82 bc 07 87 b6 bc
       -0.0010033442 0.018288568 -0.01591421 -0.022281183
0003c0 93 85 60 3c e8 fa 0c 3c 54 53 53 b9 51 d9 df 3a
       0.013703722 0.008604743 -0.0002015357 0.0017078315
0003d0 7e 39 47 bc d9 91 73 bb 45 4c 2c 3b b6 5b 87 bb
       -0.012159703 -0.003716579 0.0026290577 -0.004130806
0003e0 b2 58 6c 3c 26 38 06 bc 4d 1a 2d 3b 26 8c 09 3c
       0.0144254435 -0.008192098 0.0026413382 0.00839523
0003f0 1a f9 a5 bb 5b c5 29 3c 46 c8 61 3c 6b 8b b7 b9
       -0.0050650956 0.010361995 0.013780659 -0.00035008354

mlp.fc2.bias f4 [10]
000000 24 46 62 bc e0 d4 ba 3c 65 aa c8 bc e7 81 3e 3c
       -0.013810668 0.022806585 -0.024495313 0.011627651
000010 38 c3 8b 3c c2 df 68 bb 55 3c ab bb 72 7d b5 bc
       0.017060861 -0.003553376 -0.005225698 -0.022154544
000020 72 d6 34 bc 46 ea ae 3c
       -0.011037456 0.021351945
