cls/cls_model_8394.pth (torch, 158979 bytes, 17 tensors)

feat.conv3d_1.weight f4 [4, 8, 1, 5, 5, 5]
000000 cf e1 80 3f e1 e8 ab bf 78 36 3e bc 00 12 57 be
       1.0068911 -1.3430444 -0.011609666 -0.2100296
000010 de 2c c5 bf ae ad 29 3e 0d 83 a1 bf d2 37 03 be
       -1.5404317 0.1657016 -1.2618119 -0.12814263
000020 7e 27 cf 3f 26 96 e0 be 17 0c c4 3d ca b1 cc bf
       1.6183927 -0.43864554 0.095726185 -1.5991757
000030 8d 8c cd bf 69 cb 29 c0 16 12 6c 3f 67 b2 70 3f
       -1.6058518 -2.6530402 0.92215097 0.9402222
000040 cc 25 99 3f d7 c2 5d bf 44 6a 9e 3e 65 3e 68 3e
       1.196466 -0.86625427 0.3094045 0.22680052
000050 b7 8b 15 40 42 0c 86 3e 3f d6 36 bf 43 9c 9e bd
       2.3366525 0.26181227 -0.71420664 -0.07744648
000060 e6 4b d8 3e 82 b2 08 bf 20 19 ec bf ab af 39 3e
       0.42245406 -0.5339738 -1.8445168 0.18133418
000070 38 43 12 3f cd 0a d6 3e d1 98 e6 3f 8d 1b 12 3f
       0.5713382 0.41805115 1.8015386 0.5707329
000080 ef 48 02 3f 47 3d 88 bf 52 2f 15 be a8 e1 8d 3f
       0.5089254 -1.06437 -0.14568833 1.108449
000090 5f a2 e7 be af 66 56 bf 49 1c 5a bf 57 9e c7 bc
       -0.45241067 -0.8375043 -0.8519941 -0.024367495
0000a0 52 6e 9a be 0c 97 06 3f 32 16 af 3e c1 25 70 3f
       -0.30162293 0.5257423 0.3419662 0.9380761
0000b0 e0 ba c1 be a4 45 3b be 70 9b 04 3f 16 75 ea bf
       -0.37837887 -0.18288285 0.5179968 -1.8316982
0000c0 c0 09 39 3e 77 80 f0 bf 9e ec 9b be fe 43 a3 3f
       0.18070126 -1.8789204 -0.30453962 1.2755125
0000d0 9d e7 47 be 86 35 49 3f 50 0d bf 3f 9c f3 9d bf
       -0.19521947 0.78597295 1.4925938 -1.2339969
0000e0 4a d1 bb 3e a0 35 88 3f dc 63 ca 3f ce 80 09 3e
       0.36683112 1.0641365 1.5811725 0.13428041
0000f0 b9 91 1e c0 c6 4f 15 40 e4 12 f3 3c b3 60 2e be
       -2.4776442 2.332994 0.029672094 -0.17029075
000100 15 0e 29 c0 e9 bf ac bf 3c 53 ef be f9 90 12 3f
       -2.6414845 -1.3496066 -0.4674319 0.5725246
000110 7b 4b 73 bf c4 e8 7f 3d c3 57 9c bf e6 d1 98 bf
       -0.9503705 0.062477842 -1.2214283 -1.1939056
000120 e6 cf 9d 3d 5b 03 9e 3f 72 ae cc 3f d7 d9 a3 be
       0.07705669 1.2344774 1.5990736 -0.32002136
000130 85 ac ee 3e b3 84 6d 3e 0b 44 e0 bf 14 e9 fe 3e
       0.46615997 0.23195152 -1.7520765 0.497872
000140 a4 c0 ec 3f ff 63 6f 3f bc 58 49 bf a5 a5 09 3f
       1.8496289 0.93511957 -0.7865102 0.5376838
000150 a0 b8 8a 3c a7 a3 d1 3d d4 aa c1 3d 49 ff 03 3f
       0.01693374 0.10236292 0.09456411 0.5156141
000160 88 ff 8d bf 53 dc 9b 3e 99 8f dc bf 92 b0 68 be
       -1.1093607 0.30441532 -1.7231323 -0.22723606
000170 26 b8 0c 40 48 22 40 3e e6 84 13 3f a2 1a 68 bf
       2.1987395 0.18763077 0.5762466 -0.9066564
000180 d0 90 a7 bf f4 ea 85 bf 08 d0 d1 3e 14 52 0e bf
       -1.3091068 -1.0462327 0.40979028 -0.5559399
000190 1c c4 da 3e 04 a4 7d 3f 90 8a 0b 3f 39 58 0c bf
       0.42727745 0.99078393 0.54508305 -0.5482212
0001a0 21 1b 01 3f f9 fe 5e 3f 37 31 98 bd 9c 8d dd 3e
       0.5043202 0.8710781 -0.07431262 0.43272102
0001b0 d5 e1 97 3e 00 5c 08 bd 89 be 3f 3e f8 02 82 3f
       0.29664484 -0.033290863 0.18725027 1.0157156
0001c0 43 cd 84 3e b1 fa 30 bf 96 34 98 3f 19 6e 6f 3f
       0.25937852 -0.69132525 1.1891048 0.9352737
0001d0 0b f8 14 3e 44 f6 f8 bb 01 17 26 bf e1 d8 2b 3e
       0.14547746 -0.0075977165 -0.6487885 0.16781951
0001e0 a0 79 78 bf b7 1e 1a 3d a3 f7 aa bf 1b 21 e6 3d
       -0.97060585 0.03762695 -1.3356823 0.11236783
0001f0 50 b8 ef bd 4f bc c4 be e5 b6 4b 3f ed 54 e2 3f
       -0.11705077 -0.38424918 0.7957595 1.7682167
000200 7c c4 92 3e e7 77 f0 bf 11 b3 7e 3f 51 cf 9e 3f
       0.2866553 -1.8786591 0.99491984 1.2407018
000210 f6 25 eb be ea af 56 bf 5a e1 e9 be 6a 9c b7 3d
       -0.459274 -0.83862174 -0.45679742 0.089653805
000220 82 72 02 3e e5 8e 39 3f 01 5a 37 3e 44 3a 97 3d
       0.12738994 0.72483665 0.17905428 0.0738416
000230 f1 de 4b 3f 72 fa 1a bf 35 d6 a9 bf 65 20 26 3f
       0.79637057 -0.605384 -1.3268496 0.6489318
000240 19 61 8f 3e a6 bd c3 bf a2 4d e5 3f f8 c4 19 3f
       0.28003767 -1.5292251 1.7914317 0.60066175
000250 e9 d2 c2 be 8e 53 6f 3f 8d d2 63 3f 91 c5 96 3e
       -0.38051537 0.9348687 0.8899315 0.29447606
000260 cc 47 8a 3f 2a 0e 9c bf 30 f5 b8 3e 70 0a b0 bf
       1.0803161 -1.2191823 0.36124563 -1.3753185
000270 0c 56 85 bd ea 83 d4 be fa 41 48 bf 16 d6 01 3d
       -0.06510553 -0.41506892 -0.7822567 0.03169831
000280 94 dd 93 be d7 32 7a 3f c0 3f db be 76 9e 32 3e
       -0.28879988 0.97733825 -0.42822075 0.1744326
000290 98 48 51 3f 1a 09 bb 3f 71 fe 97 3e 4f 59 68 bf
       0.81751394 1.4612153 0.2968631 -0.90761274
0002a0 a9 40 1b 3e 76 36 ad be d7 73 b0 bf 13 14 e8 3f
       0.15161385 -0.33830613 -1.3785352 1.8131126
0002b0 40 8d 50 3d 20 72 71 3e 64 cd 7b 3f bd f2 c1 bf
       0.050915956 0.23578691 0.98360276 -1.5152203
0002c0 3e fb 9e 3e 0a 63 e0 be 9d a2 86 bd cc 03 3b bf
       0.31051058 -0.4382556 -0.06573985 -0.7305267
0002d0 4a 96 cb be 75 52 51 bf 5a a8 5a be 23 fd 1d bf
       -0.397631 -0.81766444 -0.21353284 -0.6171438
0002e0 e9 47 d2 bd e0 bc 4e be 21 14 c1 be ff c2 a3 bf
       -0.10267622 -0.20189238 -0.3771067 -1.2793883
0002f0 0c e5 78 3d 2c ff d8 3e 4e 2b 67 3f eb 6e 29 bf
       0.06076531 0.4238218 0.9030045 -0.6618487
000300 bc 31 20 3f a0 59 b2 3f fd 39 18 3f 55 5d 07 bf
       0.6257589 1.3933601 0.59463483 -0.5287679
000310 74 78 2e bf 78 03 7c bf c1 6e 81 bf b7 11 c7 be
       -0.68152547 -0.9844279 -1.0111924 -0.38880703
000320 56 42 8f bf 81 38 94 3f 78 dd ce 3e 32 c1 26 bf
       -1.1192119 1.1579744 0.40403342 -0.6513854
000330 c3 d9 d7 bf 14 78 6d 3e 18 90 a4 3f 89 5c bb 3e
       -1.6863331 0.23190337 1.2856474 0.36594036
000340 0e 19 c2 bf e6 4d b4 3e b6 9c 3c bc 73 21 cf be
       -1.5163896 0.35215682 -0.011511972 -0.40455207
000350 87 31 db be f8 6e 9c 3f 0b 69 f7 be 1b 63 89 3e
       -0.42811224 1.2221365 -0.4832233 0.26833424
000360 d5 37 5a 3f 48 17 3b 3e 3d 23 4e bd 24 a8 ef bd
       0.8524144 0.182706 -0.050326575 -0.11701992
000370 ff 05 c3 bf 80 a8 b9 3f b7 12 0f 3f cb 2b 04 bf
       -1.5236205 1.4504547 0.5588793 -0.5162932
000380 77 ab ab bf 82 a2 aa bf a2 d1 46 3e 92 5d 14 c0
       -1.3411702 -1.3330843 0.19415906 -2.318211
000390 3e a3 2d 3f 78 d2 05 be b7 70 94 bf 12 73 d3 3e
       0.6782721 -0.13068569 -1.1596898 0.4129873
0003a0 78 e0 e7 3f 11 a9 7b 3f e4 67 1a be 1a 1e 1e 3f
       1.8115377 0.9830485 -0.15078694 0.6176468
0003b0 45 f3 a7 3f dd 62 4e 3e c0 af ba 3f 5a f3 47 be
       1.3121115 0.20154901 1.4584885 -0.19526425
0003c0 49 8d f8 bd e5 d2 1a bf b3 ef 59 3f 88 57 00 3e
       -0.12136323 -0.6047805 0.85131377 0.1253339
0003d0 8b 86 69 3f 65 5a da be 02 a9 11 3f 47 2b 02 3f
       0.9122092 -0.4264709 0.5689851 0.50847286
0003e0 e6 99 b3 3f b2 5f 8a be 2f 67 c6 3e 67 1c 59 3e
       1.4031341 -0.27026135 0.38750598 0.21202241
0003f0 76 77 c3 bf 77 40 26 bd 4c f9 3f bf 8c 8f 4f bf
       -1.5270832 -0.040588822 -0.7498977 -0.8107841

feat.conv3d_1.bias f4 [4, 8]
000000 cb 97 49 b9 d0 b2 24 3a 75 b0 10 b8 04 8c 05 b9
       -0.00019225401 0.00062827487 -3.4496614e-05 -0.00012736028
000010 2b 6d 4d 39 3e fc a7 38 10 6e 09 39 35 2a 35 ba
       0.00019590992 8.010164e-05 0.0001310634 -0.00069108914
000020 cb 97 49 b9 d0 b2 24 3a 75 b0 10 b8 04 8c 05 b9
       -0.00019225401 0.00062827487 -3.4496614e-05 -0.00012736028
000030 2b 6d 4d 39 3e fc a7 38 10 6e 09 39 35 2a 35 ba
       0.00019590992 8.010164e-05 0.0001310634 -0.00069108914
000040 cb 97 49 b9 d0 b2 24 3a 75 b0 10 b8 04 8c 05 b9
       -0.00019225401 0.00062827487 -3.4496614e-05 -0.00012736028
000050 2b 6d 4d 39 3e fc a7 38 10 6e 09 39 35 2a 35 ba
       0.00019590992 8.010164e-05 0.0001310634 -0.00069108914
000060 cb 97 49 b9 d0 b2 24 3a 75 b0 10 b8 04 8c 05 b9
       -0.00019225401 0.00062827487 -3.4496614e-05 -0.00012736028
000070 2b 6d 4d 39 3e fc a7 38 10 6e 09 39 35 2a 35 ba
       0.00019590992 8.010164e-05 0.0001310634 -0.00069108914

feat.conv3d_1.attention.fc2.weight f4 [4, 1, 1, 1, 1]
000000 3a 2e 5a bf 68 32 8b be 40 15 ca bc b8 15 22 3f
       -0.85226786 -0.27186894 -0.024668336 0.6331439

feat.bn2.weight f4 [8]
000000 ae 58 82 3f 8a ed 80 3f fe ba 7a 3f f1 40 7b 3f
       1.0183313 1.0072491 0.9794158 0.9814597
000010 c8 1c 7c 3f 07 92 80 3f 87 9f 81 3f f3 33 83 3f
       0.98481417 1.0044564 1.0126809 1.0250229

feat.bn2.bias f4 [8]
000000 99 2e ce 3c 1b 17 c9 3c cc 5e d0 3c 1a f8 8f bc
       0.025168704 0.02454715 0.025435828 -0.017574359
000010 a9 b7 28 3c 70 67 4b bc 28 6a dd 3c 09 85 87 3c
       0.010297694 -0.012414798 0.027028158 0.016542928

feat.bn2.running_mean f4 [8]
000000 ca df d4 3e 8b 61 ce 3e b9 d0 bd 3e 37 7b 1b 3f
       0.41576988 0.40308794 0.37073305 0.60734886
000010 fb 38 86 3f a6 5d aa be d0 c9 30 3d 4c 49 02 be
       1.0486139 -0.33274573 0.043161213 -0.12723273

feat.bn2.running_var f4 [8]
000000 37 ac ff 3f f4 5d d3 3f 39 be fe 3f e3 e7 8c 40
       1.9974431 1.6513047 1.9901801 4.4033065
000010 fb 37 b0 40 c3 52 be 3f 8d a9 f6 3f b1 59 34 3f
       5.5068336 1.4869007 1.9270493 0.7044936

feat.conv3d_2.weight f4 [4, 16, 8, 3, 3, 3]
000000 19 e0 45 be 03 e2 0d 40 27 f1 61 bf 1d ac 4f bd
       -0.19323768 2.2169197 -0.88258594 -0.05070125
000010 4c d2 3b be 62 e9 54 3f b7 6c 0f 3f 12 7b 73 3f
       -0.1834194 0.83168614 0.5602526 0.95109665
000020 79 91 28 3f bb bb 57 3f a6 df 07 3f e3 92 32 3f
       0.65846974 0.8427083 0.53075635 0.6975538
000030 76 32 7d bf 0c 31 03 c0 87 5c 11 c0 91 5a 04 3f
       -0.9890512 -2.0498686 -2.2712724 0.51700693
000040 4d 90 e3 3f 43 49 36 3e df 5a c5 bf 3c 7f 28 c0
       1.7778412 0.17801385 -1.5418357 -2.6327658
000050 36 94 22 3f a1 b5 29 3f 1c 00 36 3e 37 b3 1f 3f
       0.635074 0.6629277 0.17773479 0.62382835
000060 36 ce ac 3f a3 a1 de bf fa fd b4 bd 4e f1 00 bf
       1.350043 -1.7393078 -0.08837505 -0.503682
000070 76 33 c9 3f 27 53 ab be 7e 56 06 3f 70 26 9c 3e
       1.571883 -0.33461878 0.52475727 0.30498075
000080 8c 7e 04 bf 14 79 8a 3f e0 11 a7 3f 9a b5 4a 3f
       -0.51755595 1.08182 1.305233 0.7918335
000090 67 13 9d bc 32 e1 e6 3e 82 4f a4 3e 98 a1 fc bf
       -0.01917429 0.45093685 0.3209191 -1.9736814
0000a0 7d 39 6e bf 1e 6e 19 bf b7 87 aa bd 64 f9 f7 3f
       -0.9305647 -0.5993365 -0.08326667 1.9372983
0000b0 de c6 10 bf e2 a3 92 bf b6 97 71 3e 34 8f 5b 3e
       -0.5655345 -1.1456263 0.2359303 0.21441346
0000c0 56 a6 fc 3c 21 3d 9d be e6 53 de 3d eb 39 d2 be
       0.030841034 -0.307107 0.10855846 -0.41059813
0000d0 31 60 ad bd 27 86 84 be c0 69 22 bf 61 3c 2d 3e
       -0.08465613 -0.258836 -0.6344261 0.16917564
0000e0 58 c1 b1 bd fc 61 6f bf 8f 5c dd be 98 df 19 be
       -0.086794555 -0.9350889 -0.4323468 -0.150267
0000f0 a0 ab 45 3f f8 ca 01 3f 92 07 21 bf 7d 4e 98 bf
       0.77215004 0.5070033 -0.62902176 -1.1898953
000100 79 23 e0 bf 6f 63 84 3f 7f c6 29 bf b6 c7 af be
       -1.7510825 1.0342845 -0.66318506 -0.34332055
000110 ff 99 48 3e dc 42 c3 3f 70 e9 62 bf 3e 5b 81 3f
       0.19589995 1.5254779 -0.8863745 1.010597
000120 b9 83 02 3f 6a 0e 46 bf 30 dc fc bf f5 de e8 bf
       0.5098224 -0.77365744 -1.9754696 -1.8193041
000130 27 03 0e c0 12 68 1a 3e 8a e7 a2 3e 15 73 3f bf
       -2.2189424 0.15078762 0.31817275 -0.74784976
000140 da 1f 29 bf 36 f6 a0 3e d9 80 13 3f 07 81 ec bf
       -0.66064227 0.31437844 0.5761848 -1.8476876
000150 ef 46 83 bf 62 e7 47 3e 32 ed ea 3c 34 c4 2c 3f
       -1.0256022 0.1952186 0.028677557 0.6748688
000160 f5 6f ae be 14 7c d2 3e 18 d1 23 3f 0a e5 c9 be
       -0.3406979 0.4111029 0.63990927 -0.39432555
000170 0a 6b 0d 3f 44 b8 37 bf e4 a6 a0 bf b3 11 a6 bf
       0.55241454 -0.7176554 -1.2550931 -1.2974151
000180 2c 78 d6 3e bb 42 5a 3f 95 6a db 3f 0e 6d 3d be
       0.4188856 0.8525807 1.7141901 -0.18498632
000190 6f a6 03 40 ef 78 5c 3f c5 fb 84 bf 9e 23 08 bf
       2.0570333 0.8612203 -1.0389334 -0.5317935
0001a0 70 c3 59 3e 5b 92 4e bf cd 36 05 40 ed 3d 57 bf
       0.2126596 -0.8069207 2.0814698 -0.84078866
0001b0 45 cc a8 3f 8e 42 a7 3f 05 ac 23 40 24 13 fd 3e
       1.3187338 1.3067186 2.5573742 0.49428666
0001c0 51 70 a2 bd cd 31 a2 bf 33 93 18 3f ea 87 9a bf
       -0.07931579 -1.2671448 0.5959961 -1.2072728
0001d0 1a 17 07 3d d2 09 87 3f de 68 15 3f f0 c0 1e c0
       0.032981016 1.0549872 0.5836314 -2.480526
0001e0 48 dd 59 3f 1c 41 ae bf f9 7f b5 be f2 f9 4b be
       0.85103273 -1.361362 -0.35449198 -0.19919565
0001f0 a3 64 b0 bf 55 d4 9f 3f bb 8c 53 bf c3 f4 cc 3e
       -1.3780712 1.2486674 -0.8263661 0.40030488
000200 27 e4 80 3f 9d 92 27 bf e8 5f f2 be b7 b3 49 3f
       1.0069627 -0.6545809 -0.47338796 0.7878985
000210 e3 c8 60 3f 93 68 9d 3f de 81 80 3f 69 b8 8c bc
       0.8780653 1.2297539 1.0039632 -0.017177777
000220 eb 17 af be d9 a7 ac bf 0e c0 9b 3e b7 0b ae bf
       -0.34197935 -1.3488723 0.30419964 -1.3597325
000230 0f c7 ff 3c 49 7d 06 40 6f 45 2d bf d4 f9 42 3e
       0.031222848 2.1013968 -0.6768407 0.19040614
000240 f4 18 12 3f 00 f8 02 40 d8 20 2a 3e ea 72 8c bf
       0.57069325 2.0463867 0.16614091 -1.0972569
000250 a0 74 ba bf f0 1f b9 bf a8 2b be bf 46 84 0f bf
       -1.4566841 -1.4462872 -1.4857073 -0.5606121
000260 5f b2 55 3e b8 aa 81 3e f9 dc c9 bf 99 a8 db be
       0.20868824 0.2532556 -1.577056 -0.42902067
000270 9d d2 99 bf 33 81 e0 3d 05 f6 47 bf 01 12 13 c0
       -1.2017399 0.10962143 -0.7810977 -2.2979739
000280 7d 30 d8 be ab 22 c7 be 30 83 e6 3f 06 07 4b bf
       -0.42224494 -0.38893637 1.8008785 -0.7930759
000290 7e 5b b7 3f c9 cf 0a bf 1f 89 ae bf 19 ef 5d 3f
       1.4324796 -0.54223305 -1.3635596 0.8669296
0002a0 5a 6b e5 bf 19 36 fb bd 62 58 b8 bd 0e 9b cb 3e
       -1.7923386 -0.12266178 -0.09001233 0.39766735
0002b0 0d c9 a2 3e 54 fb 74 bf 95 f5 46 bf d1 d3 22 3f
       0.31794015 -0.95695996 -0.7771848 0.63604456
0002c0 c3 f8 f6 bf b7 75 35 bf 78 96 c4 be d6 d0 81 bf
       -1.9294666 -0.70882744 -0.3839605 -1.0141857
0002d0 a5 ab 04 3f a8 c8 e3 be 70 fa aa be 1d eb 98 3f
       0.5182441 -0.44489026 -0.33394194 1.1946751
0002e0 fc fc 9d 3e 7c 20 1a 3f 03 de 80 be 8c 85 9a 3f
       0.30857074 0.6020582 -0.25169381 1.2072005
0002f0 21 ba b3 3f 23 08 01 bf 51 fe f3 bf 9b db b7 3f
       1.4041177 -0.5040304 -1.9061986 1.4363893
000300 77 06 b5 bf 0a ad 47 3f d0 3a 1f bf 87 a3 d1 3f
       -1.4142598 0.7799841 -0.62199116 1.637803
000310 10 94 26 40 a5 c8 d9 be b9 5e 0d 3f c7 2e 6b bf
       2.602787 -0.42535892 0.5522266 -0.9186825
000320 db d7 13 c0 33 a8 a2 3e 0b 97 3e 3f 97 92 9a 3f
       -2.3100498 0.3176895 0.74449223 1.2075986
000330 13 68 ab bd 45 88 b5 3f ef ea da 3e 12 06 14 bf
       -0.0836946 1.4182211 0.42757365 -0.5782176
000340 1f ea 04 be 0d a5 ac bf 59 6c da 3e 41 15 5b be
       -0.12979935 -1.348787 0.42660788 -0.21394826
000350 10 05 c7 be d2 d1 98 be b7 84 93 bf f7 16 2d 3f
       -0.3887105 -0.2984758 -1.1524876 0.67613167
000360 1d df 85 bf 26 0d 89 3f d5 b0 f3 bf b0 71 9e bf
       -1.0458714 1.0707138 -1.903834 -1.2378445
000370 b0 29 d8 3e 11 f7 8b 3e 81 4f c9 3f 39 8d f1 be
       0.42219305 0.27336934 1.5727388 -0.47178057
000380 8b c5 66 3f 15 33 5f bf d4 49 8a 3f 6c cf ef 3e
       0.90145177 -0.8718732 1.080378 0.46837938
000390 44 37 9d 3f dd e0 05 c0 20 d4 e3 bd c7 16 12 bf
       1.2282491 -2.0918496 -0.11124444 -0.57066005
0003a0 d9 90 8a bf e2 d7 30 bf b0 fc f7 bd f9 cd 6f bf
       -1.0825454 -0.6907941 -0.12108743 -0.93673664
0003b0 cc 4c 1f bf df b2 bb bd ce a0 82 3f b8 ed 50 bf
       -0.6222656 -0.09164976 1.0205324 -0.8161273
0003c0 d5 7f d3 3f e8 a9 da 3f 92 ad 13 bf 99 a4 41 3e
       1.6523386 1.7083101 -0.5768672 0.18910445
0003d0 b2 77 c3 bf 7e f4 8f 3e f4 24 f2 3f 81 36 86 be
       -1.5270903 0.2811622 1.8917527 -0.26213458
0003e0 78 0d a7 3f ca c0 48 be d5 44 94 3f f4 43 65 3e
       1.3050985 -0.19604793 1.1583506 0.22389203
0003f0 19 e2 62 bf e2 a7 95 3e e3 56 83 3e 2f 51 37 be
       -0.8862625 0.29229647 0.25652227 -0.17902063

feat.conv3d_2.bias f4 [4, 16]
000000 e0 39 8e bc 6e 8d 31 3c 69 d6 6b bc 37 e4 01 bc
       -0.017361581 0.010836942 -0.014394381 -0.007927946
000010 f8 97 84 bc 6c 80 69 3b 9a a5 22 bc 76 14 74 3b
       -0.016185746 0.0035629524 -0.009927178 0.003724364
000020 4c f9 a4 bc 42 2c bb bc f5 da 95 bc 38 57 a1 bc
       -0.020138405 -0.022848252 -0.018292883 -0.01969491
000030 d1 a5 a8 3c da 9f c8 ba eb 0d 27 3c 5f 0d 7a b9
       0.02058688 -0.0015306429 0.010196189 -0.00023846839
000040 8c d7 89 bc f7 90 7d b9 d4 a0 72 bc 70 e3 be bb
       -0.016826414 -0.00024181964 -0.014808852 -0.0058254525
000050 9a 53 92 bc 19 41 76 b9 0d 5f 49 bc ea f1 42 bb
       -0.01786213 -0.00023484639 -0.012290728 -0.0029746243
000060 df 78 a3 bc ef ca be bc da f6 94 bc 33 b6 8c bc
       -0.019955097 -0.023290126 -0.018184114 -0.017176723
000070 19 da a2 3c 07 10 a0 ba fc 98 31 3c 6b 3a 03 3a
       0.019879388 -0.0012211808 0.010839697 0.00050059584
000080 1c 14 aa 3c 88 5a a4 bb 30 c4 1f bc d2 9e cc 3c
       0.020761542 -0.005015675 -0.009751365 0.024978075
000090 63 b8 ae 3b e6 d2 35 bc 63 89 b3 3b c1 53 61 bb
       0.005332039 -0.011097645 0.0054790243 -0.0034382197
0000a0 93 52 cd 3c 86 bc 79 3c 39 9f 55 3c e7 02 dd 3c
       0.025063789 0.015242701 0.01303845 0.026978923
0000b0 13 78 90 3c da 6a 56 3c c2 fd 24 3b 18 ab 2d 3c
       0.01763538 0.013086999 0.0025175666 0.010599874
0000c0 07 5b a9 bc 97 30 ce 3a 7e c6 a9 3c ab f0 d7 bc
       -0.020673288 0.0015731034 0.020724531 -0.026359877
0000d0 95 b6 02 3c a7 ae 55 3c 18 22 b9 3a a4 ef 93 3b
       0.007978101 0.013042129 0.0014124541 0.0045146514
0000e0 6d ce d8 bc 19 a9 8e 3a 2f 3d 01 ba 37 8a de bc
       -0.026465619 0.0010884135 -0.00049300765 -0.027165515
0000f0 f3 14 d1 bc 02 89 ac bc 38 38 61 bc aa 54 81 bc
       -0.025522685 -0.021061424 -0.013746314 -0.015787441

feat.conv3d_2.attention.fc1.weight f4 [3, 8, 1, 1, 1]
000000 cf 19 69 3e 75 a4 ee 3c c9 56 6f be 54 39 43 3d
       0.22763751 0.029131154 -0.2337295 0.047662094
000010 55 72 c1 3c 23 66 13 be 5a 35 b3 3e 61 bb 85 3d
       0.023614088 -0.14394431 0.35001642 0.0652988
000020 8b bd 63 bb 28 40 6d be 99 c1 57 be 69 87 5a bc
       -0.0034750428 -0.23169005 -0.21069945 -0.013337948
000030 1b d7 8c 3e a2 c5 7c 3e 8d ee 75 3e f3 11 5e be
       0.27507862 0.24684766 0.24016781 -0.21686535
000040 00 81 7b 3d 7e 73 90 be c1 6d 11 3e 78 a8 2b be
       0.06140232 -0.28213114 0.14202024 -0.16763484
000050 8f 60 0c 3e 1d 44 4e 3e 33 0c 0e be 34 f2 2b be
       0.13708709 0.2014317 -0.13871841 -0.16791612

feat.conv3d_2.attention.fc2.weight f4 [4, 3, 1, 1, 1]
000000 f2 c7 f0 3e c8 cb 15 bf 81 28 d5 be e3 da e3 3e
       0.47027546 -0.5851407 -0.41632465 0.44502935
000010 65 3c 13 bf 8c 49 a6 3e 9b 17 85 3c 3d 08 f0 be
       -0.5751403 0.32477987 0.016246608 -0.46881285
000020 0f 40 84 be 27 d2 08 3f 81 b0 3b 3e aa 59 ca 3e
       -0.25830123 0.5344567 0.1832905 0.39521533

feat.bn3.weight f4 [16]
000000 ae d8 82 3f 98 da 82 3f 96 1c 83 3f 93 46 83 3f
       1.0222375 1.022296 1.0243099 1.0255913
000010 d1 38 83 3f 6b 12 83 3f 6a d9 82 3f ee db 82 3f
       1.0251714 1.0239996 1.02226 1.0223367
000020 7d 20 83 3f c0 ad 82 3f d3 cf 82 3f 90 fb 82 3f
       1.024429 1.0209274 1.0219673 1.0233021
000030 eb ec 82 3f da 25 83 3f 40 73 83 3f 81 1c 83 3f
       1.0228552 1.0245926 1.0269547 1.0243074

feat.bn3.bias f4 [16]
000000 65 19 be 3c b6 b3 98 3c 6d 89 b6 3c 44 41 d7 3c
       0.023205468 0.01864038 0.022282327 0.026276238
000010 56 d1 bd 3c ec 75 af 3c 75 b5 9c 3c 2b 6d 97 3c
       0.023171108 0.021418534 0.019129494 0.018484673
000020 bb c5 cb 3c f5 49 af 3c 1e 6c a4 3c 5c d6 b8 3c
       0.024874559 0.02139757 0.020071086 0.022563152
000030 a6 08 ac 3c 9e cf c2 3c 19 97 db 3c 0a 6a cc 3c
       0.021000218 0.02378064 0.026805447 0.024952907

feat.bn3.running_mean f4 [16]
000000 c5 4d bd 40 9d b0 4b c1 6f d6 a9 c0 57 0a a4 3f
       5.9157434 -12.7306185 -5.307426 1.2815655
000010 0e 85 38 40 81 c1 cd c0 66 54 5b c1 f5 5f 2e c1
       2.883121 -6.429871 -13.708105 -10.898427
000020 41 3d 65 3e 7f 0c bf 40 57 59 2b 41 2f 32 0a 40
       0.22386648 5.9702754 10.7093115 2.159313
000030 c2 b3 c8 c0 44 60 cc 3f 04 1a 89 40 c8 6a e6 40
       -6.271943 1.5966878 4.2844257 7.200535

feat.bn3.running_var f4 [16]
000000 27 c4 0a 43 e7 75 03 43 8e 0d 5e 42 36 43 c0 42
       138.76622 131.46056 55.513237 96.13127
000010 4e e4 97 42 a3 c2 eb 42 8e 63 27 43 e1 41 4f 43
       75.94591 117.88015 167.38889 207.25734
000020 8b 0d 3e 42 f7 88 90 42 2b 30 1b 43 a6 86 a3 42
       47.513226 72.26751 155.18816 81.762985
000030 de 98 ce 42 00 ab 93 42 bb 08 3b 42 4c f1 76 42
       103.29857 73.833984 46.758526 61.73564

mlp.fc2.weight f4 [10, 2000]
000000 27 0f 05 bc 51 70 65 bb b2 e3 8b bc d6 2e 16 3c
       -0.008121288 -0.0035009573 -0.017076347 0.00916644
000010 75 53 0c bd 0c da a3 3c c0 83 80 3c 73 9c 8d 3b
       -0.03425928 0.020001434 0.015687823 0.0043216287
000020 18 0b 43 bc 94 96 93 bc cc ef 77 bc c8 52 23 3c
       -0.0119045 -0.018016137 -0.015132856 0.009968467
000030 01 77 b0 3c 23 3d d0 bb 92 d4 f4 ba d9 63 44 3c
       0.02154112 -0.0063549443 -0.0018679074 0.011986696
000040 66 46 9c 3c 68 9d 52 3c d8 79 98 bc 37 d5 28 bb
       0.019076537 0.012854911 -0.018612787 -0.0025761852
000050 7b 0b e1 3b 37 79 7f bc b5 ae 08 bc f6 e8 24 3b
       0.0068678237 -0.015592865 -0.008342435 0.002516327
000060 9f 69 eb bb a3 57 bd bb a4 98 3e 3c 60 39 96 3c
       -0.007184222 -0.0057782694 0.011633072 0.018337905
000070 ac 25 c5 bc a8 5e c9 ba 6a 52 52 3c 23 f5 04 3b
       -0.024065815 -0.0015363293 0.012837032 0.0020287714
000080 af fe 85 bc ab e8 94 bc 11 b3 45 bb bb 1d 35 bc
       -0.016356794 -0.018177351 -0.0030166546 -0.011054452
000090 c2 ba 0e bc 34 4e 05 bc 5d 19 58 3c 83 5c 39 3c
       -0.008711519 -0.008136321 0.013189641 0.01131356
0000a0 c6 2d 62 3c f1 f4 a4 bc 86 43 3f 3c d9 9e f3 39
       0.013804859 -0.020136328 0.011673814 0.00046466923
0000b0 61 62 0a bc 6d 8d b4 bc 3e f6 5e 3b dd af 23 3a
       -0.008446307 -0.022040093 0.0034021283 0.0006244162
0000c0 6e 53 10 3c a9 a4 82 b9 d4 b5 9f 3b 52 3b 44 bc
       0.008808954 -0.00024918214 0.0048739705 -0.011977034
0000d0 d5 33 a7 bb ed 8a ae ba 49 5f 43 bb b6 0e 50 bc
       -0.0051026144 -0.001331655 -0.0029811433 -0.01269882
0000e0 d0 5f fa bb af 94 1d bb f5 38 99 bc 52 ff ec bb
       -0.0076408163 -0.002404492 -0.018703917 -0.007232585
0000f0 0b f2 b1 3b 60 eb 92 3c ea 8e 06 bc 9c 55 26 3c
       0.005430465 0.017934501 -0.008212784 0.010152247
000100 d3 4c 34 3c 61 12 ae 3c df b7 b7 3c 76 96 db 3b
       0.011004644 0.021248998 0.022426544 0.006701286
000110 95 4d 32 3c 79 39 3e 3b f1 04 59 3c dd 3f aa bb
       0.010882755 0.0029025956 0.013245807 -0.0051956014
000120 55 27 79 bc 1a 96 92 bc f7 34 f2 bb 9a e3 72 bb
       -0.015207131 -0.01789384 -0.007391568 -0.003706193
000130 7e 53 35 bc ee a5 44 3c 8b 62 05 bc 50 85 e2 bc
       -0.011067269 0.012002451 -0.00814117 -0.027651459
000140 26 63 96 bc d1 53 f2 3a 90 91 87 3c f4 5f 2b bc
       -0.018357825 0.0018488114 0.016548902 -0.010459889
000150 2d 7c b2 3b e4 3a 01 3c e4 96 db bb 76 5e 73 3c
       0.005446932 0.007887576 -0.006701337 0.014854064
000160 c0 d2 83 bc f2 0e af 3b 57 26 38 3c 6c 5e 19 3c
       -0.016091704 0.005342358 0.01123961 0.009360891
000170 e2 12 f6 3b db 87 b2 bb 77 bf dd bb 68 be 3f bc
       0.007509575 -0.005448324 -0.006767209 -0.011703111
000180 6f 1b 90 3c 88 ff ae bc f0 4d 16 bc bd 67 37 bb
       0.017591206 -0.021362081 -0.009173855 -0.0027985417
000190 45 8e aa bc fc 14 82 bc 60 dd 6b bc b6 a1 c7 3b
       -0.020819793 -0.015879147 -0.014396042 0.0060922755
0001a0 b7 36 ef bc 49 ee 9b bc 04 54 0f 3c e8 e4 46 3b
       -0.029200895 -0.019034522 0.008748058 0.003034884
0001b0 25 34 8c bc 84 3a c3 ba d1 ed 90 bc 0d 6d 92 3b
       -0.017114708 -0.0014894758 -0.017691525 0.0044685663
0001c0 0a da 5b 3b ec b2 c6 39 99 13 ef 3a 31 2d 64 3c
       0.003354671 0.0003789881 0.0018240093 0.01392679
0001d0 20 35 23 bc 84 95 9c 3b c2 10 91 bb 5d 32 aa bc
       -0.009961396 0.004778566 -0.0044270465 -0.020775968
0001e0 cc 51 8d bc 15 8b 4c bc 86 f3 f7 bb 33 f7 0b 3b
       -0.017250918 -0.012484332 -0.007566872 0.002135706
0001f0 c5 23 ca bc 36 b9 7c 3c 5a 2b d8 bb 55 54 76 ba
       -0.02467526 0.015425017 -0.006596965 -0.0009396722
000200 f7 fc ca bc d1 89 53 3c 06 5b 8c 3c 63 03 c5 bb
       -0.024778826 0.012911276 0.017133247 -0.0060123666
000210 fa d3 95 bc 27 2b ae bb ff 46 a3 bc f0 48 96 bc
       -0.018289555 -0.0053152028 -0.019931315 -0.018345326
000220 14 36 ba bc 6a 0f d5 bc d6 d1 32 bc 6f fa a3 bc
       -0.022730865 -0.026008327 -0.010914287 -0.020016877
000230 ad a4 6f 3c 86 87 b4 bc a1 f9 3a bc f0 3d 2e 3c
       0.014626664 -0.022037279 -0.011412055 0.010634884
000240 d1 9f a3 bc 27 ca 90 bc 39 d4 8d 3c 8a e7 41 3c
       -0.019973667 -0.017674519 0.01731311 0.011834988
000250 e9 ba aa bc cf 20 37 3c e1 ba 8d bc cd 24 d9 bc
       -0.020841079 0.011177256 -0.017301025 -0.026506806
000260 20 07 6c bc 4f d9 95 bb 60 15 b3 bc a3 10 83 bc
       -0.014405996 -0.0045730243 -0.021860778 -0.015999144
000270 b0 c2 3e bc d8 ab db ba 3d 85 e8 b9 0a 09 9f bb
       -0.011643097 -0.0016759587 -0.00044349759 -0.0048533725
000280 b4 af 54 bc ec d6 ee 3b 5e 40 b0 bc 42 f1 57 bc
       -0.012981344 0.0072888043 -0.021515068 -0.013180079
000290 d8 fe 98 bc 9b 78 d0 3b 6a 83 d5 3b 89 43 92 3c
       -0.018676206 0.0063620335 0.00651591 0.017854469
0002a0 78 a6 0a 3c 8d 8b b9 3b 58 b8 91 3c a6 1b 22 3b
       0.008462541 0.0056623877 0.017788097 0.0024735718
0002b0 83 2a 7f bc 33 9d 8a bb 17 25 2a 3c 4d 9f 65 3c
       -0.0155741 -0.0042301654 0.0103848195 0.014015031
0002c0 b5 04 d8 bb 3b 73 a2 bb 1a 16 40 3c 87 ee 8b bc
       -0.006592358 -0.004957584 0.011724019 -0.017081512
0002d0 01 73 94 bc 55 b6 1b bb 10 fd bd 3b e0 56 1b 3c
       -0.018121244 -0.0023759801 0.0057979897 0.009481162
0002e0 eb 2e 6a 3b 2c a3 b2 bc 8b 5e 37 3c 1d 3e ff 3c
       0.0035733532 -0.021806322 0.011191974 0.031157548
0002f0 d1 d6 00 bc a4 4c 70 3b 09 c7 69 3c 5c 77 15 bc
       -0.007863716 0.0036666775 0.014268645 -0.009122696
000300 16 78 1c 3c 21 46 a9 3a 8f aa e4 bb 8a 60 d0 3b
       0.009550115 0.0012914577 -0.00697834 0.0063591646
000310 98 a0 c5 3c ba 58 81 3c e1 c9 67 bc e3 a2 6b bc
       0.024124429 0.015789378 -0.014147253 -0.014382097
000320 4d 68 8e bb 4b c3 90 bc 6d ce ba bb 38 4c 78 bc
       -0.0043459297 -0.017671248 -0.0057008774 -0.015154891
000330 15 da c9 bb 53 32 ba bc 16 d4 01 3c 99 3f df 3c
       -0.0061600306 -0.022729075 0.0079241 0.027252005
000340 79 5d b0 bb 93 9d 52 bc 22 8a 32 3c 15 5f 7c bc
       -0.0053822366 -0.012854951 0.010897191 -0.015403529
000350 50 72 24 3c df 88 ab 3c 76 9e 67 3c 12 d6 ae bc
       0.01003702 0.020939289 0.014136901 -0.021342311
000360 9f 02 b7 3c 9e 0e 09 bc 60 b3 6c 3c fc 4e ca 3c
       0.022340117 -0.008365301 0.014447063 0.024695866
000370 c8 91 5f bc 18 db 91 3c 8f ad 64 bc 90 96 8a 3c
       -0.013645597 0.017804667 -0.013957395 0.016917497
000380 3d 0b 69 3c 64 b0 01 3c 76 fa 86 bc 88 6a 1d bc
       0.014223871 0.00791559 -0.016476851 -0.009607919
000390 0a c4 e7 ba 34 b0 0e 3c 9c 6f 67 3a c9 15 db bc
       -0.0017682326 0.008709002 0.0008828582 -0.026743786
0003a0 ae 09 c0 bc 60 8b f1 3a 2d 7f aa bb 98 4d 04 3b
       -0.023442116 0.0018428378 -0.005203149 0.002018785
0003b0 e4 bf 1f bb ce ae 9b 3c aa bc 91 bc 75 a2 ae bc
       -0.002437585 0.019004252 -0.017790157 -0.0213177
0003c0 c7 1a 68 3c db d5 0e 3c 5b b0 ab 3a a2 85 c8 39
       0.0141665405 0.008717979 0.0013098823 0.00038246537
0003d0 67 69 27 bc 3f 03 49 bb 46 81 be 3a 7c fe 35 bb
       -0.010218001 -0.00306721 0.0014534376 -0.0027770093
0003e0 70 fd 77 3c 63 e6 81 bb 18 f0 9a 3b d5 13 39 3c
       0.015136108 -0.003964232 0.0047283284 0.011296232
0003f0 a9 bc 89 ba ba 5c 30 3c b5 69 17 3c b5 2e 17 3b
       -0.0010508496 0.010764295 0.009241511 0.002306861

mlp.fc2.bias f4 [10]
000000 4a 2c 59 bc 9a f9 c2 3c b0 2a d3 bc 24 f7 18 3c
       -0.013255188 0.02380066 -0.02577719 0.009336267
000010 98 ea 90 3c c8 dc ed bb 4d 6b af bb 28 b0 a5 bc
       0.017689988 -0.007258985 -0.0053533674 -0.0202256
000020 56 0b 58 bc d0 d7 c7 3c
       -0.013186296 0.0243949
