cls/cls_model_8600.pth (torch, 158979 bytes, 17 tensors)

feat.conv3d_1.weight f4 [4, 8, 1, 5, 5, 5]
00000000: 1168 803f 5b1a adbf e2b8 96bc f1c0 5dbe
00000010: 5783 c6bf 8dfc 273e dd9e a2bf 40b0 09be
00000020: 523a ce3f d5c3 e5be 5bfe c23d 0d44 cebf
00000030: 164a cebf 1e34 2ac0 236e 693f 11f1 713f
00000040: 4e10 983f cd68 5ebf 878c 9b3e 77d9 5d3e
00000050: 5c68 1540 3f5e 803e 72b3 37bf 2b30 aebd
00000060: 1367 d23e a71f 0abf a9aa ecbf 7397 343e
00000070: eaf2 103f c475 d03e 981c e63f b916 113f
00000080: 5af3 003f f22f 89bf 9047 21be 6fcd 8d3f
00000090: b99d ebbe c942 57bf 9fe3 5bbf dc3d 17bd
000000a0: dabe 99be 58fd 043f 2f62 ae3e 3960 6e3f
000000b0: c066 c8be 83c8 3ebe 53b7 023f 1ea0 eabf
000000c0: cb40 303e 384f f2bf 2562 9abe ce6b a43f
000000d0: c48a 3dbe 30b0 493f c5b5 bd3f dda3 9dbf
000000e0: 906f bf3e 571c 893f adf1 c93f ee08 fb3d
000000f0: 122e 1ec0 1492 1540 aba7 1e3d e82a 30be
00000100: e3e2 29c0 63df abbf 6140 ecbe 51ba 153f
00000110: 27a1 73bf 6610 483d 521c 9cbf 0570 98bf
00000120: 9231 b23d 6789 9d3f 94bf ca3f 4da4 a3be
00000130: 2b48 f33e 3a73 7c3e 9fee dfbf 5ffb f73e
00000140: f3b5 ec3f ac2a 713f 91f5 45bf 0db4 093f
00000150: d684 393b da54 d53d 1cf2 c83d b953 073f
00000160: e1cd 8dbf 44cc 933e 2f18 dcbf d85c 62be
00000170: 2ca6 0d40 24b3 443e 4727 0f3f b693 67bf
00000180: 06c3 a6bf 1045 84bf 43f9 d23e 0844 13bf
00000190: 4aec d53e 8d10 7b3f 4527 0a3f fd18 0ebf
000001a0: efe9 fb3e da37 5d3f 315e a9bd 302f db3e
000001b0: f7c0 933e 528e 39bd af38 3e3e aacf 803f
000001c0: 7a33 833e daf6 32bf 315e 963f 275a 6f3f
000001d0: 2f81 0d3e b702 14bc a534 28bf 63c7 1b3e
000001e0: ab10 7abf 32a2 e13c 8a39 abbf be79 d03d
000001f0: bb17 0abe 8c20 c8be de42 4a3f f468 e33f
00000200: 682a 933e 52fe f1bf e342 7d3f e653 9e3f
00000210: 5847 e6be b16c 56bf b382 f0be 6f2e 9f3d
00000220: b5b5 ef3d 895a 3b3f 8999 383e 40f8 793d
00000230: 1561 483f b311 1ebf 2b2c a9bf 6780 263f
00000240: 4363 893e 3d93 c5bf 34a7 e33f 419c 1a3f
00000250: 9b2a c4be 1c25 6c3f 4a57 623f a407 943e
00000260: 57b7 8a3f bd46 9cbf 91e5 b53e 32b1 b0bf
00000270: c555 8cbd b1ab d2be 7e55 48bf 7cfa c13c
00000280: 28aa 99be ff16 783f 7be7 dbbe 8089 303e
00000290: 598d 4f3f fab5 b93f 48e2 923e 26e7 68bf
000002a0: 43bf 183e 02cf b0be 0ac2 b1bf cecf e63f
000002b0: ec83 3d3d a30d 6b3e e846 793f dc49 c2bf
000002c0: c926 9e3e e2a4 debe f00b 88bd d3d3 3cbf
000002d0: 2ec2 ccbe 0a9f 51bf 3341 57be 796c 1dbf
000002e0: dbca dfbd 6439 56be 43a3 c3be ad70 a3bf
000002f0: 84f6 7b3d a720 d53e ea9b 643f cd2b 2bbf
00000300: 37ad 203f a3c4 b23f 0968 173f 76d7 09bf
00000310: e92d 30bf b350 7bbf c451 81bf 84d9 c9be
00000320: f231 8ebf 5426 953f c16c d43e 8a67 25bf
00000330: 2cad d7bf 5a3c 773e 16d7 a53f e042 c13e
00000340: 0a46 c1bf bd76 b53e 26a6 25bc 65d2 ccbe
00000350: 66ab d5be ae52 9d3f c723 f5be 07d2 8a3e
00000360: 3a16 5b3f a309 473e f6d7 25bd 1a1f e2bd
00000370: 1c2d c3bf e5eb b93f 80bf 113f 67d6 01bf
00000380: 97d4 aabf 092f aabf be24 453e cde9 13c0
00000390: a1e0 2d3f fc31 0abe 8537 94bf 4b20 d33e
000003a0: 9eab e83f 11db 7b3f 8570 1fbe d7c8 1c3f
000003b0: 7a4a a73f 5915 533e 2ca3 ba3f 5f6a 4dbe
000003c0: 54d1 f6bd 2e5d 1bbf f4e7 5b3f 4e26 043e
000003d0: c954 683f 4d9e dabe 009e 113f 787b 043f
000003e0: 30f8 b33f 3a24 8dbe 1a79 c43e e895 533e
000003f0: 5579 c3bf 853b 06bd df01 3dbf 3418 52bf
1.0031759 -1.3523668 -0.018398706 -0.21655633 -1.5508832 0.16404934 -1.2704731 -0.1344614
1.6111548 -0.4487597 0.09521171 -1.6114517 -1.6116359 -2.659431 0.9118368 0.94508463
1.1879976 -0.86878663 0.3038065 0.21664988 2.3344946 0.25071904 -0.71758187 -0.08505281
0.41094264 -0.5395455 -1.8489581 0.17635898 0.5662066 0.40714848 1.7977476 0.566753
0.50371325 -1.0717757 -0.15749955 1.1078318 -0.4601877 -0.8408628 -0.858942 -0.036924228
-0.3002842 0.5194907 0.34059283 0.93115574 -0.39140892 -0.18631177 0.5106098 -1.8330114
0.17212217 -1.8930426 -0.30153003 1.2845399 -0.18509966 0.78784466 1.4821097 -1.2315632
0.37389803 1.0711774 1.5776879 0.122575626 -2.471562 2.337041 0.03873412 -0.17203867
-2.654473 -1.3427547 -0.46142867 0.5848742 -0.95167774 0.048843764 -1.2196143 -1.1909186
0.08700861 1.2307557 1.5839715 -0.3196129 0.47515997 0.2465333 -1.7494696 0.48433968
1.8493026 0.9420574 -0.7732783 0.5379036 0.0028307936 0.10416575 0.09811804 0.52862126
-1.1078454 0.2886678 -1.719488 -0.2210573 2.2132673 0.19208962 0.5591931 -0.90459764
-1.3028266 -1.0333576 0.41205797 -0.5752568 0.41781837 0.9807213 0.5396617 -0.5550688
0.49201915 0.8641335 -0.08269919 0.4280944 0.28858158 -0.045301743 0.1857631 1.0063374
0.2562521 -0.69907916 1.1747495 0.93496937 0.13818811 -0.00903385 -0.6570533 0.15212779
-0.97681683 0.027543161 -1.3376935 0.101794705 -0.13485615 -0.3908733 0.7900828 1.7766404
0.2874329 -1.8905737 0.98930186 1.2369354 -0.44976306 -0.837596 -0.46974716 0.077725284
0.1170458 0.7318502 0.18027319 0.061027765 0.78273135 -0.61745757 -1.3216604 0.65039676
0.26833543 -1.5435559 1.7785401 0.60394675 -0.38313755 0.92244124 0.8841444 0.2891208
1.0837201 -1.2209088 0.35526708 -1.3804076 -0.06852297 -0.41146615 -0.7825545 0.02367901
-0.3001263 0.9691009 -0.42950043 0.17239952 0.81075054 1.450866 0.28688264 -0.90977705
0.1491671 -0.34532934 -1.3887341 1.8032167 0.04626839 0.22954421 0.9737382 -1.517879
0.30888966 -0.4348517 -0.06642902 -0.7376072 -0.39991897 -0.818833 -0.21020965 -0.6149364
-0.109273635 -0.2092033 -0.38210496 -1.2768761 0.061514392 0.41626474 0.89300406 -0.6686371
0.62764305 1.3966259 0.5914312 -0.5384439 -0.68820053 -0.9817001 -1.0103078 -0.39423764
-1.1108992 1.1652322 0.41489223 -0.64611113 -1.6849723 0.24144116 1.2956264 0.37746334
-1.5099499 0.35442153 -0.010110414 -0.40004268 -0.4173233 1.2290857 -0.47878858 0.27113363
0.8558079 0.1943727 -0.04048916 -0.110410884 -1.5248141 1.4525114 0.5693283 -0.50717777
-1.3346127 -1.3295604 0.19252297 -2.311145 0.6792088 -0.1349563 -1.1579443 0.41235575
1.8177373 0.98381144 -0.15570267 0.6124396 1.3069603 0.20613612 1.4581046 -0.20060109
-0.12051645 -0.60689056 0.8590081 0.12905237 0.9075437 -0.426989 0.56881714 0.517509
1.4060116 -0.275667 0.38373643 0.20662653 -1.5271403 -0.032771606 -0.7383098 -0.8206818

feat.conv3d_1.bias f4 [4, 8]
00000000: ce89 1bba cd1b 303a ac4b 57b9 78a9 56b8
00000010: 5ab8 be39 d290 0b38 5b3a 2139 b62a 93ba
00000020: ce89 1bba cd1b 303a ac4b 57b9 78a9 56b8
00000030: 5ab8 be39 d290 0b38 5b3a 2139 b62a 93ba
00000040: ce89 1bba cd1b 303a ac4b 57b9 78a9 56b8
00000050: 5ab8 be39 d290 0b38 5b3a 2139 b62a 93ba
00000060: ce89 1bba cd1b 303a ac4b 57b9 78a9 56b8
00000070: 5ab8 be39 d290 0b38 5b3a 2139 b62a 93ba
-0.0005933315 0.000671801 -0.00020532188 -5.1179406e-05 0.00036376977 3.3275057e-05 0.00015375896 -0.0011227939
-0.0005933315 0.000671801 -0.00020532188 -5.1179406e-05 0.00036376977 3.3275057e-05 0.00015375896 -0.0011227939
-0.0005933315 0.000671801 -0.00020532188 -5.1179406e-05 0.00036376977 3.3275057e-05 0.00015375896 -0.0011227939
-0.0005933315 0.000671801 -0.00020532188 -5.1179406e-05 0.00036376977 3.3275057e-05 0.00015375896 -0.0011227939

feat.conv3d_1.attention.fc2.weight f4 [4, 1, 1, 1, 1]
00000000: 3a2e 5abf 6832 8bbe 4015 cabc b815 223f
-0.85226786 -0.27186894 -0.024668336 0.6331439

feat.bn2.weight f4 [8]
00000000: 26f3 823f da2e 813f 7f99 783f 91f6 783f
00000010: 195f 783f e4bb 813f 6ec9 833f 5c73 843f
1.0230453 1.0092423 0.97109216 0.9725123 0.9702011 1.0135465 1.0295846 1.0347705

feat.bn2.bias f4 [8]
00000000: 35d3 1d3d f519 1a3d 0751 353d 4396 bfbc
00000010: 56bc 233c bbda acbc 678c 0b3d 0f34 bc3c
0.0385315 0.03762241 0.044266727 -0.02338708 0.009993633 -0.021100393 0.034069445 0.022974042

feat.bn2.running_mean f4 [8]
00000000: 57f5 bb3e a038 c73e e84e 9c3e e27c 1a3f
00000010: 233d 893f 008e aabe 16d2 273d 3d3e 12be
0.36710617 0.3891039 0.3052895 0.60346806 1.0721782 -0.33311462 0.040971838 -0.14281555

feat.bn2.running_var f4 [8]
00000000: 48f8 e73f 9e16 cb3f ea46 d23f 93bc 8c40
00000010: 6a2b b640 a414 b83f 5fdc e53f 288d 343f
1.8122644 1.5866277 1.6427891 4.3980193 5.6927996 1.4381299 1.7957877 0.7052789

feat.conv3d_2.weight f4 [4, 16, 8, 3, 3, 3]
00000000: 43f9 4fbe 67f3 0c40 86e6 64bf 1f83 6ebd
00000010: b412 49be 7199 523f 99ed 0d3f 5609 743f
00000020: 91d3 2a3f 185f 553f 176a 043f 7a9e 303f
00000030: 45b9 7fbf 9615 04c0 d7c4 11c0 b172 023f
00000040: 6bc0 e23f d1c1 3c3e 7850 c6bf 8f34 29c0
00000050: a87d 203f 8f54 273f aa84 2a3e 68ee 1d3f
00000060: e8e8 ab3f a91a dfbf 0b30 b6bd f23d 02bf
00000070: 0be9 c73f fa3c b2be 6a9d 053f 580e 993e
00000080: 67ab 06bf 9138 8a3f 1749 a73f c9de 4b3f
00000090: f13d ebbc ddfc df3e 8a20 9c3e 8611 febf
000000a0: 61f0 71bf 5b0c 1dbf f454 b6bd 9720 f83f
000000b0: 26c0 0ebf b0ce 93bf c591 663e e507 4e3e
000000c0: a774 993c 8b2f a3be edf3 c83d cbda d5be
000000d0: 7a68 a7bd 9c39 80be ee7b 21bf 3419 2e3e
000000e0: d8c9 c0bd 975a 6fbf b8a4 dfbe 7725 23be
000000f0: dec2 453f e6aa 003f fbaa 21bf 8e30 98bf
00000100: 74f8 dfbf 6809 843f e8cb 2abf dd7a b3be
00000110: dece 3d3e 3c4e c23f 64cc 64bf 4606 813f
00000120: 0cdb 023f a093 45bf 2e3a fdbf 8563 e9bf
00000130: 7071 0ec0 4e02 133e 4126 9e3e a5f9 40bf
00000140: 47f2 29bf 2549 9f3e 4ead 0f3f 41db edbf
00000150: 90b7 83bf db50 383e 6b3f ad3c e732 2c3f
00000160: 1848 b3be 86e6 d13e c02a 233f 8fa6 cfbe
00000170: b1eb 0b3f f0de 38bf 1e68 a2bf a381 a6bf
00000180: d28d d53e de05 593f df29 dc3f 079e 3cbe
00000190: c845 0340 fe4e 5b3f 6345 85bf 1533 0abf
000001a0: a101 573e 92a7 4ebf a32b 0540 b30e 56bf
000001b0: 0f33 a83f 5709 a63f cfbc 2240 4531 fb3e
000001c0: 9527 b6bd 8fea a3bf 04c5 173f 672c 9bbf
000001d0: bf47 c83c b53b 863f 9bce 123f a780 1fc0
000001e0: 059b 573f f7e7 afbf 4680 bbbe bdfe 52be
000001f0: 822f b1bf 3237 9f3f c369 55bf c022 c83e
00000200: ce2a 7f3f 994d 2abf 9c81 f8be 8d2f 473f
00000210: ab6d 5e3f 1e59 9c3f b38e 7f3f fffc cbbc
00000220: 79c2 afbe 4f3e acbf 7c3f 9e3e ef98 adbf
00000230: 38ee 213d 45f3 0640 c321 2bbf 72ec 4f3e
00000240: a016 103f 22b9 0240 ebeb 2b3e 235b 8dbf
00000250: b3e6 babf 0f94 b8bf 81bc bdbf 7b1a 0ebf
00000260: 2ba7 623e 160f 7b3e 020e cabf ad07 dabe
00000270: c27f 9abf d9bf dc3d bb8d 46bf b1d7 12c0
00000280: cd61 d4be acce bfbe 4961 e53f d9ae 4fbf
00000290: a9b5 b53f 6668 0cbf ec9a b0bf e172 5d3f
000002a0: 4c68 e6bf 0758 08be 2372 a5bd 50b4 c73e
000002b0: 0567 9b3e 622f 78bf 7470 48bf e8e6 1f3f
000002c0: c06e f7bf f7c6 36bf e814 c5be 968e 80bf
000002d0: b8e4 043f f0a8 e7be 51d7 adbe 99ce 983f
000002e0: f507 9b3e 2abd 193f abbc 7fbe e25f 9b3f
000002f0: 3f73 b53f 54fd 02bf 2e57 f4bf 52af b83f
00000300: a621 b6bf 010f 463f 07fe 1bbf 73a3 d13f
00000310: f3bd 2640 7316 d3be c01e 0c3f 37cb 6cbf
00000320: 28ad 13c0 bb02 9d3e faf9 3b3f c7ed 9a3f
00000330: 52e6 b4bd 0e16 b53f 8b84 e03e 4896 13bf
00000340: 34be 05be f847 acbf 7c71 d63e d57b 63be
00000350: 6c83 c5be 8c6c 9abe fcce 93bf b9d6 2e3f
00000360: fd76 86bf fe33 893f 0bc7 f4bf d45e 9dbf
00000370: b475 de3e d887 8b3e 30e1 ca3f a531 e9be
00000380: 6d0d 693f ec06 62bf f845 8a3f 1ac0 ea3e
00000390: 10cf 9d3f fece 04c0 341e efbd b972 0fbf
000003a0: ce3c 88bf bfe2 2ebf b942 08be 9717 72bf
000003b0: cc39 22bf 853a c8bd 2526 823f 6dfe 52bf
000003c0: 4f48 d33f ba05 db3f c403 13bf 7ec0 3e3e
000003d0: 1d44 c4bf f60d 8a3e b491 f23f 7076 86be
000003e0: ef11 a63f 7bf1 3fbe bb60 953f 3238 663e
000003f0: 0e40 62bf d3c5 9d3e 1b76 7e3e febf 2dbe
-0.2030993 2.202356 -0.8941425 -0.058230516 -0.19636041 0.82265383 0.5544067 0.95326746
0.66729075 0.83348227 0.5172438 0.68991816 -0.99892074 -2.0638175 -2.2776392 0.50956255
1.7714971 0.1843331 -1.5493307 -2.643833 0.62691736 0.653634 0.1665217 0.61691904
1.3430452 -1.7430011 -0.08895882 -0.5087577 1.5617994 -0.34812146 0.5219332 0.29893756
-0.5260529 1.0798513 1.306918 0.7963682 -0.02871606 0.43747607 0.30493575 -1.9849098
-0.94507414 -0.6134698 -0.08902922 1.9384946 -0.55761945 -1.1547451 0.22516544 0.20120199
0.018732382 -0.3187221 0.0981215 -0.41768488 -0.08174224 -0.25043952 -0.63079727 0.17001802
-0.09413499 -0.93497604 -0.43680358 -0.1593226 0.7725047 0.5026077 -0.6315152 -1.1889818
-1.7497697 1.031537 -0.66717386 -0.35054675 0.18535945 1.5180125 -0.89374375 1.008004
0.5111549 -0.7717838 -1.978338 -1.8233496 -2.2256737 0.14356348 0.3088856 -0.7538093
-0.6638531 0.31110492 0.56123817 -1.8582536 -1.0290394 0.17999594 0.021148404 0.6726517
-0.3501594 0.40996188 0.63737106 -0.40556762 0.5465651 -0.72215176 -1.2688024 -1.3008312
0.41709763 0.8477458 1.7200278 -0.18419658 2.051134 0.8566741 -1.04118 -0.53984195
0.20996715 -0.8072444 2.0807884 -0.8361618 1.3140582 1.29716 2.542774 0.49061027
-0.088942684 -1.2805957 0.59284997 -1.2122926 0.024448274 1.0486971 0.57346505 -2.4922273
0.84220916 -1.3742665 -0.36621302 -0.20604987 -1.3842623 1.2438719 -0.83364505 0.39089012
0.9967469 -0.66524655 -0.48536384 0.7780693 0.8688609 1.2214696 0.99827117 -0.024900911
-0.34328058 -1.3456515 0.3090781 -1.3562297 0.039533824 2.108598 -0.6684839 0.2030504
0.56284523 2.0425496 0.16789214 -1.1043438 -1.4601654 -1.4420184 -1.4823152 -0.55509156
0.22134082 0.24517474 -1.5785525 -0.4258398 -1.2070239 0.107787795 -0.77560014 -2.2944148
-0.41480866 -0.37462366 1.7920314 -0.8112617 1.4196063 -0.548468 -1.3797278 0.86503416
-1.8000579 -0.1331483 -0.080784105 0.39004755 0.30352035 -0.969473 -0.7829659 0.6246171
-1.9330673 -0.71397346 -0.38492513 -1.0043514 0.519115 -0.45246077 -0.33953336 1.1938049
0.30279508 0.60054266 -0.24974315 1.2138636 1.4175795 -0.511678 -1.9089105 1.4428504
-1.4229019 0.77366644 -0.6093449 1.6378006 2.6053436 -0.41228065 0.5473442 -0.9249758
-2.3074436 0.30666146 0.7342831 1.2103814 -0.088329926 1.4147356 0.43851122 -0.57651186
-0.13060838 -1.3459463 0.41883457 -0.22215207 -0.3857683 -0.3016094 -1.1547542 0.6829639
-1.0505062 1.0718992 -1.9123243 -1.2294564 0.43449175 0.27252078 1.5849972 -0.45545688
0.9103611 -0.8829181 1.0802603 0.45849687 1.2328815 -2.0751338 -0.11675683 -0.5603443
-1.0643556 -0.6831474 -0.13306703 -0.94567245 -0.6336944 -0.09776787 1.0167891 -0.8241947
1.6506442 1.7111123 -0.5742762 0.18628117 -1.5333287 0.26963776 1.8950715 -0.26262236
1.2974223 -0.18744461 1.1670145 0.22482374 -0.8837899 0.3081499 0.24849741 -0.1696777

feat.conv3d_2.bias f4 [4, 16]
00000000: 5e76 0fbd e277 983c 78c9 d9bc cbfc 91bc
00000010: c0ba f4bc 0cc3 c13a 197f 81bc 9833 cf3b
00000020: de93 04bd 8eaa 1cbd 01e2 ebbc 18dc 08bd
00000030: 1a18 ec3c 913e 42bc d62c bf39 8317 803b
00000040: 2961 07bd 7f03 ab3b b796 dabc f613 7abc
00000050: 5417 00bd cfef 89bb 9384 9ebc ac16 dcba
00000060: a9ac 06bd bcc4 1dbd 3073 eabc 3010 efbc
00000070: 54b8 f33c 5a1f 33bc 6b61 d33a 374f 923b
00000080: cc2b 263d b4a0 5fbc 1717 ebbb 9844 213d
00000090: ff87 943c 2075 32bc 1a9e 803b 827e 02bc
000000a0: 45b4 233d 3941 f43c aa58 bf3c feaf 303d
000000b0: 6796 c03c 3f5c ee3c caad 843c 82c2 143c
000000c0: d7d2 23bd 3ab1 0c3c 2c68 e23c 88bd 25bd
000000d0: e8f6 cb3a 2f56 7e3c 60a4 303c 1f8d 1d3c
000000e0: 09de 29bd 8dcc a7bb 4083 acbb de73 2fbd
000000f0: 022b 19bd 5507 1bbd ce12 ddbc d1f7 8abc
-0.035024993 0.018611852 -0.026585326 -0.017820736 -0.029874206 0.001478286 -0.015807675 0.006323289
-0.03236758 -0.03824859 -0.02879429 -0.033413023 0.028820086 -0.011855737 0.00036463764 0.003909053
-0.033051644 0.0052189226 -0.026683195 -0.015263548 -0.031272247 -0.0042094956 -0.019350326 -0.0016791425
-0.032879505 -0.0385177 -0.028619379 -0.029182523 0.02975098 -0.010932768 0.0016127055 0.0044650096
0.04056911 -0.013649154 -0.0071743834 0.039372057 0.018131254 -0.010892183 0.003925097 -0.007964732
0.03996684 0.029816257 0.023357708 0.04313659 0.023509217 0.02909672 0.01619615 0.009079577
-0.039995994 0.008587176 0.027637564 -0.040463954 0.0015561255 0.015523477 0.010781378 0.009616165
-0.041471515 -0.00512082 -0.0052646697 -0.04283511 -0.03739453 -0.03784879 -0.026986506 -0.016963871

feat.conv3d_2.attention.fc1.weight f4 [3, 8, 1, 1, 1]
00000000: 6bc8 6e3e 27ae 103d a3dd 69be 90fe 533d
00000010: acd6 ec3c c994 0cbe abbd b53e 45bc 903d
00000020: 7f9c 88bb 0c05 6ebe 66f1 57be 4c80 73bc
00000030: 4667 8c3e ea06 7d3e 1973 763e ef8b 5fbe
00000040: 96cb 6e3d f37a 90be 8620 113e e279 2ebe
00000050: f363 0b3e b352 453e 8752 10be c853 34be
0.23318641 0.035322335 -0.22838454 0.05175644 0.028910957 -0.13728632 0.35496268 0.070671596
-0.0041690464 -0.23244113 -0.2108818 -0.014862131 0.2742254 0.24709669 0.24067344 -0.21830724
0.058299623 -0.28218803 0.14172563 -0.17038682 0.13612346 0.19269828 -0.14093982 -0.17610085

feat.conv3d_2.attention.fc2.weight f4 [4, 3, 1, 1, 1]
00000000: 914a f23e 1669 16bf 52d0 cebe 61d3 e43e
00000010: 1852 15bf 95c3 a63e ef31 223c 1025 ebbe
00000020: 2095 83be e8df 083f df46 403e 9ac2 c23e
0.47322515 -0.587541 -0.4039331 0.4469252 -0.5832839 0.32571092 0.0098996 -0.45926714
-0.2569971 0.53466654 0.18777035 0.38039094

feat.bn3.weight f4 [16]
00000000: fb94 843f f556 843f 0b51 853f 8b21 853f
00000010: 5b10 853f 1dab 843f 0b69 843f 4a35 843f
00000020: cef9 843f 454f 843f 016d 843f cfc1 843f
00000030: 1e63 843f f40b 853f 084b 853f 96bf 843f
1.0357965 1.0339037 1.0415357 1.0400862 1.0395616 1.036472 1.0344557 1.0328763
1.0388734 1.0336691 1.0345765 1.0371646 1.0342748 1.0394273 1.0413523 1.0370967

feat.bn3.bias f4 [16]
00000000: d5d8 0d3d 30cb d23c e273 163d e0d0 1d3d
00000010: e0a8 123d bc37 fc3c d8bd da3c 47ce c63c
00000020: ac09 1d3d affe 043d 87aa fa3c 2945 143d
00000030: 2d7f ee3c b276 1c3d f116 2a3d abfb 183d
0.034630615 0.025731653 0.03673161 0.038529277 0.035805583 0.030788295 0.026701853 0.024268283
0.038339302 0.032469448 0.030598892 0.03619877 0.029113377 0.038199134 0.041525785 0.037349384

feat.bn3.running_mean f4 [16]
00000000: f8be a140 0479 4bc1 5e94 bec0 81e5 9e3f
00000010: b9eb 1f40 b8bc c4c0 3c48 59c1 450c 2cc1
00000020: 7b6b ae3e 3d0e 8f40 d3cb 1d41 2679 c33f
00000030: 9566 bac0 519c c03f 3d84 8140 eb15 f340
5.0545616 -12.717045 -5.955611 1.2413789 2.4987624 -6.148037 -13.580135 -10.7529955
0.34066376 4.470488 9.862262 1.5271347 -5.825022 1.5047704 4.0473924 7.5964255

feat.bn3.running_var f4 [16]
00000000: ac2d 0043 cb34 f942 a510 6e42 ad12 c342
00000010: 1c76 9942 b95e e242 d472 2243 0aef 4443
00000020: 7179 3a42 b180 8042 f1c4 1043 4e46 9d42
00000030: 236f bf42 5b25 9342 7fe7 3b42 a429 7a42
128.1784 124.60311 59.516254 97.536476 76.73068 113.185005 162.44855 196.93375
46.618595 64.25135 144.7693 78.637314 95.717064 73.57296 46.97607 62.540665

mlp.fc2.weight f4 [10, 2000]
00000000: ff05 86bb e2d3 153a b1aa 85bc ab0e 333c
00000010: d43e 27bd 231f b53c b400 a03c 5e62 ef3b
00000020: b629 1abc 287e cbbc 4c59 6dbc 39a3 493c
00000030: 70e7 c43c 9ee2 77bb 1c5b a8bb 40a7 5e3c
00000040: b809 b73c b616 623c 1a0e b3bc 598b 1bbc
00000050: d907 d63b 4746 87bc ac8c 95bc 2d22 f5bb
00000060: b5a7 84bc 7e59 c1bb 721a 1c3c 1643 613c
00000070: 217b d4bc edb8 17bc 4e41 4f3c bea6 8d3a
00000080: 99ce 95bc fd65 8dbc 06a0 11bc 5cef 4abc
00000090: 2f29 19bc 2053 f4bb 561c 5f3c 13d7 b73b
000000a0: 856f 4c3c 041b a4bc 704b 393c 01da 06bb
000000b0: bd7e 61bc 9b81 bbbc 2724 623b afc8 c9bb
000000c0: 8c98 a5b9 e89a 1bbc fc65 883b 95cb 4dbc
000000d0: 55b9 0fbc 4c2b 38bb 2730 0ebc 21b9 5dbc
000000e0: 6c1a 09bc 1c58 96bb 12fb aabc bdc9 57bc
000000f0: 35fc ae3b fb5e 903c c720 1dbc 8a9a ef3b
00000100: eb12 d13b 32b3 b13c 41fe c63c 784b c63b
00000110: 8b05 113c de41 deba 4fec 8d3c 4bd7 9839
00000120: 27a2 69bc b77f c3bc fa87 75bc 6df6 43bb
00000130: d6f7 34bc d982 2f3c 10a6 09bc 59e0 00bd
00000140: 2e21 a1bc 824d 7e3a e5ba 683c 350d 51bc
00000150: 8755 963a a15c c13b ddb1 e8bb f87b 503c
00000160: 8ab1 a7bc 5b09 e53a 6825 3b3c 0e3c 273c
00000170: 5893 c23b ce45 17bc 07c3 2dbc 1db9 f5bb
00000180: 7d3f bb3c 6370 a7bc ae14 72bc 4789 fdbb
00000190: 5200 97bc 2665 5cbc b85f 5ebc b612 4f3b
000001a0: 4150 13bd aa06 99bc 1e2b 053c ea24 3a3b
000001b0: 4699 a5bc 46e3 c6bb 5286 98bc b955 503b
000001c0: 18ea 1a3b e6de 40bb 493b 14bb a436 6b3c
000001d0: 5429 20bc 0537 773b 8a68 ecbb d385 cabc
000001e0: 58d9 5fbc cffc f7bb 8a8b b7bb 96b0 2abb
000001f0: aa82 febc fe34 913c 84b4 b0ba a85b 01ba
00000200: c5a7 d8bc 81dc 5c3c 97bf 913c 6e3a 9abb
00000210: 2ef5 a3bc 0dd2 fdbb d824 acbc 6117 95bc
00000220: 3a52 bcbc a6e9 f0bc e71d 5bbc 8e11 aabc
00000230: 71dd 723c 1e32 b1bc 09eb 6ebc 8463 fe3b
00000240: da51 a5bc 378a 8dbc 91d9 993c 65ba 423c
00000250: a232 a9bc a53c 6c3c a587 8dbc c842 e6bc
00000260: 7a60 6bbc 4c93 ecbb 6c78 a8bc c0da 88bc
00000270: 97af 38bc c841 20bb 2825 90ba 31f5 acbb
00000280: e1f2 5ebc 8a8b b33b 61c2 bdbc 8a00 82bc
00000290: 9b07 9abc 83f1 a03b d5a3 b83b 82f2 763c
000002a0: 8543 893b 2629 983b 1cb1 8d3c e7aa 533b
000002b0: 45b0 7bbc 8862 b0bb a74b 363c 2403 3d3c
000002c0: aba9 26bc 4fe5 a5bb e062 613c 569c 71bc
000002d0: 7ea9 b7bc d203 ecba 0f7b 163c 5ba0 763c
000002e0: f157 ce3b 78f1 c8bc c7b9 583c bc0d 173d
000002f0: 6e09 c5ba 1507 e83b df56 503c fc16 bcbb
00000300: 82f9 863c 13e1 d03b 3359 73bb 5bb2 803b
00000310: 5d1b df3c 3695 a03c 93ed 31bc 2d99 2cbc
00000320: b05f 9fbb 4728 b0bc 64d5 e2bb 9e2f 7bbc
00000330: 199e 91bb 1e27 d3bc ed7a c43b ea5c 013d
00000340: 072a 59bb cef3 2abc c8cb 2c3c f2ac 79bc
00000350: a09d 6b3c 346b ca3c 829f 8b3c eb1d b1bc
00000360: 373e ca3c 9413 52bb 6c7b 7d3c 79d8 e23c
00000370: 2dcd 81bc eb61 9e3c 55be 00bc 79f2 a63c
00000380: 5fa7 973c 31cf 353c 9591 78bc 8e77 16bc
00000390: 5912 46bb e818 133c 378b a2b9 8b01 f3bc
000003a0: b285 b8bc 0bd6 703a 7c47 a5bb 091e 383a
000003b0: 0c9b 87bb 8d8e a03c eab0 a4bc a5c8 adbc
000003c0: 0372 673c f215 103c b054 563b 5181 7dba
000003d0: dc41 1ebc 97aa 31bb 1688 0f3a 0cc2 21b9
000003e0: 9b0d 823c 7746 76ba f8d5 0b3c 97fa 923c
000003f0: 9cb0 993b dfaf 433c 8c0d b53b f7ae b63b
-0.0040900703 0.0005715472 -0.016316744 0.01092879 -0.040831402 0.022109574 0.019531585 0.0073054275
-0.009409359 -0.02484043 -0.014486622 0.012306982 0.02403614 -0.0037824283 -0.005137814 0.01358968
0.022343501 0.01379936 -0.02185731 -0.009493672 0.006531697 -0.016513003 -0.018255554 -0.0074808807
-0.01619325 -0.005900561 0.009527789 0.013748905 -0.025937619 -0.009260398 0.012649847 0.0010807139
-0.01828699 -0.017260546 -0.00888825 -0.012386169 -0.009348198 -0.0074561983 0.013617596 0.0056103556
0.01247776 -0.020032413 0.01130949 -0.0020576718 -0.013763127 -0.02288895 0.0034506412 -0.0061579566
-0.0003158491 -0.009497382 0.004162548 -0.012560745 -0.008772214 -0.0028101979 -0.008678473 -0.013532908
-0.008368116 -0.00458814 -0.020871673 -0.013170657 0.005340124 0.017623415 -0.009590334 0.0073121237
0.006380429 0.021691892 0.02429116 0.006051477 0.008851419 -0.0016956886 0.017324595 0.00029152105
-0.014259852 -0.02386461 -0.014986033 -0.002990152 -0.011045417 0.010712349 -0.008401409 -0.031463955
-0.019669142 0.00097008806 0.014204715 -0.012759496 0.0011469581 0.005900935 -0.007101281 0.012724869
-0.0204704 0.0017474102 0.011422493 0.010207189 0.005937975 -0.009232951 -0.01060558 -0.007498874
0.022857422 -0.020439332 -0.014775438 -0.007737312 -0.01843277 -0.01345185 -0.013572626 0.0031596846
-0.035965208 -0.018679935 0.008127956 0.002840335 -0.020214688 -0.0060695736 -0.018618736 0.0031789376
0.0023638066 -0.0029429733 -0.0022618345 0.014356289 -0.009775478 0.0037722003 -0.0072146105 -0.024722015
-0.013662659 -0.007567979 -0.005601351 -0.0026045195 -0.031068165 0.017725464 -0.0013481532 -0.00049346173
-0.026447186 0.013480307 0.017791552 -0.0047066724 -0.020014372 -0.0077459873 -0.021013662 -0.018199624
-0.022988427 -0.029408287 -0.0133738285 -0.020760324 0.014823304 -0.021630343 -0.014582404 0.007763328
-0.020180631 -0.01727782 0.018780502 0.01188526 -0.020654026 0.014418756 -0.017276594 -0.028108016
-0.0143662635 -0.0072197076 -0.020565234 -0.01670587 -0.011272333 -0.0024453271 -0.0010997402 -0.0052782525
-0.0136077115 0.005479281 -0.023163976 -0.015869398 -0.018802455 0.004911603 0.0056347647 0.015072467
0.004188957 0.004643577 0.017296366 0.003229791 -0.01536185 -0.0053828396 0.011126435 0.011536393
-0.010172288 -0.005062736 0.013756484 -0.014746746 -0.022419687 -0.001800651 0.009184613 0.01505288
0.0062971045 -0.024529204 0.0132278865 0.036878332 -0.0015032717 0.0070809224 0.012716024 -0.0057400446
0.016476396 0.006374487 -0.0037132024 0.0039275116 0.027234728 0.0196024 -0.010859865 -0.010534567
-0.0048637018 -0.02150358 -0.006922411 -0.015331177 -0.0044438955 -0.025775488 0.005996099 0.03158275
-0.0033136623 -0.010434104 0.010546632 -0.015238987 0.014380842 0.024709322 0.017043833 -0.021620711
0.02468787 -0.0032055127 0.015471321 0.027691113 -0.015844906 0.0193338 -0.007857879 0.020379292
0.018512426 0.011096762 -0.015171428 -0.0091837775 -0.0030223338 0.008978106 -0.0003100277 -0.029663822
-0.022524688 0.00091871683 -0.005043922 0.00070235186 -0.004138356 0.019599224 -0.02010389 -0.021213839
0.014126304 0.008794295 0.0032704286 -0.0009670454 -0.009659257 -0.0027109736 0.00054752955 -0.00015426445
0.015875628 -0.00093946554 0.008534901 0.017941756 0.004690243 0.011943786 0.0055252966 0.0055750567

mlp.fc2.bias f4 [10]
00000000: 3981 59bc 0a01 c03c ea82 d0bc 4808 0c3c
00000010: 5147 903c a71f 03bc 2751 b6bb 88fa a0bc
00000020: 0f34 63bc f880 d63c
-0.013275438 0.023437995 -0.02545305 0.008546896 0.017612131 -0.008003152 -0.0055638733 -0.019650713
-0.013867392 0.026184544
