cls/cls_model_7311.pth (torch, 538627 bytes, 17 tensors)

feat.conv3d_1.weight f4 [4, 16, 1, 5, 5, 5]
00000000: ced1 603f 9cb2 2d3f 9a84 153f a277 f73f
00000010: be67 f0be c579 373e 8725 02be cfb0 9f3f
00000020: b93d 303f 310a 20be d673 933e 1691 903f
00000030: bd18 b53f f8ee 0fbe b663 b9bf eeaa b1be
00000040: 39bb 8ebf 93eb d43d 552c 033f a867 d7be
00000050: a57c 703f 8a8b 82bf b908 24bf e8f2 7b3f
00000060: 9486 e53e 2109 8e3f 93e2 583e 50be ed3f
00000070: 3fbd 38bf 9710 e93e 1519 13bc e161 323f
00000080: 53ac 4dbd 24dc 9bbe 5395 1e3f 8804 2a3f
00000090: e138 533f 2827 de3d 0494 f43f 0f8e 81bf
000000a0: b9d3 65be b870 323f a135 133f a991 b4bf
000000b0: bbb5 5c3f 16c5 c53f 375f 5bbf b4cc 0440
000000c0: d7b6 b03f 41c9 11bf aab9 9fbf 4f5c 57bf
000000d0: b47c e1be e421 93bf a56e 0140 3ef0 9c3e
000000e0: 6613 00c0 cede 15bf 14e9 1dbf 20dd 2fbe
000000f0: 8a22 bcbf 36d8 c0bf 68d0 3d3e e6ba 393f
00000100: 24d9 fc3d 87b2 72be cc49 01bf 608e 853f
00000110: 289d a83e 7126 dcbd e6df 39bf e133 973d
00000120: 3755 bd3e 671c cc3f 78e9 79bf a8ba 35bf
00000130: 5d6b 733f 0c75 083e d815 d6be 58c0 d4be
00000140: fe31 79bf 0294 64bf ee1a c13f b6e2 653f
00000150: 1fb8 66bf 0cdf 0cbd a7a7 a2be cb9b 883f
00000160: 9975 b8bf 226f 173f c6f3 273f 7411 a53f
00000170: bfdf 293e 3a45 04bf 2a22 e9bf 61fc 8a3d
00000180: a53f f6bf 76e2 babd 15ee 083f 4191 07c0
00000190: 1082 2ebf ce6b c1be d59d 2d3e 7049 9d3d
000001a0: cf56 233f 1f4e a23e 51d1 4b3f e743 2e3f
000001b0: dd63 d93e 4f3e 9b3e 9fe8 aebe b754 1ebf
000001c0: 7526 6bbf b203 33c0 056a c03e 4886 1b3e
000001d0: 9d2f 0cc0 e527 ddbe 7a87 9b3f 15df 87bf
000001e0: 7d86 f93d 12c3 d6be d3cf 1f3f 9285 1c3f
000001f0: 4f4b d53d 2bb2 0d40 0034 9c3f a574 853d
00000200: 43a9 283f 01ad 0d3f 9405 2fbf f509 ebbf
00000210: dc34 c43f 6ed6 a7bf f741 b83f 413f a0bf
00000220: 829c 46bf a186 22bf aa39 27bf eca4 a83e
00000230: 1680 81bd 0cfb c33f 5d58 a93e 5540 70bf
00000240: 143c b13d a0f7 68bf cf26 95bf 709b 853f
00000250: 67e0 a0bf 16b9 943e 602a 093e b476 43c0
00000260: a7e0 23bf a623 fcbf aa94 b13e b83d 51bf
00000270: 9e32 243e 48dc c43f 4156 013f c778 d0bf
00000280: 085f 2040 8e61 c83f 10d9 0dc0 6a98 aabf
00000290: 7665 25bd 5756 37bf dac5 d5bf ece8 9a3f
000002a0: 0c4c 38bf 1c72 20c0 36a5 f3bf fac3 c7bf
000002b0: f0f2 423e 32a9 23c0 e193 f73e 9236 883e
000002c0: 33b6 783f 0de1 813f 899b 4d3f 9fa2 723f
000002d0: 6c37 ccbf 2660 6c3f fc7c 0b3f da0d 02c0
000002e0: 56a6 063e 88b6 30be 5903 2540 2808 b0bc
000002f0: d42e 58bf 5755 a73f 3f8b 9c3e d664 b3bf
00000300: 42fd ca3f 8b9b 88bf 5ea5 bfbf a83e 91bf
00000310: 001a 15bf a87a b73f e214 8abf d7b4 083f
00000320: 2669 d33d 52ab 3dbd daac c13f 28ba 3ebf
00000330: 9ad9 663f b689 213e 7787 0c3f 76da 763e
00000340: a97c 01bc 77e2 15be 3899 593f ac91 d5be
00000350: 9696 933e b60c af3e 5582 963f 3280 2d3f
00000360: 8eec 49bf f1e6 8abe 27e3 e7bc 7ae6 81bf
00000370: d49c cd3e 1fb1 a73f 9c87 1ebf c032 bbbf
00000380: 43fb dbbf db5a 3e3f 8d21 533f 5be7 bebf
00000390: 17a6 c43e 462d 07bf 6da6 84be 7af7 8c3f
000003a0: a7bf 703f 0202 efbe 996c 883f fa42 c33f
000003b0: 91f6 ddbe 5b07 00bd 256f 813d c1ce 983f
000003c0: 5ab7 e3bf 30d6 19bf ee53 0bbf 21a2 70bd
000003d0: 495d 21be b4fa cebf 8e8e 353f cf4f 8cbf
000003e0: cba1 25be 6f69 86bf e01e 823f 7f04 e43e
000003f0: 032b 023f 2295 8fbf 875a 443f 3c02 5dbf
0.87820137 0.6785066 0.5840546 1.9333384 -0.4695415 0.17917545 -0.12709628 1.2475833
0.6884418 -0.15628888 0.28799313 1.1294277 1.4148175 -0.14056003 -1.4483554 -0.34700722
-1.1150886 0.10396495 0.5123952 -0.4207127 0.9394019 -1.0198834 -0.6407581 0.9841752
0.44829237 1.1096536 0.21180181 1.8573704 -0.72163767 0.4552047 -0.008978148 0.696806
-0.05021317 -0.3044139 0.619466 0.66413164 0.82508665 0.10847312 1.9107671 -1.0121478
-0.22444047 0.69703245 0.57503706 -1.4106952 0.862148 1.5450771 -0.8569216 2.074994
1.3805798 -0.56947714 -1.2478535 -0.84125227 -0.44040453 -1.1494718 2.0223782 0.3065204
-2.001184 -0.585431 -0.61683774 -0.17174196 -1.469804 -1.5065982 0.18536532 0.7255081
0.12346104 -0.23700915 -0.5050323 1.0434074 0.329324 -0.107495196 -0.72607267 0.07382942
0.36979076 1.5946168 -0.9762187 -0.7098794 0.950857 0.133259 -0.4181354 -0.41552997
-0.9734191 -0.8928834 1.5086343 0.8979906 -0.90124696 -0.0343924 -0.31768534 1.0672544
-1.4410888 0.5915395 0.65606344 1.2895951 0.16589259 -0.5166813 -1.8213551 0.06786419
-1.9238173 -0.09125225 0.53488284 -2.1182406 -0.6816721 -0.3777756 0.1695474 0.07680023
0.63804334 0.31700227 0.79616266 0.6807236 0.42459002 0.30320975 -0.3416185 -0.61848015
-0.91855556 -2.7971005 0.37580886 0.15187943 -2.190406 -0.431945 1.2150719 -1.0614954
0.12183855 -0.41945702 0.6242649 0.6114131 0.104147546 2.2139995 1.2203369 0.06516389
0.6588327 0.5534211 -0.68367887 -1.8362414 1.5328631 -1.3112314 1.4395131 -1.2519304
-0.7758256 -0.6348668 -0.65322363 0.32938325 -0.063232586 1.5310988 0.33075228 -0.9384816
0.08654037 -0.91002846 -1.1652468 1.0438061 -1.2568482 0.2904746 0.13395071 -3.05412
-0.6401467 -1.9698379 0.34683734 -0.817348 0.16034934 1.5379725 0.5052224 -1.6286858
2.5058002 1.5654771 -2.2163734 -1.3327763 -0.040379964 -0.7161612 -1.6701005 1.2102332
-0.7199104 -2.5069647 -1.9034793 -1.5606682 0.19037986 -2.5572019 0.4835501 0.26604134
0.97153014 1.0146805 0.8031545 0.9477939 -1.5954413 0.9233421 0.54487586 -2.0320954
0.1314939 -0.1725713 2.5783293 -0.021488264 -0.84446454 1.3072919 0.30574986 -1.4015148
1.5858538 -1.0672468 -1.4972341 -1.1347246 -0.582428 1.4334307 -1.0787623 0.5340094
0.1032279 -0.046305962 1.5130875 -0.745028 0.90175784 0.15775189 0.548942 0.24106774
-0.007903256 -0.1463717 0.8499942 -0.417127 0.28825825 0.34189385 1.1758524 0.67773736
-0.7887658 -0.2712932 -0.028306557 -1.0148461 0.40158713 1.3100928 -0.61925673 -1.4624863
-1.7186054 0.74357384 0.8247307 -1.4914354 0.38407966 -0.52803457 -0.25908223 1.1013024
0.9404244 -0.4668122 1.0658141 1.5254815 -0.43352178 -0.031257015 0.06320027 1.1938096
-1.779033 -0.6009245 -0.5442494 -0.05874837 -0.15758242 -1.6170259 0.70920646 -1.0961856
-0.16175 -1.0500926 1.0165672 0.4453468 0.5084688 -1.1217387 0.76700634 -0.86331534

feat.conv3d_1.bias f4 [4, 16]
00000000: 93ed cfb8 491a 01bb 46db 6f3a cc03 003b
00000010: f9e9 f2ba a1e4 86ba bd05 99ba 5232 9e3a
00000020: e0a6 b23a f816 303a 9b51 c43a c189 f1ba
00000030: 997c 0abb 7f65 2cbb b865 fcba 5d41 e23a
00000040: 210d cf38 05f8 013b 3df7 72ba 315c 01bb
00000050: 149f f43a 6a77 873a b904 983a 34f5 a3ba
00000060: f0a1 b5ba 4fcf 31ba 5757 c5ba 8d5c f33a
00000070: b359 0b3b 7387 2d3b 5776 fc3a 1041 e6ba
00000080: 2f7f cdb8 1cd1 01bb 076a 733a f632 013b
00000090: 19a4 f4ba c871 87ba f9ee 97ba b723 a33a
000000a0: c683 b53a 0eaa 323a 6e69 c53a 7515 f3ba
000000b0: 8b50 0bbb 1273 2dbb 8a28 fcba fa69 e63a
000000c0: 09ab ccb8 9d99 01bb 36a8 723a 4adb 003b
000000d0: 3118 f4ba 003d 87ba 7e41 98ba 2cc5 a13a
000000e0: 5cd8 b43a bb09 323a 7e2a c53a 9d9f f2ba
000000f0: 7a11 0bbb 6c23 2dbb 0b43 fcba 224e e53a
-9.914781e-05 -0.0019699505 0.0009149801 0.0019533513 -0.0018532864 -0.0010291525 -0.0011674684 0.001206944
0.0013630055 0.000671729 0.0014977934 -0.0018427895 -0.0021131395 -0.0026305614 -0.0019256389 0.0017261911
9.8729746e-05 0.001983167 -0.0009268409 -0.0019738788 0.0018663132 0.0010335271 0.0011598087 -0.0012508989
-0.0013857465 -0.00067829055 -0.0015055937 0.0018567011 0.0021263182 0.002647844 0.0019261342 -0.0017566998
-9.7988515e-05 -0.0019808477 0.00092855137 0.0019714213 -0.0018664628 -0.0010333592 -0.0011591605 0.0012446557
0.0013848476 0.0006815501 0.0015061328 -0.0018545823 -0.0021257724 -0.0026466292 -0.0019238156 0.0017579191
-9.759336e-05 -0.0019775399 0.0009256633 0.0019661956 -0.0018622932 -0.0010317862 -0.0011616198 0.0012342087
0.001379739 0.0006791611 0.0015042571 -0.0018510703 -0.0021220134 -0.0026418818 -0.0019246055 0.0017494599

feat.conv3d_1.attention.fc2.weight f4 [4, 1, 1, 1, 1]
00000000: 043a 4f3e 9728 60bf fdbe 153f 3547 be3e
0.20236975 -0.87561935 0.5849455 0.37163702

feat.bn2.weight f4 [16]
00000000: e2eb 7f3f ee96 7f3f 960f 803f cb53 803f
00000010: 3506 803f 2910 803f 4494 7f3f 93db 7f3f
00000020: b051 7f3f 2288 7f3f 461d 803f 982b 803f
00000030: 5411 803f 3231 803f 06c4 7f3f 252d 803f
0.99969304 0.99839675 1.0004756 1.0025572 1.0001894 1.0004932 0.9983561 0.9994442
0.9973402 0.998171 1.0008934 1.0013304 1.0005288 1.0015013 0.99908483 1.0013777

feat.bn2.bias f4 [16]
00000000: c479 83b8 b60c e2ba 84bc 9db9 e227 cfba
00000010: 7ef3 a4b9 d8b0 c639 ea71 f238 21e9 ccba
00000020: d59c 36bb b852 cfba d11d 033a fb4e c53a
00000030: 0673 fe3a 2a85 da3a ddce 53b9 a5aa 00bb
-6.2692474e-05 -0.001724622 -0.0003008583 -0.0015804733 -0.00031461933 0.00037897262 0.000115606774 -0.0015633443
-0.0027864475 -0.0015817499 0.00050016964 0.0015053445 0.0019412942 0.0016671766 -0.0002019959 -0.0019632962

feat.bn2.running_mean f4 [16]
00000000: 3ed4 1e3f 909c 87be 5535 a23f fffa 8abe
00000010: d3bb 753e 2926 c63e ddf1 523f 1b85 b7be
00000020: ae88 b0bf bc7a 003f 883f df3e ffc9 da3e
00000030: 958e 943f b0b6 0f3f 008e 11bc 696c b0be
0.62042606 -0.26486635 1.2672526 -0.2714462 0.2399743 0.3870099 0.82400304 -0.3584374
-1.3791711 0.5018728 0.43603158 0.42732236 1.1606013 0.56138134 -0.008883953 -0.3445771

feat.bn2.running_var f4 [16]
00000000: 59a1 7340 b6a6 2340 9414 1341 8dc7 de3f
00000010: 8bdd 5a3f 8da7 d53f d442 7240 2a99 c63f
00000020: 3190 2141 8b3c 0c40 047f e33f bdc0 0040
00000030: 2d07 ee40 f577 3840 7aca 733f 8ef4 3040
3.8067229 2.5570502 9.192524 1.7404648 0.854943 1.6691757 3.7853289 1.5515492
10.097703 2.1911952 1.7773137 2.0117638 7.438376 2.8823216 0.9523083 2.7649264

feat.conv3d_2.weight f4 [4, 32, 16, 3, 3, 3]
00000000: cceb 233d 7261 17c0 1571 3cbf 6945 b83e
00000010: 3c86 5c3d 67f5 013f eb2c 01bf b4d1 9fbf
00000020: ff00 55bf f320 393f 1e37 2b40 8fda 0bbf
00000030: 4d12 063f 7d0b 01bf 3d0e 3b3e 85f5 0f3f
00000040: 4cfb b93f 0058 a03e 7104 79be b3f7 1740
00000050: 62ba 1c3f 4b4e 1740 4154 d23e eaef 8b3f
00000060: 2ae2 3e3e 6853 56ba a50f 8b3d f6ec 29be
00000070: 59a0 a43f d228 903f 6ce9 d63d eae0 0bbe
00000080: b368 a73e f91f 3abf e693 033f 6c93 1ebe
00000090: 1bbf ba3c 02ba 863f 2d31 acbe 7ef6 fa3d
000000a0: 2a87 e4be fa06 d53e ea8f 453f ab3d c5bf
000000b0: e361 57be 1917 1cbf 6e6e 863f c84a 49be
000000c0: ae8a 553f e1a7 b1be 2c4b 30bf 8550 79bf
000000d0: 7579 2c3f 130a abbf cc07 ae3c b826 373f
000000e0: 3999 bbbc 750f 29be 172b 5fbf e490 6e3f
000000f0: 74d2 143f a06c 7dbe f315 3e3f ac9a 90bf
00000100: dcee ad3e 16b0 273f 168a de3f e0e4 16bf
00000110: d69c 96bf 8f49 65bf cb00 a4bf 8d2b aabd
00000120: 4b44 d4be 72ee e23c c300 0c3e 1202 b03f
00000130: d1e7 913f f8cb 36be 1085 393e be46 da3e
00000140: ff37 abbf c7a2 f73e 1195 2abf 222e 22c0
00000150: d7ba 2bbe c4e2 5a3f 0063 693e 96bd 2f3f
00000160: 189d 83be 28b5 abbd b7f8 803e a50d 363f
00000170: 19dd 1440 e1cc 3cbf 5e3e 46bd 0371 873e
00000180: 6b95 373f 3385 0ebf 381f 273f 7d7a dabf
00000190: a5c6 c83f ae2a 33bd 5194 993e c684 f4bf
000001a0: 2e3f f03e 831f de3e b9f3 dfbf 3a36 32bd
000001b0: c705 993f 930e 1e40 e03e 103e 53e9 b1bf
000001c0: 8ee1 a7bf 27e1 3d3f a2cb 0c3f 8ee4 3bbf
000001d0: 4c35 e1be 2920 5e3e 2fef 0cc0 d184 3d3e
000001e0: c489 52bf cafa 4dbf 9d16 ad3f 2918 0cc0
000001f0: 800f e13e bdc9 a8bf 2291 413e 3ffc 483f
00000200: ead5 0a3f 467b 25bf 103a 91bf a5c5 9b3f
00000210: 7892 363f 1368 0640 bd5c 00be 4e73 07c0
00000220: de20 45bf c0a9 36bf 0c0b 233f 29a6 0940
00000230: ece3 c0be 01b2 bb3f 5821 a8bf e639 3b3f
00000240: 3bc5 ccbe 3b30 073f 1eac d03f ef76 503e
00000250: 4ba7 a23e 15ad b9bf dfb5 d4be c98e 0d3f
00000260: ac21 a93f 7da8 273f 92b4 233e f254 a5bf
00000270: fc00 293f a482 323f 45c3 7abf 3629 90bf
00000280: 1406 a6bf 73f0 15be af80 cabf 0034 823f
00000290: 126d 833f 5471 c53f 519f b33f 4097 9d3f
000002a0: b8d2 fd3e 0766 1dbf 9aae 7cbf f180 f6be
000002b0: ef05 d63e 1169 52bf d8a8 58bf 4b18 eebf
000002c0: bd84 0bbf 03f3 8a3f 9ba1 ebbd 7301 4cbf
000002d0: 9db0 3340 326d 2a3f c2ab 743f f2ed 08bf
000002e0: 4219 0ebe 15d6 913f a39a 923f 6ff5 9dbf
000002f0: b966 cebe bc9a 9fbe 95ec 0ebe cbd5 68bf
00000300: b996 3cbf cd03 4bbe 7d60 c0be 04f8 afbf
00000310: eb93 9ebe 476c 54bd b124 65bf 7563 153f
00000320: 351b a0bc 13a9 573d 773f 4e3f 05da 05bf
00000330: 434e 2e3f 32ef 323f f5a2 dd3e 22ec a43f
00000340: 5437 20c0 6b46 0bbf de12 5cbf 4255 c43f
00000350: f7ce 9b3d f796 1fc0 0254 f43d 1e97 6e3f
00000360: 2696 ba3f 804e bfbe 6623 1cbf 70ea 383f
00000370: 31c9 473f a360 d03f d7bb 183f 59af 983e
00000380: b97c 08bf aff8 64bf 63ad 7e3e ca9a afbf
00000390: 39d1 783e 3871 f43e fb6d 3a3c 84f2 323f
000003a0: d3ff c0bc 3e4f 863f 286a e7bf 5727 8bbc
000003b0: 34fd a7bf 8c56 6c3f 0524 d2be 7165 f33e
000003c0: 1aea 8e3d b20d d6be c7d1 833d c789 233c
000003d0: dbbb 53be 4483 83bd 9fc2 323f e30a ecbe
000003e0: 1487 d03f a8c7 a13f 7838 503f abb6 70bf
000003f0: fde8 06bf 24fe 25bf 32ae 0140 afdb 343f
0.040019795 -2.3653226 -0.7361005 0.35990456 0.053838953 0.5076508 -0.50459164 -1.2485871
-0.83204645 0.723159 2.675239 -0.5463037 0.52371675 -0.50408155 0.1826715 0.5623401
1.4529815 0.3131714 -0.243181 2.3744934 0.612219 2.3641536 0.41079906 1.0932591
0.18640962 -0.00081758806 0.06790093 -0.165943 1.2861434 1.1262457 0.104937404 -0.13660017
0.32697067 -0.72705036 0.5139755 -0.15485924 0.022796204 1.0525515 -0.33631268 0.12254046
-0.44634372 0.41606885 0.7717272 -1.5409445 -0.21033435 -0.60972744 1.050245 -0.19657433
0.83414733 -0.34698394 -0.68864703 -0.9738849 0.6737283 -1.336245 0.021243952 0.71543455
-0.02290021 -0.16509803 -0.87175125 0.93189836 0.58133626 -0.24748468 0.7425224 -1.1297202
0.33971298 0.6550306 1.738589 -0.58942986 -1.1766613 -0.89565367 -1.2812742 -0.08309088
-0.41458353 0.02770159 0.13672166 1.3750632 1.139887 -0.17851245 0.18117166 0.42632097
-1.3376464 0.48366377 -0.6663371 -2.5340657 -0.16770492 0.85502267 0.22791672 0.6864866
-0.2570579 -0.08384162 0.25189754 0.7111457 2.3259947 -0.7375012 -0.04839932 0.2645341
0.7171237 -0.55671996 0.6528201 -1.706863 1.5685622 -0.043741874 0.2999597 -1.9103019
0.46923202 0.43383417 -1.7496253 -0.043508746 1.1954888 2.4696395 0.14086485 -1.389933
-1.3115709 0.7417168 0.5499822 -0.7339562 -0.43985975 0.21691956 -2.2020986 0.18507697
-0.82241464 -0.804608 1.3522526 -2.1889746 0.43957138 -1.3186566 0.1890302 0.78509897
0.54232657 -0.64641225 -1.1345844 1.2169691 0.71317244 2.1001022 -0.12535377 -2.1164126
-0.77003276 -0.7135277 0.6368873 2.1507666 -0.3767389 1.4663697 -1.3135176 0.7313522
-0.39994225 0.5280797 1.6302526 0.2035787 0.3176826 -1.4505945 -0.41545007 0.55296
1.3213401 0.6549147 0.15986851 -1.2916548 0.6601713 0.6973059 -0.9795421 -1.1262577
-1.2970605 -0.14642505 -1.5820521 1.0172119 1.0267661 1.542521 1.4032995 1.2311783
0.49574828 -0.61483806 -0.9870392 -0.4814525 0.41801402 -0.8219157 -0.84632635 -1.8601164
-0.5449942 1.0855411 -0.11505433 -0.7968971 2.8076546 0.6657287 0.9557458 -0.53488076
-0.13876823 1.1393458 1.1453441 -1.2340525 -0.40312746 -0.3117274 -0.13957436 -0.9095122
-0.73667485 -0.19825669 -0.37573615 -1.3747563 -0.30972227 -0.051861074 -0.8950911 0.58354884
-0.019544223 0.052651476 0.8056559 -0.52285796 0.6808817 0.69896233 0.4328839 1.2884562
-2.503377 -0.54404324 -0.8596629 1.5338519 0.07607835 -2.4935892 0.11930086 0.93199337
1.4577072 -0.37364578 -0.60991514 0.72232723 0.7804137 1.6279491 0.5966162 0.2982128
-0.5331531 -0.8944196 0.2487083 -1.3719113 0.24298562 0.4774263 0.01137876 0.699013
-0.023559486 1.0492933 -1.8079271 -0.016986532 -1.3124146 0.9231956 -0.41043106 0.4753833
0.06978245 -0.41807324 0.06436496 0.009981579 -0.2067713 -0.06421521 0.6982822 -0.46102056
1.6291223 1.2639055 0.81336164 -0.9402873 -0.5269926 -0.6484091 2.026257 0.7064771

feat.conv3d_2.bias f4 [4, 32]
00000000: 6cc6 d83a 8906 37ba 43b6 f2ba 5831 023b
00000010: 8977 ee3a 9fc7 b4ba a950 013b ce0e dbba
00000020: eb4a 1fba 1f4a 033b 7fae 8e3a 7519 ce3a
00000030: 48eb ed3a 3841 113b 5938 093b 305f 0e3b
00000040: d320 1d3b 6a83 bab9 7015 dd3a f98a 203b
00000050: aa75 c4ba 16b4 9839 aeb5 153b 415e 033b
00000060: fd53 1e3b 5598 01b7 b4d5 443a 60d0 c9b8
00000070: 44e6 0fbb d6b3 143b 2c24 b53a 2bb9 07bb
00000080: e4f3 003b 59b0 5aba 0ce7 baba a209 d63a
00000090: 8014 e63a 72bd 28bb 6769 bb3a 4ff3 02bb
000000a0: 0952 1dbb 1fbc 113b 7972 2bba e54f 283b
000000b0: ea48 183a a86a 283b 4fc3 153b c813 093b
000000c0: 0660 923a 246e 023b 8483 343b cad7 1f3b
000000d0: c342 17bb 6454 323a fae4 173b 0710 cb3a
000000e0: 754f 193b 9b93 37ba 8b39 913a 89e8 c539
000000f0: 3903 ce39 e25d c73a a0e6 243b bf80 28bb
00000100: 801a f5ba d5b4 4a3a 1afa fa3a 1d50 03bb
00000110: 0923 f6ba faf3 ee3a 2c3f 02bb 175e ef3a
00000120: eb4d a13a 1e6d 0bbb 2242 73ba 6132 00bb
00000130: 914f e7ba a471 18bb 8d8b 0fbb 1b66 10bb
00000140: b209 1cbb 5d65 deb8 259f 13bb 3a28 28bb
00000150: 1bf9 fe3a 6e68 e2b9 54d5 18bb f052 03bb
00000160: e563 25bb 2418 a139 f3ad 64ba c55d 80b8
00000170: 8548 0c3b 5dc0 16bb ca4f fdba e07e 143b
00000180: bc67 da3a 8a2a 38ba 671b f3ba c1e4 013b
00000190: efb9 ef3a a889 b7ba ef97 013b d391 dcba
000001a0: be90 2bba fd98 033b c2fb 8b3a ef50 d33a
000001b0: 8001 ee3a 5b7d 113b 3c8a 093b 845a 0e3b
000001c0: 15e5 1c3b db4c a7b9 dfc8 e33a c61a 213b
000001d0: 0437 caba 2091 9739 5ddf 153b 97c6 033b
000001e0: 2cc6 1e3b 5a13 beb8 f62d 493a 709e 85b8
000001f0: fa75 0fbb fde2 143b c5c2 bb3a 6b6c 08bb
0.0016538627 -0.000698187 -0.0018517453 0.0019865837 0.0018193583 -0.0013792402 0.0019731915 -0.0016712786
-0.00060765323 0.0020033193 0.0010885744 0.001572414 0.0018151784 0.0022164118 0.0020938127 0.0021724217
0.0023975864 -0.00035574596 0.0016867351 0.0024496897 -0.001498868 0.00029125874 0.0022843885 0.0020045193
0.0024158948 -7.724467e-06 0.0007508651 -9.62324e-05 -0.0021957317 0.0022690198 0.0013819984 -0.0020709734
0.001967662 -0.0008342318 -0.0014259531 0.0016329775 0.0017553717 -0.0025747684 0.001429838 -0.001998145
-0.0024005196 0.0022237373 -0.000654019 0.0025682386 0.0005809205 0.0025698338 0.0022852009 0.0020916332
0.0011167533 0.0019902075 0.002754421 0.0024390095 -0.0023080565 0.00068027363 0.0023177252 0.0015492447
0.0023393307 -0.0007002891 0.0011079771 0.0003774802 0.00039293783 0.0015210474 0.0025161877 -0.0025711504
-0.0018699914 0.00077326345 0.0019148022 -0.0020036765 -0.0018778752 0.001823067 -0.001987408 0.0018262294
0.0012306547 -0.0021274756 -0.0009279569 -0.0019561278 -0.0017647614 -0.0023261094 -0.0021903247 -0.0022033516
-0.002380949 -0.00010604665 -0.0022525277 -0.0025658743 0.0019452901 -0.00043183885 -0.0023320513 -0.0020038448
-0.0025236544 0.000307263 -0.000872343 -6.1209816e-05 0.002140553 -0.002300284 -0.0019326147 0.0022658631
0.0016662995 -0.0007025382 -0.0018547595 0.0019820186 0.0018289665 -0.0014002817 0.0019774397 -0.0016828127
-0.00065447006 0.0020080202 0.0010679888 0.0016122143 0.0018158406 0.0022199962 0.0020986935 0.0021721432
0.0023940254 -0.00031909984 0.001737859 0.0024582609 -0.0015427773 0.0002890909 0.002286873 0.0020107382
0.0024227006 -9.0635105e-05 0.000767439 -6.3714455e-05 -0.0021890388 0.0022718303 0.0014325014 -0.0020816575

feat.conv3d_2.attention.fc1.weight f4 [5, 16, 1, 1, 1]
00000000: b258 303e a499 a23d a8c2 64be 86f6 d43d
00000010: 8d06 eebd 7d7c 773e 2a20 7c3e 2cf2 40be
00000020: e764 36be f979 743e 2974 35bd 13d0 abbb
00000030: c045 6d3d 063d 4bbd 0b81 61bb b755 e5bd
00000040: fe0f 673e 5438 debd 3200 53be 20fd b23c
00000050: d25f 4bbe 1007 1bbd 5010 4dbd 7611 03be
00000060: 5676 2fbe 488b 6bbd de21 253e 44e9 80bd
00000070: 52ec 71be 9085 143d 481f 77be b800 1c3e
00000080: d8c6 cfbd fca6 4abe a4ae 283e cc2b 01be
00000090: e6e3 5ebe bc0f 08be 4c9f a23d fe8f 2dbe
000000a0: b25f 5dbe d81f 4bbd 1c4d 7cbe 0008 953b
000000b0: 5403 50be 04f1 503e 3a31 3dbe 54d6 e73d
000000c0: 0585 d33d 33c3 4ebe e854 1cbd da53 4bbe
000000d0: 748f d93d ad2e 2ebe 2d4c 0bbe a244 4abe
000000e0: df61 4abe ac09 fa3d fabb 6c3e ded1 1abd
000000f0: 87dd d33d 94b7 073d 86c5 e8bd 0545 383e
00000100: c94e 603e d243 36be 1508 683a 5ff3 4abb
00000110: ed26 5c3e 6121 30be bba7 d2bd 1d23 22bb
00000120: f160 35be 25cf 2d3e 2f2e 80bd 7e23 733c
00000130: 2665 b5bd bc54 55bd 9f4c 53be 3ead d8bd
0.17221335 0.07939461 -0.2233988 0.10398583 -0.11622343 0.24168582 0.24621645 -0.18842381
-0.17811929 0.23874654 -0.044300232 -0.0052433102 0.057927847 -0.049618743 -0.003440919 -0.111979894
0.22564694 -0.108505875 -0.20605543 0.021849215 -0.19860771 -0.037848532 -0.050064385 -0.1279963
-0.17134985 -0.057505876 0.161262 -0.06294492 -0.23625305 0.036260188 -0.24133027 0.15234649
-0.10145348 -0.19790262 0.1647287 -0.12614363 -0.21766624 -0.13287252 0.0794054 -0.1694946
-0.21618536 -0.049590915 -0.2463879 0.004548073 -0.2031377 0.2040444 -0.1847581 0.11320177
0.10328106 -0.2019165 -0.03816691 -0.19856206 0.10623065 -0.17009993 -0.13603278 -0.19752744
-0.19763897 0.12208876 0.23118582 -0.0377978 0.10344987 0.033134058 -0.113657996 0.17995079
0.21905054 -0.17799309 0.0008851302 -0.0030967814 0.21499224 -0.17200233 -0.10285898 -0.0024740167
-0.17712761 0.1697355 -0.06258809 0.014840005 -0.08857183 -0.052082762 -0.20634697 -0.10579918

feat.conv3d_2.attention.fc2.weight f4 [4, 5, 1, 1, 1]
00000000: c457 8abe bae8 9abe 9025 84be b307 82be
00000010: 8290 44bd c298 9fbe 570d 533e a77d a1be
00000020: 1e83 b13e b4e2 853e e36a 833e 91b9 463e
00000030: 3ea6 85bd 0a16 acbd f92d d2be 9f7a 90be
00000040: 5730 e13e 27c4 34bd 8b14 77be a980 1fbe
-0.27020085 -0.3025568 -0.25809908 -0.253965 -0.047989376 -0.31171232 0.20610557 -0.31541178
0.34670347 0.26149523 0.25667486 0.19406725 -0.06525849 -0.08402641 -0.410507 -0.28218552
0.43982193 -0.044132378 -0.2412893 -0.15576424

feat.bn3.weight f4 [32]
00000000: ba0c 803f 4c1e 803f a9bd 7f3f bdae 7f3f
00000010: 4aad 7f3f 54c7 7f3f 3404 803f 0eb3 7f3f
00000020: b1cd 7f3f 27bf 7f3f 4a94 7f3f 69a0 7f3f
00000030: e7c7 7f3f c7e0 7f3f 9f07 803f f1d7 7f3f
00000040: ebb1 7f3f cc2f 803f 76ac 7f3f b939 803f
00000050: 0d14 803f 0e9b 7f3f 3592 7f3f 24aa 7f3f
00000060: 2a1e 803f f7ce 7f3f 3e9e 7f3f 64f6 7f3f
00000070: 2db0 7f3f 3dcc 7f3f 0499 7f3f edbc 7f3f
1.0003884 1.0009246 0.99898773 0.99876004 0.99873793 0.99913526 1.0001283 0.9988259
0.99923235 0.9990105 0.99835646 0.9985414 0.999144 0.9995236 1.0002326 0.99938875
0.99880856 1.0014586 0.9987253 1.0017616 1.0006119 0.9984597 0.9983247 0.9986899
1.0009205 0.9992518 0.99850833 0.9998534 0.998782 0.9992102 0.9984286 0.9989765

feat.bn3.bias f4 [32]
00000000: 0561 65ba d1fb 00bb 82f5 3dba 1208 aa39
00000010: b81d 8bba 6eb1 7dba cea1 023b 87a5 1bbb
00000020: bceb 0bbb c561 b2ba 27e3 1dbb 1485 09bb
00000030: 8165 8cba 5998 96b9 2c8c d439 3f08 e33a
00000040: bfbf 48ba db01 baba 824b 5fb8 8344 af3a
00000050: be33 03bb 8309 e6ba 5a8d 353a 5692 61b9
00000060: c817 793a d8be d3ba 1b8d 0dbb dad5 beba
00000070: f243 01bb c0f6 dab9 d910 beba b8fa 0bbb
-0.0008750114 -0.0019681344 -0.00072463613 0.0003243094 -0.0010613715 -0.0009677623 0.001993287 -0.0023749785
-0.0021350225 -0.001360946 -0.0024091692 -0.0020983862 -0.0010711403 -0.00028723737 0.00040540227 0.0017321183
-0.0007657967 -0.0014191227 -5.3237665e-05 0.0013371859 -0.0020019854 -0.0017550442 0.0006925665 -0.00021512187
0.000950214 -0.0016154898 -0.0021598998 -0.0014559582 -0.0019724336 -0.00041764043 -0.0014500871 -0.0021359157

feat.bn3.running_mean f4 [32]
00000000: d209 a0c0 3f55 a63f 2369 0941 4a51 a7c0
00000010: 5f7c 62bf bc8f 9e40 81a6 a540 e0f9 1dbf
00000020: 77f8 6540 e524 0b40 ed58 94bf 0ee0 e1bf
00000030: 6dba d640 04a9 3ebf 115b 2fc0 6315 9f40
00000040: 6b18 31c0 cba4 5440 584e 88c0 2533 c6c0
00000050: b4ac f13e 909e 09c0 5057 90c0 dbeb 7b3f
00000060: 2fa9 26c1 39dd 4bc0 d69a 64bf 0616 0cbf
00000070: f1db 8dbf fc61 cdc0 6a61 9abe 9542 9240
-5.001199 1.2994765 8.588168 -5.228673 -0.88471025 4.9550457 5.176575 -0.61709404
3.59329 2.1741269 -1.1589638 -1.7646501 6.710257 -0.7447665 -2.7399333 4.9713607
-2.7671154 3.3225582 -4.2595634 -6.193743 0.47202075 -2.150303 -4.5106583 0.9840676
-10.416305 -3.1853774 -0.8929876 -0.54721105 -1.1082746 -6.418211 -0.30152446 4.5706277

feat.bn3.running_var f4 [32]
00000000: 4c69 1b43 ce86 d142 beca 2d43 337c 5643
00000010: 7ee9 c342 7af5 0f43 74f2 2b43 1bb2 bd42
00000020: 0308 0343 020c e242 5a10 0243 7e0b d142
00000030: 2048 0e43 c489 f542 08e0 2f43 3aab 0f43
00000040: e3e3 2c43 c870 1243 0db3 0743 ae34 3c43
00000050: c54f 0643 25a6 ef42 84c3 d942 c128 c242
00000060: 9289 8c43 ad05 0e43 f457 f042 b7c4 df42
00000070: 358d d142 d11f 5643 fd8f 0743 e1e5 f842
155.41132 104.76329 173.79196 214.48515 97.95604 143.9589 171.94708 94.84786
131.0313 113.02345 130.06387 104.522446 142.28174 122.76907 175.87512 143.66885
172.89018 146.44055 135.69942 188.20578 134.3116 119.8245 108.88187 97.0796
281.07477 142.02217 120.17178 111.88421 104.775795 214.12428 135.56245 124.44898

mlp.fc2.weight f4 [10, 6912]
00000000: 5ec6 c43b 3256 b73b 63ab 073c 6565 dc3b
00000010: eeb0 28bc 6d8f 0bbc d88b 0cbb d024 ee3b
00000020: 67b7 0a3c af10 3d3c f8f2 f33a eb8a 853a
00000030: 7272 17bc ff52 753b 7bbf 833b ce78 5aba
00000040: ea5c 1d3c 75fa b0bb 5d64 1d3c 7e63 9f3a
00000050: 6aa2 13bc 2d8e 0b3c 3e39 e539 900a ec3b
00000060: 00b1 1cbc e673 23bc 02e0 d23a 4d7c 2d3c
00000070: 1bc1 ddbb f544 0a3c 93e1 9a3b 8077 21bc
00000080: 6837 3e3c 65d8 3d3b 3c5b dbbb 5824 3e3b
00000090: f6b6 91bb c9e2 ae3b 5ff6 043c 99a3 8cbb
000000a0: 93f7 bb3b 4ef3 a83a d383 04bc 8fdb 233b
000000b0: 27c5 e4ba c0b7 c5bb ee74 7a3b 7827 f13b
000000c0: fe7d 94bb 376f d83b de40 61bb 6c22 c7ba
000000d0: 61e0 1e3c 75d1 c5ba 4a5c 253c 29f9 853b
000000e0: 0427 053c 1f2c 323c 8ef0 95bb e0ce dcbb
000000f0: f48b d13a 7fb4 0cbc 87bd f7ba 2032 38bc
00000100: 549c e13a 2609 c03a 0e04 a03b e6c5 aaba
00000110: 3e58 343c 4b19 1b3c d98b f2ba 157f 1f3c
00000120: 24ed d63a 77da 8e3a 3d49 13bc ed09 3ebc
00000130: 29dd 023c a20a bebb 5f0d 573b 7b69 06ba
00000140: 6983 2fbb 991a d6ba 2337 58ba e56c 16bc
00000150: d94b ec3a 3b1d ca3b 0ebc 37bc 6a16 303c
00000160: 056b 03bc f8d5 2a3c 12f9 2e3c ad1d f1bb
00000170: b355 a9bb dae0 33bc 6269 993b edec 8ebb
00000180: c8f5 58bb 3f5f 0e3b 9088 eb3b 75aa 0738
00000190: 70aa 2abc 7461 5b3b ceca 1fbc 856b e7bb
000001a0: 7c15 313b 4477 913b 527b 09bc 6548 84bb
000001b0: 5b3e 053c 29d7 453b b9ec 933b 61c0 e13b
000001c0: 5ee3 ca3b d0a2 033c 9f6d 1a3c bb23 14bc
000001d0: 4c97 50bb 04ec 24bb 78d1 2a3c 7edb e9bb
000001e0: 966e b6bb 2182 093c ea8e 073c 55f6 debb
000001f0: 5298 b03b d018 67bb d337 863b 0958 283c
00000200: d844 5cbb 00cc a9ba 8951 3bbb d0cf 4a3b
00000210: 59b4 86ba 219e e73b 0ecd ea3b db9e 85bb
00000220: c41b 9f3b ebc5 2cb9 8d03 c9bb ec5f 363c
00000230: dec9 f13b 2a6d 1fbc 9a37 10bc 1bb0 333c
00000240: 36f4 38bc 475e fdbb d827 1fbc 579d ad39
00000250: b8ed 3bbb e1d6 3cbc 7f07 24bc f072 343c
00000260: 30fe 09bc 4ae9 143b bd62 a03a 6b89 91bb
00000270: fbbe 3dbc dd17 15bc 322f b63b e568 2bbc
00000280: 086a 243c 13c4 033a a321 bebb c482 fc3b
00000290: b623 95bb fe94 42bc b0c3 7a3b 5f95 fe3a
000002a0: 676c 223b 1ef6 e7ba 3360 05bc 42c6 40bc
000002b0: 75e1 0139 46f7 2dbc a992 37bc 5897 d8b7
000002c0: c114 b43b c59d f83b 185d a3ba 70f4 e4bb
000002d0: 4e37 c8ba f561 973b 26ef 1d3c 9be7 39bc
000002e0: a6b0 1239 cf74 26bc a781 cabb ecbe 99ba
000002f0: cf93 04bc 431e 033c e150 5ebb b791 333c
00000300: 683f 9d3b 1931 653b a9c6 1ebc d750 313c
00000310: 1fe3 37bc c80a 6a3b 3f69 9dbb 776e c53b
00000320: e4b8 ef3b 6414 48bb 91f8 413c aa2e a5bb
00000330: 6b23 cc3b a706 083c 7184 253b c317 cd3b
00000340: 3646 363c 05ac a5bb aef5 0fbc b5c6 613b
00000350: b09d 6cbb 6b06 8dbb ae77 343b f62c 41bb
00000360: b4d2 2e3c f1c6 c23b 5498 243c 67cb 2bbb
00000370: c83d 1cba d04e 30bb e91f 57bb 98b6 e03b
00000380: 0525 953b 2bba b5bb b444 883a 98e2 11bc
00000390: 5e66 873b 3cf8 71bb 7dfd 953b e84a 003c
000003a0: 1641 a23b c3b3 313c 149b 9fbb 5968 37bc
000003b0: 87a4 d139 8321 88ba d73b 073a ff2c 953a
000003c0: d82b b3bb 50bc 01bb 78a6 aa3b c070 f63b
000003d0: 36bf bcb9 3014 963b 7951 083c 5c31 153b
000003e0: 518c 1d3a 4b2e 8ebb ecbe 1bbc 9bd0 7e3b
000003f0: d437 073c b6a2 0bbc af13 483c c0ca 2cbb
0.0060050925 0.005594992 0.008280608 0.0067259544 -0.01029609 -0.008518082 -0.0021445658 0.007267572
0.008466578 0.011539622 0.0018611839 0.0010188496 -0.0092435945 0.0037433503 0.004020629 -0.00083340413
0.009604672 -0.0054009506 0.009606448 0.0012160388 -0.0090108905 0.008517784 0.00043720932 0.0072034076
-0.009563684 -0.009976363 0.0016088488 0.010588718 -0.0067674047 0.008439292 0.0047265976 -0.009855151
0.01160989 0.0028968093 -0.0066942256 0.0029013362 -0.0044468595 0.0053370935 0.00811538 -0.0042919633
0.0057363003 0.0012889893 -0.00808807 0.0025002693 -0.0017453776 -0.0060338676 0.0038216668 0.0073594414
-0.004531621 0.0066050547 -0.003437094 -0.0015192754 0.009697051 -0.001509233 0.010092804 0.00408854
0.008126978 0.010874777 -0.0045757955 -0.0067385286 0.0015987144 -0.0085879555 -0.0018901088 -0.0112424195
0.0017212727 0.0014651164 0.004883296 -0.0013028949 0.011007367 0.0094664795 -0.0018504813 0.009734889
0.0016397578 0.0010898848 -0.008989629 -0.011599046 0.007987299 -0.0057996074 0.0032814366 -0.0005127412
-0.0026781207 -0.0016334831 -0.0008247962 -0.009181236 0.0018027975 0.0061680353 -0.011214269 0.010747531
-0.008021121 0.010426991 0.0106795 -0.007358274 -0.005167687 -0.010978902 0.004681752 -0.00436174
-0.0033105481 0.0021724252 0.0071879104 3.234526e-05 -0.010416612 0.0033474835 -0.009752942 -0.007062378
0.0027020862 0.0044392664 -0.008391218 -0.0040369504 0.0081325425 0.003018806 0.0045143035 0.0068893884
0.006191655 0.008034423 0.00942555 -0.009041722 -0.0031828461 -0.002516509 0.010425918 -0.007136761
-0.005567382 0.008392842 0.008273819 -0.0068042674 0.0053892517 -0.0035262592 0.0040960102 0.0102748955
-0.003361037 -0.0012954473 -0.0028582534 0.003094662 -0.0010277136 0.007068411 0.0071655577 -0.004077775
0.004855605 -0.00016476928 -0.0061344565 0.011131268 0.007378801 -0.009730617 -0.008802319 0.01096728
-0.011288693 -0.007732186 -0.009714089 0.0003311436 -0.0028675627 -0.0115258405 -0.010011553 0.011013731
-0.008422419 0.002272206 0.0012236458 -0.0044414303 -0.011581178 -0.009099928 0.0055598253 -0.0104620205
0.010035045 0.0005026471 -0.0058023497 0.007706018 -0.004551376 -0.011876343 0.0038263611 0.0019423178
0.002478385 -0.001769725 -0.008140611 -0.011766018 0.00012386388 -0.010618037 -0.0112044 -2.5819681e-05
0.005495638 0.007587167 -0.0012463657 -0.006987147 -0.0015275271 0.0046198317 0.009639537 -0.011346723
0.00013989452 -0.010159685 -0.0061800065 -0.0011729873 -0.008091881 0.00800282 -0.003392272 0.010960034
0.0047988184 0.0034971891 -0.009690919 0.010822496 -0.0112235835 0.0035711993 -0.004803806 0.0060251313
0.007315742 -0.0030529732 0.011839048 -0.005040963 0.006229808 0.008302367 0.0025255943 0.006258936
0.011125138 -0.0050559067 -0.008786602 0.0034450714 -0.0036104731 -0.0043037436 0.0027537155 -0.0029476262
0.010670353 0.005944126 0.0100460835 -0.0026213767 -0.0005960134 -0.0026902445 -0.0032825416 0.0068577044
0.004551532 -0.0055458746 0.0010396452 -0.008904122 0.004132076 -0.003692164 0.0045773373 0.007830359
0.0049516065 0.010846081 -0.0048707817 -0.011194312 0.0003998617 -0.0010385964 0.0005158758 0.0011381208
-0.005467873 -0.001979608 0.005207833 0.007520765 -0.00036000618 0.0045800433 0.008320206 0.0022765016
0.00060099835 -0.0043390146 -0.009505969 0.0038881663 0.008253057 -0.00852268 0.012211724 -0.0026365966

mlp.fc2.bias f4 [10]
00000000: 62be 22bc 15ad 983b a798 b13a bee7 e53b
00000010: db85 1cbc 4d4b a43b 8815 0a3b ad4a 97ba
00000020: 41a3 48bb 7cef a9bb
-0.009933086 0.004659305 0.0013549522 0.007016151 -0.009553398 0.0050138594 0.0021069963 -0.0011542641
-0.0030614885 -0.0051860195
