cls/cls_model_6800.pth (torch, 538627 bytes, 17 tensors)

feat.conv3d_1.weight f4 [4, 16, 1, 5, 5, 5]
000000 00 01 99 bd 6f 79 2c 3f 21 1e 89 bc ca 87 cf 3f
       -0.07470894 0.6737279 -0.016738 1.6213315
000010 25 12 40 be 4a 10 94 3e ee 9f 30 3f 51 c3 02 bf
       -0.18756922 0.28918678 0.68994033 -0.5107928
000020 fc 82 ee 3f c0 6e d1 be 35 96 34 be 2d cc ac 3f
       1.8633723 -0.40904808 -0.17635424 1.349981
000030 67 5e f0 3f 52 a0 bf be 3d 67 81 3f f8 18 c8 be
       1.8778809 -0.37427002 1.0109631 -0.3908155
000040 db 0a 82 bf f0 7c d9 3d ed f0 f3 be 77 7d f6 3e
       -1.0159563 0.10619533 -0.4764475 0.48142597
000050 c7 e6 57 bf 08 b1 b3 3f c7 e8 97 3f a1 f9 9d be
       -0.84336513 1.4038401 1.1867913 -0.30854514
000060 04 04 63 bf 6d a0 a2 3f 08 8a 7d bf e2 b4 19 bf
       -0.88678 1.2705208 -0.99038744 -0.6004163
000070 6c 02 86 bb a8 3b 66 bf 68 4c 96 bf 33 ec b2 bc
       -0.004089644 -0.8993478 -1.1742067 -0.021841144
000080 3d 2d ff 3d e5 95 8a bf f4 6d 98 bf dc 9c 2c bf
       0.124598004 -1.0826994 -1.1908555 -0.6742685
000090 81 3d 1a be 65 87 4c bd 88 cd 44 be b7 a0 c1 3f
       -0.15062524 -0.04993381 -0.19219029 1.5127171
0000a0 0f 0c b6 b9 10 0a 25 bf e0 90 4a be 83 0a 72 bf
       -0.0003472273 -0.6446848 -0.19781828 -0.9454729
0000b0 8a 6c d6 3f 9d dd 04 3f 67 ad 7e 3f 50 92 87 3f
       1.6751873 0.51900655 0.9948334 1.0591526
0000c0 2d dd f8 bf 91 1e 98 3e e3 ca cc 3f 24 e6 a8 be
       -1.9442497 0.2971082 1.5999416 -0.32988083
0000d0 0a a8 f7 3e 5f 4f 9a 3e 34 5d 2f be 6d 65 0e bf
       0.4837039 0.3013868 -0.17125398 -0.55623513
0000e0 3e b7 ac be fb 89 a3 3f 8f a1 0b c0 7e 1c 86 be
       -0.33733553 1.2776483 -2.1817358 -0.26193613
0000f0 b1 7d c6 bf 8b cf ae 3e 7c e5 7e 3d 73 a5 05 3f
       -1.5507108 0.34142718 0.062230572 0.5220558
000100 c0 86 ed 3e 1a ac 22 be 59 76 e3 3e d0 b7 03 3f
       0.4639187 -0.15885964 0.4442623 0.5145235
000110 d2 91 53 3f f4 fb 9c bf fc f3 f6 3e 46 81 64 bf
       0.8264438 -1.226439 0.4823302 -0.89259756
000120 4c 96 2b 3e 02 d4 6c 3f 0a bc 2e be e7 1d 44 3f
       0.16756552 0.92511 -0.17063919 0.7660813
000130 c0 67 f8 3e ea 9b af 3f b0 fa 4d bf 36 b0 20 bf
       0.48516655 1.3719456 -0.80460644 -0.62768877
000140 18 dc 2c 3f c2 c7 1b 3f 06 8d d9 3e 82 b1 9d bf
       0.67523336 0.6085168 0.42490405 -1.2319796
000150 f4 d9 23 3f 6c 2a 8b be db 08 20 40 3a 64 30 3f
       0.64004445 -0.27180803 2.5005405 0.68902934
000160 2c b8 39 3e aa b5 d1 3c 3b b5 1b c0 17 52 90 3f
       0.18136662 0.02559932 -2.4329364 1.1275052
000170 95 8f 9c 3e 31 e0 78 bf b1 29 26 3f bd 6c 06 3f
       0.30578294 -0.9721709 0.64907366 0.5250967
000180 79 03 3e 3f d2 75 be 3e 34 b0 8c 3e 98 dd 0e bf
       0.7422405 0.37199265 0.27478182 -0.55806875
000190 cd f9 53 be 17 b4 6d bd cb 67 a6 3e 0a 55 3b 3e
       -0.2070076 -0.058033075 0.32501063 0.18294159
0001a0 05 f5 64 be 4f e4 af 3f 17 57 1e 3f ee 1c 02 c0
       -0.22359093 1.3741549 0.6185164 -2.0330157
0001b0 c6 30 09 c0 c3 cb 85 be f9 8e d0 bf 48 f2 35 c0
       -2.143602 -0.2613202 -1.6293632 -2.8429127
0001c0 a4 99 b7 3f a9 b0 0c 3f 40 ee dc bf e8 cf 38 bd
       1.4343762 0.5495706 -1.7260208 -0.04512015
0001d0 d0 06 fb 3e a8 6f 04 bf 9e 03 80 bf f2 a1 8b bf
       0.49028635 -0.51732874 -1.0001104 -1.0908797
0001e0 aa cc f5 3d 45 49 80 bf de 5b 9d bf 0c ad 99 bf
       0.12001927 -1.002236 -1.2293661 -1.2005935
0001f0 f5 26 52 3f 8c da ed 3e 9f ec 1c 3e 48 33 c7 3f
       0.82090694 0.464558 0.15324639 1.5562525
000200 ce 8e f7 be f4 b0 19 3f cb a1 44 3f 5d dd 22 bd
       -0.4835114 0.60035634 0.76809376 -0.03976189
000210 2a 8c 9f bf 32 d2 01 bf 5b fb fa 3f da fc f6 be
       -1.246465 -0.5071136 1.9607958 -0.48239785
000220 be a7 d0 3e 56 47 50 3e f4 11 ef be f6 f7 f5 3f
       0.40752977 0.20339713 -0.46693385 1.9216297
000230 02 0e 98 be e7 75 83 3f c9 eb a6 3e 07 91 97 3f
       -0.29698187 1.0270356 0.32601765 1.1841134
000240 5e 16 9a bf 6e 55 33 3e f4 fb 48 3e 55 c7 65 3d
       -1.2038076 0.17513058 0.19627362 0.0560983
000250 4c 8b 41 3f f4 58 ed 3e ce 30 03 bf 01 49 cf 3d
       0.75603175 0.46356928 -0.51246345 0.10121346
000260 df f3 ce 3e 5b 17 11 bf 32 a8 4f bf 37 3a 57 bf
       0.40420434 -0.5667626 -0.8111602 -0.84073204
000270 8c cf a5 3e 7a 9c ab 3f 6e a6 43 bf b0 87 47 3f
       0.32384908 1.3407128 -0.76425827 0.7794142
000280 96 06 24 3f f8 8a 03 3f 2c 4b 24 3e 81 c3 aa 3e
       0.6407255 0.51383924 0.16044301 0.33352283
000290 5d 9c d7 3e b6 87 d7 3e c3 51 b1 bf d4 4c 31 bf
       0.42111483 0.42095727 -1.3853077 -0.69257855
0002a0 8b 3c df 3e 00 19 ff 3e f2 9f b6 bd cd f8 3a bf
       0.43600878 0.4982376 -0.08917226 -0.7303589
0002b0 c2 0d d4 be a5 3c 85 3f 87 c8 e6 3f 70 29 9b be
       -0.41416746 1.0409132 1.8029946 -0.30305052
0002c0 94 bc fb 3c 62 54 66 3e ab 48 46 3f d1 7d fc 3f
       0.03072957 0.22493127 0.7745463 1.9725896
0002d0 e8 c3 c4 bf cb f0 77 3e 7c b7 d5 3f cc a8 68 3f
       -1.5372286 0.24212949 1.669662 0.90882564
0002e0 04 0e 24 3f b7 cc 07 3f 66 0d a0 3e 38 b4 0e bf
       0.64083886 0.53046745 0.31260222 -0.5574374
0002f0 4b ab 8c 3f 49 59 46 bd 9e 62 e4 be f6 4d 0d c0
       1.0989774 -0.048424993 -0.4460649 -2.2078834
000300 af 20 d7 3f bc 01 ec 3d 21 d0 1d 3e f6 6f 30 bf
       1.6806849 0.11523768 0.15411426 -0.6892084
000310 c3 ef 5e be 4e 1e b3 bf a2 24 07 c0 bd 21 eb bf
       -0.2177115 -1.3993623 -2.111611 -1.8369671
000320 e4 83 a0 bf ff 84 58 bf 3d 34 a3 bd 41 5f 91 3f
       -1.254025 -0.84577936 -0.07968948 1.1357194
000330 c2 82 1a 3e 61 73 08 3d 6c 65 a4 bf 2e 49 37 bf
       0.15088943 0.03331316 -1.2843451 -0.7159604
000340 42 4b 3e 3f 9d 8f 19 bf cd 7d 40 3f 6c a4 cd 3d
       0.74333584 -0.5998476 0.75191957 0.100411266
000350 7a be 31 40 4e 41 87 3f 9f 86 2f 3f 86 70 91 be
       2.7772508 1.0566804 0.6856479 -0.2840616
000360 d6 ed a2 be 32 9b 46 3f 3d 0e 32 be 42 6e 19 3f
       -0.3182208 0.7758056 -0.17388244 0.59933865
000370 7a 70 4e bd 4a 06 71 3f 8a 5c 95 3f 0a 37 d4 bf
       -0.050400235 0.9415022 1.1668866 -1.6579297
000380 59 de 22 c0 4e b5 f4 be e4 33 15 3f e9 2d d4 bd
       -2.544821 -0.47794574 0.58282304 -0.10360319
000390 40 da b7 3e f5 60 56 3f 08 0a 97 bf 90 5a d5 3d
       0.359087 0.83741695 -1.1799936 0.10417664
0003a0 75 a0 f1 bf 52 14 17 bf c6 78 87 bf a2 44 7c bf
       -1.8877093 -0.5901538 -1.0583732 -0.98542225
0003b0 6b 60 b3 3e 19 af ec bf f5 9a 39 3f 0a a9 c3 bf
       0.350345 -1.8490936 0.7250207 -1.5285962
0003c0 bc 69 ec be 5a f6 93 3f 2d e2 a7 be 8c 18 2c bf
       -0.4617442 1.1559556 -0.32789746 -0.67224956
0003d0 15 cb 0e bf 03 45 d6 3f 58 34 67 3d 62 c8 84 bf
       -0.5577863 1.6739811 0.056446403 -1.0373652
0003e0 c3 ee 41 3f da 87 b7 be 92 c0 b2 3e 35 4d 05 40
       0.75754946 -0.35845834 0.34912544 2.0828373
0003f0 89 21 5c 3f 12 5b 87 bf ce 95 9c 3e d4 14 01 c0
       0.8598867 -1.0574667 0.30583042 -2.0168962

feat.conv3d_1.bias f4 [4, 16]
000000 c6 9a e7 39 4c 5e 0b 39 59 c6 b6 3a 19 f3 91 3a
       0.0004417507 0.00013291201 0.001394461 0.0011135071
000010 f5 1c 9b b9 16 a8 7a 3a eb 48 0b ba 70 3e 7d ba
       -0.00029585478 0.000956179 -0.0005313295 -0.0009660488
000020 65 59 b2 3a cc 2b 83 3a 71 bc d3 39 6c c5 b0 ba
       0.0013606964 0.0010007559 0.00040385456 -0.0013486571
000030 78 17 a3 ba d5 c8 58 b8 6f 8d 87 3a a1 ac 9f ba
       -0.0012442907 -5.1685452e-05 0.0010341833 -0.0012182185
000040 60 d8 d8 b9 48 67 11 b9 92 45 b7 ba d0 ec 91 ba
       -0.00041359942 -0.00013866753 -0.0013982526 -0.0011133198
000050 f3 c2 98 39 53 c0 7b ba 63 2e 0e 3a f1 55 7d 3a
       0.00029136948 -0.00096035487 0.0005423782 0.00096639903
000060 25 e4 b2 ba 20 e4 82 ba 40 36 d2 b9 36 51 b1 3a
       -0.0013648315 -0.00099862 -0.0004009474 0.0013528231
000070 a7 d4 a3 3a ad 00 52 38 76 5e 87 ba 48 1c a0 3a
       0.0012499288 5.006853e-05 -0.0010327834 0.001221546
000080 e8 9a e4 39 8b de 0c 39 96 17 b7 3a 8b 62 92 3a
       0.00043602963 0.00013434344 0.0013968821 0.0011168284
000090 ef 17 9b b9 fe 29 7c 3a 29 7d 0c ba 63 83 7d ba
       -0.00029581736 0.00096192944 -0.00053592265 -0.0009670762
0000a0 1a b4 b2 3a b0 3b 83 3a cf dd d3 39 3c 20 b1 ba
       0.0013633997 0.0010012295 0.00040410316 -0.0013513635
0000b0 fc 9d a3 ba 32 f0 56 b8 fd cc 87 3a cf 10 a0 ba
       -0.0012482996 -5.1245275e-05 0.0010360774 -0.0012212041
0000c0 3e bd d5 b9 49 ab 12 b9 de 1b b7 ba bb 83 91 ba
       -0.00040767522 -0.00013987454 -0.0013970097 -0.0011101881
0000d0 75 e9 97 39 f2 dd 7a ba ea 39 0e 3a 67 e1 7c 3a
       0.00028974903 -0.00095698156 0.00054255 0.00096466247
0000e0 fa b0 b2 ba 18 a4 82 ba 08 b7 d1 b9 26 12 b1 3a
       -0.0013633065 -0.0009967117 -0.00039999955 0.0013509437
0000f0 39 76 a3 3a 1a f2 4c 38 bd 0f 87 ba 9a ed 9f 3a
       0.0012471146 4.8862865e-05 -0.0010304373 0.0012201548

feat.conv3d_1.attention.fc2.weight f4 [4, 1, 1, 1, 1]
000000 c9 03 13 3e bc 1e 0c bf 6a 35 a3 3e 51 7a d5 be
       0.14356913 -0.54734397 0.3187669 -0.41694883

feat.bn2.weight f4 [16]
000000 54 2b 80 3f d7 c0 7f 3f 21 de 7f 3f 10 00 80 3f
       1.0013223 0.99903625 0.99948317 1.0000019
000010 e3 1a 80 3f 61 da 7f 3f 97 b2 7f 3f f3 1e 80 3f
       1.0008205 0.99942595 0.9988188 1.0009445
000020 eb eb 7f 3f c1 2a 80 3f 50 da 7f 3f 96 ec 7f 3f
       0.9996936 1.0013047 0.99942493 0.99970376
000030 17 09 80 3f 19 02 80 3f 05 ea 7f 3f 64 be 7f 3f
       1.0002774 1.000064 0.9996646 0.9989989

feat.bn2.bias f4 [16]
000000 42 0c 0d 3a 10 25 4f ba fc 75 e4 b9 84 44 2d ba
       0.00053805497 -0.0007901946 -0.00043575454 -0.0006609636
000010 34 e7 90 3a 07 fc 3b ba 6f a8 d9 b9 08 5b 40 3a
       0.0011055232 -0.0007171039 -0.00041514958 0.00073377835
000020 74 2b 8b 39 f8 7a 87 b7 89 61 46 ba 29 e1 58 38
       0.0002654452 -1.6150516e-05 -0.00075676345 5.170811e-05
000030 24 39 5f 39 9d 86 89 38 57 e1 cc 39 8e c6 1a 3a
       0.00021288224 6.557743e-05 0.00039077803 0.0005904221

feat.bn2.running_mean f4 [16]
000000 ab b4 ae bd 3d 65 83 3e db 6f 84 be eb ca a9 be
       -0.085305534 0.25663176 -0.2586659 -0.33162627
000010 8c 8d e6 3e 7e df c5 3e 79 b7 91 be 07 54 3e 3c
       0.45029867 0.38647074 -0.2846029 0.011616713
000020 69 17 d5 bd b5 b1 b3 bd 26 98 0f 3e d1 a3 02 bf
       -0.10404856 -0.08774129 0.14022884 -0.51031214
000030 88 36 4b bf d0 15 dc 3e a8 69 bf 3d 42 b5 3f bc
       -0.79380083 0.42985392 0.09346324 -0.01170093

feat.bn2.running_var f4 [16]
000000 08 c4 ac 3f 5f 05 23 40 ef db 95 3f d6 68 09 40
       1.3497324 2.5472028 1.1707743 2.1470237
000010 bd 16 f3 3f 44 34 08 40 5d b7 01 40 06 6e 85 3f
       1.8991314 2.12819 2.0268166 1.0424201
000020 48 4f e6 3f 92 57 ff 3f 59 40 9a 3f 92 c8 34 40
       1.7992945 1.9948599 1.2050887 2.8247418
000030 15 15 78 40 63 7f c3 3f ad a4 4f 3f 87 2d 88 3f
       3.8762867 1.527325 0.8111065 1.0638894

feat.conv3d_2.weight f4 [4, 32, 16, 3, 3, 3]
000000 93 f1 24 bf e5 b9 1b 3e d1 43 39 40 65 79 37 3f
       -0.64431113 0.15207632 2.8947642 0.7166961
000010 93 fb d4 bc 4b 16 39 3f 06 9c 8b bf 11 8a 98 3f
       -0.025998866 0.7229964 -1.090699 1.1917135
000020 91 62 e6 bf f0 08 b1 bf ba 76 3b 3f 03 41 26 3f
       -1.799883 -1.3830853 0.7322804 0.6494295
000030 d1 0b 9a 3f d9 6b 9e 3e 9d fc d4 bf 38 5d 09 3f
       1.2034856 0.30941656 -1.6639591 0.53657866
000040 57 3d b7 3f 11 84 cd be 35 5b 25 3f 51 1c ba 3f
       1.4315594 -0.4013982 0.64592296 1.4539891
000050 cf 0d cf be 7a 47 29 3f d2 57 06 3f 3d 6b 30 40
       -0.40440223 0.6612469 0.52477753 2.7565453
000060 a9 28 da be bc 01 97 3e 61 f0 32 3e b4 78 04 40
       -0.42609146 0.2949351 0.1747451 2.0698671
000070 2c 50 8a bf d6 d8 a5 bf 5c 54 5b 3e ff 5f 75 bf
       -1.0805717 -1.2956798 0.214189 -0.95849603
000080 55 17 48 3d b2 c9 69 bf bb 17 83 3f b2 cd bd 3e
       0.048850376 -0.9132339 1.0241617 0.37070996
000090 46 b8 f8 be 0a a7 dd bd 42 04 77 bf 1d 97 d0 3f
       -0.4857809 -0.10822876 -0.9649087 1.6296116
0000a0 67 59 a3 be 98 c8 83 3f cf 95 27 3b 04 61 9d bf
       -0.31904146 1.0295591 0.002557147 -1.2295232
0000b0 d8 8f ab 3f f3 ca b3 3d 75 26 3e bf 0c 85 91 3f
       1.3403273 0.08778944 -0.7427743 1.1368728
0000c0 26 f0 62 bf 46 12 19 be 34 fa ce 3d 12 df 53 be
       -0.8864769 -0.14948377 0.10106316 -0.20690563
0000d0 21 f3 76 bf 59 a4 b7 be f8 93 ae 3f 60 64 e1 3f
       -0.96464735 -0.35867575 1.3638906 1.7608757
0000e0 b8 0c 1d bf af a4 1e 3e 68 d2 4e be 7d f9 52 3f
       -0.6134753 0.1549251 -0.20197451 0.8241194
0000f0 83 3a c3 3f 6e 61 f9 bd 3e 16 0a bf 07 99 aa 3e
       1.5252231 -0.12176786 -0.5394019 0.33319876
000100 44 e9 a9 bf 9f 3e 15 3d 28 af a3 be bc f8 1c 3f
       -1.3274312 0.036436673 -0.3196957 0.6131704
000110 d9 3c 0d 40 ed 46 5e 3f c7 ba 66 3e fb 96 c3 be
       2.2068388 0.86826974 0.22532187 -0.38201126
000120 43 90 47 3f 92 1e 70 3e 0b 32 23 3e 01 9a 16 3f
       0.779545 0.23449162 0.15937059 0.5882874
000130 c8 49 8f 3e d7 c4 ed bf 3e 60 fa 3e 14 67 9c 3f
       0.27985978 -1.8575696 0.48901552 1.2218957
000140 11 92 1e bc 00 70 b7 bf 85 c1 66 3f ff 27 1e be
       -0.00967838 -1.4331055 0.9013904 -0.15444945
000150 9b 42 14 bf 60 25 a7 bf 24 55 07 40 f3 22 24 bf
       -0.5791413 -1.3058281 2.1145716 -0.6411583
000160 34 6c 99 3f 7f df 4b bf 9d 0a 04 bf 34 22 89 3f
       1.1986146 -0.796379 -0.51578695 1.0713563
000170 a3 fc 51 bf 01 7d 1f be ab 48 5a bf 07 54 74 bf
       -0.8202612 -0.15575029 -0.8526713 -0.95440716
000180 48 63 a1 3f f5 be 94 3f 47 aa 00 3f b4 9f 8c bf
       1.2608423 1.1620775 0.5025982 -1.0986238
000190 31 ef ae be 64 6a 5f bf f1 8b 83 3e 37 74 e0 bf
       -0.34166864 -0.87271714 0.25692704 -1.7535466
0001a0 3c 44 6f bf 69 cf 09 c0 93 67 17 3f c0 87 26 be
       -0.9346349 -2.1532843 0.59142417 -0.16262722
0001b0 03 77 1b c0 2e 22 68 be f2 f7 a0 3e bf 5d b2 bf
       -2.429139 -0.22669289 0.31439167 -1.3934859
0001c0 1d 28 b6 be a0 ed 90 3e dd 2d bd 3e 16 ed d8 3f
       -0.3557748 0.28306293 0.36949053 1.6947353
0001d0 ad 70 d2 3e d1 71 98 bf 29 4f 5f bf 75 cb 8e bf
       0.4110159 -1.1909734 -0.87230164 -1.115584
0001e0 c6 d8 51 bf 6f a0 99 3f 15 13 13 bf c5 7e 1a bf
       -0.81971395 1.2002085 -0.5745099 -0.60349685
0001f0 62 0f 45 3f 83 f0 8e 3e 3e e2 73 bf c8 c9 90 bf
       0.769766 0.2791787 -0.95267093 -1.1311579
000200 d4 59 23 3e 2b 21 c2 be b2 a0 01 c0 0c fa 83 bf
       0.15952235 -0.3791593 -2.025433 -1.0310683
000210 15 ff 3f 3e 8d 68 09 bf 77 2a f5 3f 82 31 e4 bf
       0.1874965 -0.53675157 1.9153584 -1.7827609
000220 89 53 04 3f fb 3e 70 bf d5 61 38 3e f8 b5 92 be
       0.51689965 -0.938461 0.1800607 -0.28654456
000230 ff 7e 2c 3c 9f 7e ec be fa ca ad bf 2a 7c 70 bf
       0.010528325 -0.46190354 -1.3577569 -0.9393946
000240 5a 90 a1 bf 8e 53 c9 3e 0f 32 19 3f 63 21 2e 3f
       -1.2622178 0.3932156 0.5984201 0.68019694
000250 8e 6a 5c 3f 7f c3 d8 be 58 c8 b5 bf 23 bd d6 bf
       0.8610009 -0.42336652 -1.4201765 -1.677647
000260 a4 74 35 bf 40 f8 4b bf 4d 3e d9 bd 24 25 b9 3e
       -0.70881104 -0.79675674 -0.10607586 0.3616115
000270 4e 95 94 bf a9 ac 38 3e 63 7f e4 be 6a e3 07 40
       -1.1608064 0.18034615 -0.44628438 2.1232553
000280 ea c2 06 c0 02 3f 31 c0 33 e5 a8 bf 43 b0 db 3f
       -2.1056466 -2.7694707 -1.3194946 1.7163166
000290 15 28 70 be c1 3b a0 3e 00 60 3c 3d 28 a4 0f bf
       -0.2345279 0.3129559 0.04598999 -0.5610986
0002a0 19 5f 11 c0 59 6c f8 3e be 37 d8 be ee 52 10 3f
       -2.2714293 0.48520163 -0.42230028 0.5637654
0002b0 a5 3b 9b 3f 18 ff 97 bf 4e 22 0b c0 a4 21 66 bd
       1.2127577 -1.1874723 -2.1739688 -0.056184426
0002c0 d8 11 89 bf 2f 7e cb bf 7b f3 94 3e 54 bc 65 3e
       -1.070857 -1.5897883 0.2909201 0.22435123
0002d0 a7 53 d9 3d 57 b6 cb 3e ba 7b 02 c0 0c 55 00 3e
       0.106116585 0.39787552 -2.0388017 0.12532443
0002e0 48 f2 07 40 e1 48 a8 bf 9e 5b 9f 3f f3 7a 43 3e
       2.1241627 -1.3147241 1.2449834 0.1908987
0002f0 e0 8b b2 3f 43 cd 07 bd 6a 3c c7 bf 94 e2 c4 bf
       1.3948936 -0.033154737 -1.5565312 -1.5381646
000300 06 46 03 bf 68 18 2a 3f 49 66 71 3f bf 71 91 bf
       -0.5127872 0.6644349 0.942967 -1.1362838
000310 c6 75 56 3f d3 8d 60 be 3e b3 8f bf 20 ca 8b 3e
       0.8377346 -0.21929102 -1.1226575 0.27302647
000320 2f e6 96 3f b4 94 b7 be 18 07 04 3e 9e 64 e2 bf
       1.1788996 -0.3585564 0.12893331 -1.7686956
000330 19 85 b2 bf 3b 91 1f bf 36 1b f8 bf 6c ff 8c bf
       -1.3946868 -0.6233098 -1.9383304 -1.1015449
000340 45 2a cd 3d 18 d9 54 bf 48 0b d3 be 4d e2 d1 bd
       0.10017828 -0.8314376 -0.41219544 -0.102482416
000350 20 ee c2 bf 48 a7 a2 3f c1 c2 0b 40 55 40 62 bf
       -1.522892 1.27073 2.1837618 -0.8837941
000360 5d 8d de bd 6a f2 98 bf ae 2f 5d be b2 43 41 3f
       -0.10866807 -1.1948979 -0.2160022 0.7549392
000370 0b 58 63 be de 2d 10 bf 6e 31 66 bf 43 74 7a 3f
       -0.22201554 -0.5631999 -0.89919174 0.9783365
000380 97 d8 36 3f 0c 68 0e 3f f0 52 83 be a1 81 cb bd
       0.7142424 0.5562751 -0.25649214 -0.09936834
000390 b4 97 9e be c2 34 58 3f 99 d1 03 bf bd 08 a7 3f
       -0.30975115 0.844555 -0.51491696 1.3049542
0003a0 e5 b6 57 bf ac 98 63 3f c4 18 31 3e 62 a9 78 bf
       -0.8426345 0.88904834 0.17294604 -0.9713346
0003b0 61 04 e9 bf 96 90 87 bf 13 36 3b bf ca 0d 47 3c
       -1.8204461 -1.0590999 -0.73129386 0.012149284
0003c0 cd eb a8 3f f7 ef 62 3f f6 d6 40 3c a2 03 67 3f
       1.3196961 0.8864741 0.011770001 0.9023992
0003d0 a7 12 bb be 37 fd 7f bf dd fa fa bf 93 18 f0 3f
       -0.36537668 -0.9999575 -1.9607807 1.87575
0003e0 57 3c ff bd af 34 1e bf 8c 86 5f 3f 74 85 c1 3f
       -0.12462681 -0.6179914 0.8731468 1.5118852
0003f0 63 a8 ca bf 15 fd 80 3c ee 44 6b 3f 4e 30 a4 be
       -1.5832638 0.015745679 0.91902053 -0.32068104

feat.conv3d_2.bias f4 [4, 32]
000000 bb 74 ae 3a 3d c1 60 3a be af 09 ba e2 4b 88 3a
       0.0013309935 0.00085737166 -0.0005252323 0.0010398591
000010 1b 41 6a 3a b4 cb 98 ba 0f 85 aa ba 62 1c 3f 39
       0.0008936093 -0.0011657388 -0.0013009625 0.00018225753
000020 cf f6 b3 ba c4 d4 b0 ba d1 50 9a 39 ef 8d 5e ba
       -0.0013730171 -0.0013491143 0.00029433382 -0.00084897777
000030 c7 27 aa 3a e9 04 71 3a 0c 26 62 b9 af 80 9e ba
       0.0012981825 0.0009194152 -0.00021567213 -0.0012092794
000040 e7 b9 b3 3a d5 d2 b6 3a 90 d3 ae ba 3d e3 94 ba
       0.001371202 0.0013948331 -0.0013338197 -0.0011359226
000050 db 80 83 ba 75 1f b1 3a ec f7 a2 ba 4c 74 59 ba
       -0.0010032909 0.0013513403 -0.0012433506 -0.00082952227
000060 23 41 b2 3a f9 89 79 3a c5 8a 0b 38 ed 54 83 ba
       0.0013599735 0.0009519156 3.326942e-05 -0.0010019817
000070 89 28 aa 3a ee 83 b2 3a 04 23 11 3a e5 47 a7 b9
       0.0012982051 0.001361964 0.0005536529 -0.00031906288
000080 fa e0 b8 3a ba 81 a8 3a 4c d4 39 3a 6a 17 0a 39
       0.0014105134 0.0012856044 0.00070888246 0.00013169428
000090 4b 60 ac ba 6c 18 38 ba ab c7 b5 ba 26 83 ae ba
       -0.0013151256 -0.0007022682 -0.001386871 -0.0013314232
0000a0 89 a1 72 3a e9 c9 94 3a 9d 49 ac b8 45 68 b2 3a
       0.0009255638 0.0011351678 -8.215311e-05 0.0013611397
0000b0 38 a4 af 3a 65 6b 43 ba 57 8e b6 ba e1 dd b8 ba
       0.0013400381 -0.00074546627 -0.0013927919 -0.0014104211
0000c0 5e e5 ab 3a c2 31 a0 ba f1 c9 5f 3a 2e d8 b2 3a
       0.0013114621 -0.001222186 0.00085368665 0.0013644749
0000d0 22 19 b7 3a 26 a1 b3 3a d6 6d b4 3a 9f 54 83 ba
       0.0013969282 0.0013704642 0.0013765644 -0.0010019726
0000e0 2d 56 ee 39 09 ce 90 3a fc dc 7e 3a 64 ab b5 ba
       0.00045459103 0.0011047731 0.00097222603 -0.0013860282
0000f0 55 72 85 ba cf 48 c6 39 0c 7e 6b 3a f2 a4 9d ba
       -0.0010181168 0.0003781975 0.0008983321 -0.0012027307
000100 cf 59 b9 3a c5 5a ab 3a 8b cd eb 39 c3 f9 77 3a
       0.0014141145 0.0013073316 0.00044975834 0.00094595196
000110 a9 79 a3 ba 28 76 86 ba ae cf b5 ba b5 83 ac ba
       -0.0012472171 -0.0010258602 -0.0013871097 -0.001316181
000120 59 cc 74 b9 14 d5 16 b9 3d d8 b0 b9 12 47 b1 3a
       -0.00023345779 -0.00014384493 -0.00033730446 0.0013525209
000130 88 95 b2 3a a5 d2 36 ba 13 35 a9 ba eb 7e ba ba
       0.0013624886 -0.00069741375 -0.0012909494 -0.0014228498
000140 b6 9f b4 3a b1 7a e9 b6 70 7f c0 38 32 ff af 3a
       0.0013780508 -6.9582243e-06 9.1790105e-05 0.0013427495
000150 09 8e b6 3a b6 bb b5 3a fc cf af 3a 97 d3 6e ba
       0.0013927828 0.0013865146 0.0013413425 -0.0009110509
000160 f3 ac a2 3a 4a c8 9c 3a 4a 8e 79 3a 17 09 b4 ba
       0.0012411162 0.0011961546 0.0009519799 -0.0013735619
000170 a0 52 e6 37 ec ff aa 3a 04 8a 67 3a e3 4b 98 ba
       2.7456612e-05 0.0013046241 0.00088325166 -0.0011619296
000180 6f ee bb ba 55 91 ad ba 1c 12 ab b9 bb 20 88 ba
       -0.0014338027 -0.0013242165 -0.00032629154 -0.0010385731
000190 26 fd 95 3a 70 c9 96 3a 65 bf b6 3a 7c d0 ad 3a
       0.0011443242 0.0011504125 0.0013942538 0.0013260986
0001a0 3c 43 2c 3a dc c0 61 3a fd a6 78 38 5f 55 b0 ba
       0.0006571298 0.0008611807 5.9283328e-05 -0.0013453177
0001b0 32 6b b3 ba 3f 66 eb 39 d9 4f 9f 3a 53 b1 bc 3a
       -0.0013688563 0.00044898872 0.0012154534 0.0014396108
0001c0 6c 16 b8 ba f2 d4 4b ba 30 71 12 3a e5 e9 ad ba
       -0.0014044768 -0.0007775567 0.0005586324 -0.0013268559
0001d0 d6 a8 b8 ba 33 b4 ba ba 2b d8 ac ba 0c e4 89 3a
       -0.0014088403 -0.0014244377 -0.0013186982 0.0010520234
0001e0 c9 0e ab ba 9e 12 9c ba 36 6e 67 ba e6 6e b4 3a
       -0.0013050671 -0.0011907404 -0.00088283734 0.001376596
0001f0 83 db f8 b9 37 30 b7 ba 8a 0a 62 ba 63 c5 95 3a
       -0.00047465795 -0.0013976161 -0.0008622786 0.0011426624

feat.conv3d_2.attention.fc1.weight f4 [5, 16, 1, 1, 1]
000000 fd 64 39 3e 96 7f 65 be 21 ad 27 bd 2f a2 7d 3e
       0.1810493 -0.22411951 -0.040936593 0.247689
000010 d4 55 68 3e 7c c7 74 3e 9f f0 84 3d 16 8b 54 be
       0.22688991 0.23904222 0.06491207 -0.20756182
000020 21 1c 14 bd 97 47 44 3e 80 55 3b be a7 85 32 3e
       -0.03615964 0.19167934 -0.18294334 0.17433797
000030 7f 84 77 3e a1 f6 67 3c c4 21 35 3d 22 6c 7a be
       0.24171637 0.014157922 0.044221655 -0.24455312
000040 54 74 55 be 58 9a 94 bd 56 4a 89 3c ea e7 1f be
       -0.20845157 -0.07256001 0.016759079 -0.15615812
000050 b3 f2 ea 3c 78 b6 11 3e 33 7c 20 3e 38 6e bc 3d
       0.028680181 0.14229763 0.15672378 0.0920071
000060 c1 e9 42 be 8a 8a 3e bd 7c 18 3c 3e 80 8e c3 3d
       -0.19034483 -0.04651884 0.18368715 0.09548664
000070 fd 6b d7 3d 56 7a 17 bd 68 01 75 be 23 bf c6 bd
       0.10518644 -0.036981903 -0.23926318 -0.09704425
000080 db 64 e5 3d 14 d1 0f bd 07 7d 7f 3d cc 2f 0a 3e
       0.11200877 -0.0351115 0.062375095 0.13494796
000090 ad ea 25 be dc 4c 41 be 0c d4 10 be 70 82 32 bb
       -0.16202803 -0.18876976 -0.1414339 -0.0027238391
0000a0 43 2e 0d bd 74 0c 72 3e 8a 22 9e 3d 0e 41 c2 bd
       -0.034467947 0.23637563 0.077214316 -0.094850644
0000b0 0d d5 64 bd 98 84 c3 bd 41 7a 3b 3e ce 46 69 3e
       -0.055867244 -0.095467746 0.18308355 0.22780916
0000c0 9c 3d 2b 3c 6d 04 dd 3d d8 1e 79 3e 52 65 12 be
       0.010451701 0.1079186 0.24328172 -0.14296463
0000d0 33 98 1e be 42 5d d4 bd 38 7a 10 be 7b 27 3f 3e
       -0.15487747 -0.1036935 -0.14109123 0.18667404
0000e0 0c 19 fc 3d 1d af cf 3d 99 34 19 3d 92 58 60 be
       0.12309465 0.10140822 0.037403677 -0.21908787
0000f0 76 eb 7a 3e 99 e3 34 3e 77 c8 85 bb 9a 48 69 be
       0.24503884 0.17664947 -0.004082735 -0.22781602
000100 c0 b3 cf 3d bc 12 73 be 6c 3f 26 bc 29 19 f7 bb
       0.101417065 -0.23737615 -0.010146957 -0.007540841
000110 2e 32 9c 3d 07 0c 49 be e0 9c 6a be c9 a8 1c 3e
       0.076267585 -0.19633494 -0.22911406 0.15298761
000120 bd 3c dc bd 99 b7 03 bd 04 d3 66 3e 4a a8 77 3e
       -0.107537724 -0.032157514 0.22541434 0.24185291
000130 5e d3 c5 3d c4 f9 30 be 82 9e ff 3d 23 65 2c 3d
       0.09659456 -0.17282778 0.12481405 0.04208864

feat.conv3d_2.attention.fc2.weight f4 [4, 5, 1, 1, 1]
000000 cc 50 ad be 27 ff ae 3e f6 2d c8 3e 26 61 c6 bd
       -0.33850706 0.3417904 0.39097565 -0.09686498
000010 24 95 6b be 07 e2 c6 be 36 09 a2 be 03 cd 51 3c
       -0.23006111 -0.3884432 -0.31647652 0.012805226
000020 03 e7 2c 3e f4 e4 32 be 5b 33 d1 be 48 aa 79 be
       0.16884999 -0.17470151 -0.40859494 -0.24381363
000030 a9 3f cc 3d 8b e5 56 3e f7 17 e8 bd 4b dc 5c 3e
       0.0997308 0.20986001 -0.11332696 0.2156841
000040 a6 3b 7f be c5 b3 55 3e e6 f7 82 be e0 ed a8 be
       -0.24925098 0.20869358 -0.25579756 -0.32993984

feat.bn3.weight f4 [32]
000000 8d cd 7f 3f ed ea 7f 3f 60 b1 7f 3f d2 b5 7f 3f
       0.9992302 0.99967843 0.9988003 0.9988681
000010 c9 cb 7f 3f 6a aa 7f 3f b3 ae 7f 3f e4 da 7f 3f
       0.99920326 0.99869406 0.99875945 0.99943376
000020 4d c6 7f 3f 2c b4 7f 3f 81 bc 7f 3f 1b e9 7f 3f
       0.9991196 0.99884295 0.9989701 0.99965066
000030 93 f7 7f 3f af bb 7f 3f 24 cd 7f 3f 8a d8 7f 3f
       0.99987143 0.9989576 0.99922395 0.9993979
000040 ff c2 7f 3f 9d b7 7f 3f de ff 7f 3f 3f f1 7f 3f
       0.99906915 0.99889547 0.999998 0.9997749
000050 1c cb 7f 3f bc be 7f 3f 33 b3 7f 3f 67 e6 7f 3f
       0.99919295 0.9990041 0.9988281 0.9996094
000060 77 d9 7f 3f 87 e5 7f 3f 9e cb 7f 3f 53 bc 7f 3f
       0.999412 0.99959606 0.9992007 0.99896735
000070 70 d1 7f 3f 98 bc 7f 3f c8 e8 7f 3f 6c e6 7f 3f
       0.9992895 0.99897146 0.9996457 0.9996097

feat.bn3.bias f4 [32]
000000 f0 3f 56 ba 48 dc ce 38 3c 70 67 ba 0f 48 66 ba
       -0.00081729796 9.863876e-05 -0.0008828675 -0.0008784541
000010 ed 11 5d ba 46 de b7 ba cf 99 36 ba 51 80 b6 b9
       -0.0008433152 -0.0014028035 -0.0006965668 -0.00034809348
000020 ad b9 94 ba ce 6e b7 ba ae 9c 78 ba d4 4d 5f b7
       -0.001134684 -0.0013994814 -0.00094837963 -1.3309957e-05
000030 96 71 8b 39 eb 85 13 ba ea ee 98 ba 18 e9 82 ba
       0.00026596774 -0.00056275603 -0.0011667882 -0.000998768
000040 6e 82 f3 39 c1 31 3f ba 42 27 b0 ba a1 78 df b9
       0.0004644575 -0.00072934857 -0.0013439434 -0.0004262375
000050 94 da 4e ba 5a ce 36 ba 91 4a 7f ba f7 44 45 ba
       -0.0007890847 -0.0006973498 -0.0009738589 -0.000752523
000060 88 d3 0e 3a 1d 28 b9 b9 6e 56 31 ba 13 af 83 ba
       0.0005448391 -0.00035315836 -0.0006764893 -0.0010046683
000070 ff e8 31 ba 8e cc 45 ba 22 98 18 ba 49 11 e0 b6
       -0.0006786733 -0.00075454346 -0.00058210094 -6.6777325e-06

feat.bn3.running_mean f4 [32]
000000 6c d5 8f c0 ad 69 bd c0 7c e3 5e 40 54 e9 f2 40
       -4.4948025 -5.91915 3.4826345 7.5909824
000010 ea c3 0c 40 54 6b 86 3d 7a b4 3a 40 12 b8 58 40
       2.1994576 0.0656344 2.9172654 3.3862348
000020 69 30 14 bf 32 75 50 bf 51 87 a6 bf 6e 8a 28 c0
       -0.5788637 -0.81428826 -1.3010045 -2.633449
000030 fc 15 de 3f 55 3a 32 3e 2d ba a2 be 96 b2 8a 40
       1.7350459 0.17405064 -0.31782666 4.3343
000040 08 a0 40 c0 e6 bd 06 40 24 42 af bf 3d 8c 7d 3e
       -3.0097675 2.1053405 -1.369206 0.24760528
000050 b1 a6 bc bf 99 03 7f c0 c3 47 23 40 db 81 f0 be
       -1.473837 -3.9845946 2.551255 -0.46974072
000060 25 01 cb 3f 68 bb 56 bf 23 a1 19 40 66 f7 aa c0
       1.5859724 -0.8387971 2.40046 -5.3427
000070 8b 67 30 3f 83 0d 1f c0 7d 6b b4 c0 c2 df 5e 40
       0.68907994 -2.4851997 -5.638121 3.482407

feat.bn3.running_var f4 [32]
000000 e7 e9 f6 42 f2 f0 e7 42 c8 22 ee 42 69 37 18 43
       123.45684 115.9706 119.06793 152.21645
000010 68 56 a8 42 0d 26 b5 42 ad f6 b0 42 05 92 15 43
       84.16876 90.57432 88.48179 149.57039
000020 9f 11 97 42 ea 01 ce 42 d3 fa a6 42 6d d3 85 42
       75.53442 103.00374 83.48989 66.91294
000030 5a da 95 42 e7 cb 96 42 16 8b ad 42 2a 06 d4 42
       74.92647 75.39825 86.77165 106.01204
000040 db c4 d2 42 de 0a 91 42 cb 93 c6 42 10 63 a5 42
       105.38448 72.521225 99.28866 82.69348
000050 fe 05 d3 42 ff 4c a6 42 ba 83 c5 42 64 c7 c7 42
       105.5117 83.15038 98.75728 99.889435
000060 7b 82 8d 42 46 c6 b6 42 1a f6 bc 42 61 84 c0 42
       70.754845 91.38725 94.48067 96.25855
000070 e0 00 92 42 9c 27 a7 42 1e 94 ef 42 47 d1 f2 42
       73.00171 83.57736 119.78929 121.408745

mlp.fc2.weight f4 [10, 6912]
000000 63 fe ca bb 36 aa dd 3b 1f cc c4 bb 2c 22 f7 bb
       -0.006194876 0.0067646755 -0.0060057784 -0.0075419154
000010 d3 33 ef 3b c4 fb f0 3b 81 13 ad bb 9b c6 3f 3c
       0.007299879 0.0073542316 -0.005281866 0.011705066
000020 72 14 0e 3c 91 af d3 ba 7c 48 14 bc 19 fa b2 3b
       0.008671867 -0.0016150345 -0.009050485 0.005461943
000030 a3 93 45 3b 65 f8 09 bc e5 12 1c bc a3 7c 24 3b
       0.0030147813 -0.008421038 -0.009525989 0.0025098703
000040 f5 09 aa bb f6 89 52 bb ca ed 86 3b 41 cf 33 bc
       -0.0051891753 -0.0032125688 0.004117702 -0.010974706
000050 9d d2 8e bb be e2 9a bb 15 40 7b bb bb b3 e8 ba
       -0.004358603 -0.004726737 -0.0038337756 -0.0017753759
000060 02 e9 14 3c 4e ca fb bb e3 af ca ba 39 13 30 3b
       0.0090887565 -0.0076840287 -0.0015463795 0.0026866926
000070 0e 68 b8 38 60 fb 3a bc 94 f2 2a 3c 5a 42 0c 3c
       8.7931854e-05 -0.0114124715 0.010433812 0.008560741
000080 4f f1 9a 3b f7 b8 68 39 97 bf be 3b ed 7c 09 3c
       0.0047284733 0.00022194149 0.005821179 0.008391601
000090 e0 15 1b bc cd 81 d1 3b 81 f9 dd bb f6 3c bc 3a
       -0.009465665 0.0063936473 -0.006774128 0.001436143
0000a0 ae 01 fc 3b e0 50 a9 3a 96 9c ce 3b de 0f 20 bb
       0.00769063 0.0012917779 0.0063052876 -0.002442352
0000b0 f2 37 9c bb 30 5d cd bb d6 84 38 bc 0e 1d 15 b9
       -0.0047674114 -0.0062672123 -0.011262139 -0.00014220571
0000c0 c5 f3 26 bc a7 8f 1a 3c 7c 08 03 3c a0 92 f6 ba
       -0.010189955 0.009433663 0.007997628 -0.0018812008
0000d0 cb 1f d4 bb 4b 75 37 bc ea 75 81 3b a5 0c 12 3c
       -0.0064735166 -0.011197398 0.003950824 0.0089141475
0000e0 d6 10 53 3a 29 d0 f9 bb 3f ea a3 bb ce d6 f9 3a
       0.000805152 -0.0076236916 -0.0050022895 0.0019061209
0000f0 fc e6 1b bc 0b 8a 14 bc 79 5b 3d 3c a3 64 bf bb
       -0.00951552 -0.009066115 0.011557453 -0.0058408543
000100 a0 2e d6 ba 16 15 33 bb 9b 64 c9 bb 8f 89 92 bb
       -0.00163408 -0.00273258 -0.0061460263 -0.0044719647
000110 7f 57 e1 ba 05 3a 13 3b c5 95 f5 3a 1e 7b 24 bb
       -0.0017192214 0.0022465002 0.0018736651 -0.0025097798
000120 fb 0e 02 bc a9 b9 25 3c 52 f4 05 bc f7 1b 3f bb
       -0.007938142 0.010115066 -0.008175926 -0.0029160955
000130 08 64 f1 b9 08 9f 86 bb 53 61 fb ba 50 41 4c 3b
       -0.0004604163 -0.0041083135 -0.0019178785 0.003116686
000140 f7 f7 29 3c 0a 79 9f 3b fb 02 e7 bb 1e d2 1a bc
       0.010374061 0.004866724 -0.007049916 -0.00944951
000150 73 f8 b6 ba c1 5d 38 3c fc 0e c6 3b 55 2b 41 bc
       -0.0013959542 0.011252821 0.0060442667 -0.011790116
000160 7b 06 40 bc 34 cb 26 3c 81 1a 7d bb 95 45 bb 3b
       -0.011720295 0.010180283 -0.0038620534 0.005715082
000170 30 3b 96 3b bb 36 13 3c 2b 7e 26 bc ed 4b 11 3c
       0.0045846924 0.008985217 -0.010161917 0.0088682
000180 a7 61 9f bb 00 69 9d 3b 74 54 9e ba 15 ae 64 bb
       -0.004863936 0.0048037767 -0.0012079612 -0.00348938
000190 e7 11 07 ba 1a 66 39 3c 52 0b c6 b9 a6 56 13 3c
       -0.0005152509 0.011315847 -0.00037773937 0.008992827
0001a0 76 8c 30 3c cb 4d 46 3b d3 6c 44 bb 5e 5a 91 bb
       0.010775676 0.003025877 -0.002997209 -0.0044358214
0001b0 55 d9 05 bb 90 a7 ba 3b 1c 89 21 3b 96 98 4c 3b
       -0.002042373 0.0056962445 0.0024648374 0.0031218878
0001c0 1c 44 08 3c 6e 33 12 bc 61 dc 95 bb c7 7d b2 3b
       0.00831702 -0.008923395 -0.0045733904 0.0054471227
0001d0 42 5b 31 bc 1e 6c 31 bc 7d b2 92 3b 76 0b 85 3b
       -0.01082498 -0.010829 0.004476844 0.004060204
0001e0 51 cf 59 ba 42 0b ce bb 60 32 72 bb 47 69 20 3c
       -0.00083087856 -0.006287963 -0.0036956295 0.009790725
0001f0 7b c7 2e 3c cb 91 36 bc 2d a2 b1 bb 00 c4 15 bc
       0.010667677 -0.011143158 -0.005420944 -0.009140968
000200 94 2b 3e bc 49 91 3d bc 75 36 e3 bb 75 0b 12 3c
       -0.0116070695 -0.011570283 -0.006933982 0.008913864
000210 8d be f8 3b 25 75 81 3a 28 2d 89 38 05 15 b1 bb
       0.007591075 0.0009876831 6.54108e-05 -0.005404117
000220 f1 76 e1 bb 82 65 36 bb ac 7e ab ba 27 3a 16 3c
       -0.006880634 -0.00278315 -0.0013084016 0.009169138
000230 97 3c 32 3c e8 59 3c bb 2a ed ff ba 2a 0b 35 3c
       0.010878704 -0.0028740112 -0.0019525636 0.011050025
000240 b9 ee 9c 3a 16 d9 2e 3a 72 13 bb 38 d4 23 d2 bb
       0.0011973 0.00066699216 8.920477e-05 -0.0064129625
000250 9a 2f 83 3b 6d ef 7a b8 02 99 09 bb 34 a6 07 bb
       0.0040034773 -5.9827627e-05 -0.002099574 -0.002069843
000260 84 9d e9 ba 9b 0b ff bb 2d 63 69 3b 94 e1 44 bc
       -0.0017823433 -0.007783366 0.0035612092 -0.012016673
000270 34 06 12 bb 32 ce bf bb bf 65 f5 bb 54 51 75 bb
       -0.002228153 -0.005853438 -0.0074889357 -0.0037432509
000280 aa 27 b9 bb 99 7c 34 bc 65 7d f0 ba 46 69 8e 3b
       -0.0056504803 -0.0110160345 -0.0018347917 0.0043460457
000290 a2 95 88 3a 6d 48 9c 3b 33 b1 23 bc 26 e1 2f 3c
       0.0010420571 0.004769376 -0.009990978 0.010734832
0002a0 bf ce 3f 38 0d 26 6a bb e4 94 e2 3b 21 b6 0f bc
       4.5730496e-05 -0.0035728246 0.006914722 -0.00877145
0002b0 31 84 d9 3b bc e4 07 bc dc 12 73 bb 20 c9 a9 3b
       0.006638073 -0.008294281 -0.0037090098 0.0051814467
0002c0 8d a6 21 3c 63 ab 29 bc 6d b2 3f bc 14 45 2d ba
       0.009866369 -0.010355803 -0.011700255 -0.000660972
0002d0 31 91 9c 3b af 67 0f ba e5 46 ae bb 23 6e 62 bb
       0.0047780504 -0.0005470467 -0.00531851 -0.003455051
0002e0 aa e1 02 3b a7 aa 01 3c 80 00 38 bc 80 5b 99 3a
       0.0019970932 0.007914222 -0.011230588 0.0011700243
0002f0 ea fa c5 bb 71 ac 41 bb 6a f7 ad 3b 92 93 09 bb
       -0.006041874 -0.0029552246 0.005309035 -0.00209925
000300 95 20 3c bc 64 65 04 3b 04 9d 0d 3c 3c ad a8 bb
       -0.011482378 0.0020202035 0.0086433925 -0.0051476043
000310 99 c6 72 b9 c9 7a 23 bc 43 59 15 bc 94 5d d1 ba
       -0.00023152902 -0.009978005 -0.00911552 -0.0015973323
000320 7a 5c 4e b9 a6 b3 1d 3b 72 0f c9 3b b6 7e 82 bb
       -0.00019680141 0.0024063378 0.0061358744 -0.0039823903
000330 cf 2d d9 3a 7b c2 ab bb c8 d8 fa 3b 9b 2c c9 3a
       0.0016569438 -0.0052416897 0.007655237 0.0015348376
000340 02 0a c4 bb 9f 65 06 bc 18 7b f8 bb f5 53 18 bc
       -0.0059826383 -0.008202939 -0.0075830333 -0.009297361
000350 db ff 00 3c 01 0c 2a bc 5c 55 6d 3a ef da 75 bb
       0.007873501 -0.0103788385 0.0009053552 -0.0037514528
000360 98 84 3a 3c 40 d9 25 3c 92 b4 b3 bb cc 2b e1 3b
       0.011384152 0.010122597 -0.005484172 0.006871676
000370 da ee 15 bc 52 25 f5 bb 27 dd 2b 3c b0 72 98 3b
       -0.009151185 -0.0074812556 0.010489739 0.0046523437
000380 4f bb 2e 3c 42 a0 40 3c a4 32 38 3c 92 38 06 bc
       0.010664775 0.011756958 0.011242542 -0.008192198
000390 49 e8 99 3a 91 c5 87 3b 10 2b a5 3a 19 09 45 3b
       0.00117422 0.004143425 0.0012601335 0.0030065237
0003a0 01 94 ce bb c6 a5 25 bc b6 80 b0 3b 78 92 88 3b
       -0.0063042645 -0.010110324 0.0053864373 0.004167851
0003b0 59 1f d6 3b 64 a1 10 3c 2d b3 20 3c ae 8d 17 bc
       0.0065344987 0.008827541 0.009808344 -0.009250088
0003c0 cf cc 17 3c de 7e 33 bb a4 2f 01 bc d8 33 09 3b
       0.009265139 -0.002738885 -0.007884894 0.0020935442
0003d0 94 10 27 bb 25 5d fd 3b 87 ba 4e bb 74 5c d4 3b
       -0.002549206 0.007732051 -0.0031544284 0.006480748
0003e0 a0 0f 0b bc ff 48 07 3c a3 01 e8 3a df f3 37 3c
       -0.008487612 0.00825715 0.0017700683 0.011227577
0003f0 1f 67 d0 3b 6e 7e 35 bc 8c 0a 31 3c cf 60 9b 3b
       0.0063599492 -0.0110775065 0.010805737 0.004741765

mlp.fc2.bias f4 [10]
000000 ac ef db bb b8 4f d6 39 13 dc 0e bc 7b 9c 14 bc
       -0.0067119207 0.00040876656 -0.008719462 -0.009070511
000010 e6 3e d9 bb 37 b8 d1 bb 7e 59 33 bc ed 07 fa bb
       -0.0066298125 -0.006400134 -0.01094663 -0.0076303394
000020 01 f6 44 bb 7e 98 0a ba
       -0.0030053856 -0.00052870053
