cls/cls_model_4172.pth (torch, 158979 bytes, 17 tensors)

feat.conv3d_1.weight f4 [4, 8, 1, 5, 5, 5]
0	0x3f80c58d	1.0060288
1	0xbfaa7c3a	-1.3319161
2	0x3b8bf12b	0.004270693
3	0xbe3fe9f2	-0.18741587
4	0xbfc1f09b	-1.5151552
5	0x3e28f0ed	0.16498156
6	0xbfa00804	-1.2502446
7	0xbde51f0e	-0.11187564
8	0x3fd215e1	1.6412927
9	0xbed3bcf5	-0.413551
10	0x3dbe2b52	0.092856064
11	0xbfcab35c	-1.5835986
12	0xbfcb6534	-1.589026
13	0xc0285e89	-2.63077
14	0x3f72498a	0.9464346
15	0x3f6dbf18	0.9286971
16	0x3f9a31ca	1.2046444
17	0xbf5a99ca	-0.85390913
18	0x3ea94545	0.3306066
19	0x3e8051c8	0.25062394
20	0x401507fc	2.3286123
21	0x3e8aa95f	0.27082345
22	0xbf345e90	-0.7045679
23	0xbd6da471	-0.05801815
24	0x3ee40bc4	0.44540226
25	0xbf07d436	-0.53058183
26	0xbfeaca1e	-1.8342931
27	0x3e4b8735	0.19875796
28	0x3f17fa4e	0.5936631
29	0x3ee30841	0.44342235
30	0x3fe6fba1	1.8045541
31	0x3f146ade	0.57975566
32	0x3f06a930	0.5260191
33	0xbf854244	-1.0410848
34	0xbdf5bb69	-0.11998636
35	0x3f8d5fcd	1.1044861
36	0xbee19e37	-0.4406602
37	0xbf524994	-0.8214352
38	0xbf5440eb	-0.82911557
39	0x3ac3993d	0.0014922988
40	0xbe9d45bb	-0.30717263
41	0x3f08f250	0.5349474
42	0x3eb58e06	0.35459918
43	0x3f75e420	0.96051216
44	0xbeb4833e	-0.3525638
45	0xbe3e8d24	-0.18608528
46	0x3f0723cd	0.52789
47	0xbfe91075	-1.8208147
48	0x3e4fcc09	0.20292677
49	0xbfed40be	-1.8535383
50	0xbe9f7c62	-0.31149584
51	0x3fa26d6a	1.268964
52	0xbe44c5f8	-0.19216144
53	0x3f4e18e2	0.8050672
54	0x3fc241f0	1.5176373
55	0xbf9e9b7e	-1.2391202
56	0x3eb92597	0.3616149
57	0x3f88fdfd	1.0702511
58	0x3fcd2912	1.6028159
59	0x3e23c192	0.1599181
60	0xc01f5ea2	-2.490151
61	0x4014de68	2.3260746
62	0x3cf1dc8c	0.02952411
63	0xbe19ef6d	-0.1503274
64	0xc02760ec	-2.6152906
65	0xbfae6be7	-1.3626679
66	0xbef41d9b	-0.47678837
67	0x3f100fa9	0.56273896
68	0xbf6ea245	-0.93216354
69	0x3db52f9e	0.08846973
70	0xbf9d9daf	-1.2313746
71	0xbf99a81a	-1.2004426
72	0x3d8d2f68	0.06893808
73	0x3fa01eba	1.2509377
74	0x3fcfe13b	1.624061
75	0xbea9e64c	-0.33183515
76	0x3ee66cbd	0.45004836
77	0x3e603348	0.21894562
78	0xbfde29e4	-1.7356534
79	0x3f05eda9	0.52315766
80	0x3feb0ead	1.8363854
81	0x3f6b2b54	0.9186299
82	0xbf4ceb49	-0.80046517
83	0x3f0e08c6	0.5548214
84	0x3d2f0c63	0.042736422
85	0x3db0081a	0.08595295
86	0x3da08d7f	0.07839488
87	0x3efedbd1	0.49777082
88	0xbf8c4584	-1.0958714
89	0x3ea97a3d	0.33101073
90	0xbfdef38f	-1.7418078
91	0xbe7b6177	-0.24548899
92	0x400b6478	2.1780071
93	0x3e46d456	0.19416937
94	0x3f1a7258	0.60330725
95	0xbf6cebbc	-0.925472
96	0xbfaa09fc	-1.3284297
97	0xbf88807a	-1.0664208
98	0x3ed1d746	0.40984553
99	0xbf0735d1	-0.5281649
100	0x3eded6fc	0.43523395
101	0x3f80c8b8	1.0061255
102	0x3f104811	0.56359965
103	0xbf066d12	-0.5251018
104	0x3f076be6	0.52899015
105	0x3f5e9469	0.86945206
106	0xbd86de09	-0.065853186
107	0x3ee554d2	0.44791275
108	0x3ea407f5	0.3203732
109	0xbc0a184d	-0.008428645
110	0x3e331374	0.1748789
111	0x3f822e04	1.0170293
112	0x3e87c200	0.26515198
113	0xbf2af6e4	-0.66782975
114	0x3f9b9601	1.2155153
115	0x3f6c0978	0.9220195
116	0x3e124be8	0.14286768
117	0xbbd66e1b	-0.0065438873
118	0xbf2059d9	-0.62637097
119	0x3e47e5d8	0.19521272
120	0xbf7b24e8	-0.9810319
121	0x3d158f81	0.03651381
122	0xbfab7236	-1.339423
123	0x3e0603f1	0.13087441
124	0xbdb4c40c	-0.088264555
125	0xbec262eb	-0.37966093
126	0x3f4e6c12	0.8063365
127	0x3fe05ae3	1.7527736
128	0x3e8e5eb4	0.27806628
129	0xbfefbae1	-1.8728906
130	0x3f7edd9f	0.99556917
131	0x3f9ff9da	1.2498124
132	0xbef37f17	-0.475579
133	0xbf588ee9	-0.84593064
134	0xbee4df7a	-0.4470175
135	0x3dca025d	0.09863732
136	0x3e11aca6	0.14226016
137	0x3f365629	0.7122522
138	0x3e3303a1	0.17481853
139	0x3db29810	0.0872041
140	0x3f500e07	0.81271404
141	0xbf15ec43	-0.5856363
142	0xbfaaa425	-1.3331343
143	0x3f25eecc	0.648175
144	0x3e95d0cc	0.29260862
145	0xbfc14fd8	-1.5102491
146	0x3fe7e3ba	1.8116372
147	0x3f18c60c	0.59677196
148	0xbec07d12	-0.3759542
149	0x3f7324e3	0.9497816
150	0x3f6610ef	0.8986959
151	0x3e9e5bce	0.30929416
152	0x3f89a899	1.0754577
153	0xbf9c6b0c	-1.2220168
154	0x3eb92e34	0.36168063
155	0xbfaf157f	-1.3678435
156	0xbd4e0c0a	-0.05030445
157	0xbed4bff9	-0.41552714
158	0xbf48a853	-0.7838184
159	0x3d1e6491	0.038670126
160	0xbe8df24c	-0.2772392
161	0x3f7e8aee	0.9943074
162	0xbed85805	-0.42254654
163	0x3e373ccd	0.17894287
164	0x3f53afd8	0.8269019
165	0x3fbc9e32	1.4735777
166	0x3ea1865f	0.3154783
167	0xbf66908e	-0.9006432
168	0x3e236873	0.15957813
169	0xbea72db6	-0.32652062
170	0xbfaecd54	-1.3656411
171	0x3fea5ffe	1.8310544
172	0x3d78752d	0.060658623
173	0x3e7eb216	0.24872622
174	0x3f800225	1.0000654
175	0xbfc10c75	-1.5081927
176	0x3ea46276	0.3210637
177	0xbee4f31e	-0.44716734
178	0xbd94317a	-0.072359994
179	0xbf3b92f0	-0.73271084
180	0xbec88154	-0.3916117
181	0xbf4dfa50	-0.8046007
182	0xbe5ff92e	-0.21872398
183	0xbf1f8fa8	-0.6232858
184	0xbdd0628a	-0.10175045
185	0xbe45f5b6	-0.19332013
186	0xbeba2ab5	-0.36360708
187	0xbfa43921	-1.2829934
188	0x3d6aa1c4	0.057283178
189	0x3edaec82	0.42758566
190	0x3f6a4a06	0.915192
191	0xbf25b1b6	-0.6472429
192	0x3f1f2cae	0.6217755
193	0x3fb1ed4d	1.3900543
194	0x3f17f735	0.59361583
195	0xbf046dc5	-0.51729995
196	0xbf2afccd	-0.66791993
197	0xbf7d061c	-0.9883745
198	0xbf8185ba	-1.0118935
199	0xbec4a659	-0.38408163
200	0xbf907561	-1.1285821
201	0x3f93d56f	1.154951
202	0x3ec5d84d	0.38641587
203	0xbf2a1857	-0.6644339
204	0xbfd94e3c	-1.6977
205	0x3e647c72	0.22313097
206	0x3fa44611	1.2833883
207	0x3eb24a0e	0.34822124
208	0xbfc3b7b2	-1.5290434
209	0x3eae9bb6	0.34103173
210	0xbc5da273	-0.0135275
211	0xbecef416	-0.40420598
212	0xbee3ef9c	-0.44518745
213	0x3f9ac9e0	1.2092857
214	0xbefddd2b	-0.495828
215	0x3e87e780	0.26543808
216	0x3f5a21f8	0.8520808
217	0x3e298285	0.16553695
218	0xbd83f7c6	-0.064437434
219	0xbe078000	-0.13232422
220	0xbfc33ff4	-1.5253892
221	0x3fb987ac	1.4494529
222	0x3f0ada6e	0.5423955
223	0xbf07cbc1	-0.5304528
224	0xbfada5fb	-1.3566278
225	0xbfaa913c	-1.3325572
226	0x3e501bec	0.20323151
227	0xc015345f	-2.3313215
228	0x3f2b8bd3	0.6701023
229	0xbe0aad16	-0.1354259
230	0xbf93e726	-1.1554916
231	0x3ed8c709	0.42339352
232	0x3fe691c0	1.8013229
233	0x3f7a44c6	0.9776119
234	0xbe1bcd65	-0.1521507
235	0x3f2037b3	0.6258499
236	0x3fa97cf0	1.3241253
237	0x3e44f876	0.19235405
238	0x3fba0489	1.4532634
239	0xbe480ee0	-0.19536924
240	0xbdf81cfa	-0.12114902
241	0xbf18e310	-0.5972147
242	0x3f56a9ef	0.8385305
243	0x3def0dcb	0.11672553
244	0x3f6922b7	0.91068596
245	0xbed9ec81	-0.4256325
246	0x3f12bbd5	0.5731786
247	0x3efd3acc	0.4945892
248	0x3fb27ed6	1.3944957
249	0xbe8b5f10	-0.27220964
250	0x3ecd3f8e	0.4008755
251	0x3e66d0a4	0.22540528
252	0xbfc264b3	-1.5186981
253	0xbd2982bd	-0.041384447
254	0xbf40eff8	-0.75366163
255	0xbf4b2a18	-0.79361105

feat.conv3d_1.bias f4 [4, 8]
0	0xb8a00c85	-7.6317265e-05
1	0x399e2815	0.00030165972
2	0x37eb40b8	2.804432e-05
3	0xb8c9d89c	-9.6247735e-05
4	0xb7284e5f	-1.00318275e-05
5	0x3a028636	0.00049791054
6	0xb7e6f528	-2.7532296e-05
7	0xb9a9360a	-0.00032274454
8	0xb8a00c85	-7.6317265e-05
9	0x399e2815	0.00030165972
10	0x37eb40b8	2.804432e-05
11	0xb8c9d89c	-9.6247735e-05
12	0xb7284e5f	-1.00318275e-05
13	0x3a028636	0.00049791054
14	0xb7e6f528	-2.7532296e-05
15	0xb9a9360a	-0.00032274454
16	0xb8a00c85	-7.6317265e-05
17	0x399e2815	0.00030165972
18	0x37eb40b8	2.804432e-05
19	0xb8c9d89c	-9.6247735e-05
20	0xb7284e5f	-1.00318275e-05
21	0x3a028636	0.00049791054
22	0xb7e6f528	-2.7532296e-05
23	0xb9a9360a	-0.00032274454
24	0xb8a00c85	-7.6317265e-05
25	0x399e2815	0.00030165972
26	0x37eb40b8	2.804432e-05
27	0xb8c9d89c	-9.6247735e-05
28	0xb7284e5f	-1.00318275e-05
29	0x3a028636	0.00049791054
30	0xb7e6f528	-2.7532296e-05
31	0xb9a9360a	-0.00032274454

feat.conv3d_1.attention.fc2.weight f4 [4, 1, 1, 1, 1]
0	0xbf5a2e3a	-0.85226786
1	0xbe8b3268	-0.27186894
2	0xbcca1540	-0.024668336
3	0x3f2215b8	0.6331439

feat.bn2.weight f4 [8]
0	0x3f802e70	1.0014172
1	0x3f80162b	1.0006765
2	0x3f7fdd9d	0.9994753
3	0x3f7fa052	0.99854004
4	0x3f802a53	1.0012916
5	0x3f7fa9b2	0.9986831
6	0x3f7fc9b5	0.99917156
7	0x3f8024a7	1.0011185

feat.bn2.bias f4 [8]
0	0x3ac25171	0.0014825297
1	0x3ab5175e	0.0013816168
2	0x3a4d31ee	0.00078275695
3	0xbab94a87	-0.0014136591
4	0x3ab0d3c1	0.0013490842
5	0xba7c45e0	-0.00096234493
6	0xba302340	-0.000671912
7	0x3ab1cded	0.0013565399

feat.bn2.running_mean f4 [8]
0	0x3eee79ca	0.46577293
1	0x3eba0e39	0.36338976
2	0x3ec3cb0e	0.38240856
3	0x3ee5fe12	0.44920403
4	0x3f6b4e18	0.91916037
5	0xbe9be059	-0.304446
6	0x3d6a0881	0.057137016
7	0xbdef10f7	-0.11673158

feat.bn2.running_var f4 [8]
0	0x40112cbd	2.2683556
1	0x3fcc00e2	1.593777
2	0x40094c70	2.1452904
3	0x40558ae1	3.3366015
4	0x408f57f8	4.4794884
5	0x3fc0db13	1.5066856
6	0x3ff32489	1.8995525
7	0x3f5e95ad	0.8694714

feat.conv3d_2.weight f4 [4, 16, 8, 3, 3, 3]
0	0xbe49fdd2	-0.19725731
1	0x400e1605	2.220094
2	0xbf5cfa72	-0.8631965
3	0xbd691f46	-0.05691459
4	0xbe3ba792	-0.18325642
5	0x3f592470	0.84821224
6	0x3f0d49a7	0.5519051
7	0x3f6fae69	0.93625504
8	0x3f26896e	0.6505345
9	0x3f590c38	0.8478427
10	0x3f0c9067	0.5490784
11	0x3f371a0c	0.7152412
12	0xbf7af77d	-0.9803389
13	0xc001d0e5	-2.028375
14	0xc010452c	-2.254222
15	0x3f04ec9d	0.51923543
16	0x3fe385b7	1.7775182
17	0x3e3a081d	0.18167157
18	0xbfc48ee1	-1.5356103
19	0xc02746db	-2.6136997
20	0x3f2749d6	0.6534704
21	0x3f2c7125	0.67360145
22	0x3e4adbca	0.19810405
23	0x3f240f21	0.64085585
24	0x3fad8d43	1.3558735
25	0xbfde82ed	-1.7383705
26	0xbda09e1e	-0.078426585
27	0xbf0236c9	-0.50864846
28	0x3fc96937	1.5735234
29	0xbea7080c	-0.32623327
30	0x3f046df4	0.51730275
31	0x3e9a9482	0.30191427
32	0xbf040130	-0.5156431
33	0x3f89878e	1.0744493
34	0x3fa5b551	1.2945958
35	0x3f46e30c	0.77690196
36	0xbca0dbaa	-0.019635994
37	0x3eea17c9	0.45721272
38	0x3ead2ed7	0.33824798
39	0xbffc8c41	-1.9730302
40	0xbf6c4f13	-0.9230816
41	0xbf149ea7	-0.58054584
42	0xbdb73d62	-0.08947255
43	0x3ff6687e	1.9250638
44	0xbf14966b	-0.5804202
45	0xbf922f01	-1.1420594
46	0x3e7c541d	0.24641462
47	0x3e70a107	0.23498927
48	0x3d1e3f50	0.0386346
49	0xbe948aa0	-0.29012012
50	0x3e03b2e0	0.12861204
51	0xbed1083e	-0.408266
52	0xbdc43542	-0.095804706
53	0xbe899108	-0.26868463
54	0xbf2699c7	-0.65078396
55	0x3e216b9b	0.15763704
56	0xbdbb1415	-0.0913469
57	0xbf72c635	-0.9483369
58	0xbedfcc7e	-0.43710703
59	0xbe1ac9e3	-0.15116076
60	0x3f42a495	0.7603238
61	0x3f00422e	0.5010098
62	0xbf2323c1	-0.6372643
63	0xbf999205	-1.1997687
64	0xbfe13af1	-1.7596112
65	0x3f838ea2	1.0277903
66	0xbf2a7f44	-0.6660044
67	0xbeace2a7	-0.33766672
68	0x3e538cfd	0.20659252
69	0x3fc36d0a	1.5267651
70	0xbf62de52	-0.88620484
71	0x3f8029f3	1.0012802
72	0x3f00c81f	0.5030536
73	0xbf47e777	-0.7808756
74	0xbffbee6a	-1.9682133
75	0xbfe896fa	-1.8171074
76	0xc00db554	-2.2141924
77	0x3e27845b	0.16359083
78	0x3ea7f9b7	0.32807705
79	0xbf3f47e6	-0.74719083
80	0xbf290b67	-0.66033024
81	0x3e9e1260	0.30873394
82	0x3f1662fd	0.58744794
83	0xbfea0781	-1.828354
84	0xbf83eaab	-1.030599
85	0x3e5278d8	0.2055391
86	0x3d3992d2	0.045306034
87	0x3f2b3444	0.66876626
88	0xbeaf4996	-0.3423583
89	0x3ed60de5	0.41807476
90	0x3f22f16b	0.63649625
91	0xbec25077	-0.37952015
92	0x3f11786f	0.5682439
93	0xbf37d4b3	-0.7180893
94	0xbf9e48d6	-1.2365978
95	0xbfa44e68	-1.2836428
96	0x3ed451e6	0.41468734
97	0x3f596c09	0.84930474
98	0x3fdbc850	1.7170506
99	0xbe421cfa	-0.18956366
100	0x400481f2	2.0704312
101	0x3f600c40	0.8751869
102	0xbf850ff3	-1.0395492
103	0xbf040b91	-0.5158015
104	0x3e664564	0.22487408
105	0xbf4f831e	-0.81059444
106	0x40053160	2.0811386
107	0xbf56b25c	-0.83865905
108	0x3fa7f2b4	1.3120942
109	0x3fa757de	1.307369
110	0x4024ccfe	2.5750117
111	0x3ef972fd	0.48720542
112	0xbda0920d	-0.07840357
113	0xbfa056ab	-1.2526449
114	0x3f16951d	0.5882128
115	0xbf9b394e	-1.2126863
116	0x3d1ad819	0.037803743
117	0x3f86d311	1.0533162
118	0x3f173c6b	0.59076566
119	0xc01d6004	-2.4589853
120	0x3f5a50fe	0.85279834
121	0xbfac8d53	-1.3480629
122	0xbeaa4ab5	-0.33260122
123	0xbe4e1756	-0.2012609
124	0xbfb09f11	-1.3798543
125	0x3fa174ac	1.261373
126	0xbf52a76d	-0.8228672
127	0x3ed3c7c6	0.41363353
128	0x3f837398	1.0269651
129	0xbf25753b	-0.64632004
130	0xbee87fe5	-0.45410076
131	0x3f4eb2c4	0.80741525
132	0x3f61dacf	0.882245
133	0x3f9e358a	1.2360089
134	0x3f823c36	1.0174625
135	0xbc82d483	-0.015970474
136	0xbeb3832a	-0.35061008
137	0xbfae99c5	-1.3640677
138	0x3e9632a9	0.29335526
139	0xbfafcf58	-1.3735151
140	0x3c61d75c	0.013784256
141	0x4006258d	2.096042
142	0xbf31ac7a	-0.69403803
143	0x3e2c3fba	0.16821185
144	0x3f12bc86	0.57318914
145	0x40028bf9	2.0397933
146	0x3e1e24d3	0.15443735
147	0xbf8b4751	-1.0881139
148	0xbfbb5824	-1.4636273
149	0xbfb9fa77	-1.4529561
150	0xbfbe9f06	-1.489228
151	0xbf13ca65	-0.57730705
152	0x3e43256f	0.19057249
153	0x3e833f83	0.25634393
154	0xbfcada26	-1.5847824
155	0xbee0923c	-0.43861568
156	0xbf98661d	-1.1906163
157	0x3dd2fb6f	0.103018634
158	0xbf4804aa	-0.78132117
159	0xc0129875	-2.2905552
160	0xbee09311	-0.43862203
161	0xbed12a07	-0.40852377
162	0x3fe62963	1.798138
163	0xbf4660ef	-0.7749166
164	0x3fb88d85	1.4418188
165	0xbf0be663	-0.5464842
166	0xbfad42e8	-1.3536043
167	0x3f5c5efe	0.86082447
168	0xbfe5abd2	-1.794306
169	0xbdfac8ba	-0.12245317
170	0xbdd58ba7	-0.10427027
171	0x3ecad712	0.3961721
172	0x3ea8a255	0.3293635
173	0xbf72c519	-0.94832
174	0xbf473e04	-0.77829003
175	0x3f257f15	0.64647037
176	0xbff72a2d	-1.9309746
177	0xbf362b3b	-0.71159714
178	0xbec8f357	-0.39248154
179	0xbf844149	-1.0332423
180	0x3f033be0	0.51263237
181	0xbede31bf	-0.43397328
182	0xbea84da7	-0.32871744
183	0x3f98ffc2	1.1953051
184	0x3ea562d2	0.32301956
185	0x3f1b7ad8	0.6073432
186	0xbe7f5ac0	-0.24936962
187	0x3f9a711f	1.2065772
188	0x3fb16204	1.3858037
189	0xbf00c042	-0.5029336
190	0xbff44357	-1.908305
191	0x3fb59535	1.4186159
192	0xbfb442f0	-1.4082928
193	0x3f49db33	0.78850096
194	0xbf230af7	-0.63688606
195	0x3fd0fc91	1.6327077
196	0x40269c8d	2.603305
197	0xbedfe0ec	-0.4372629
198	0x3f0d9e24	0.5531943
199	0xbf67bc08	-0.9052129
200	0xc01408bc	-2.313033
201	0x3eac06ef	0.3359904
202	0x3f434582	0.76277936
203	0x3f9ae0ab	1.2099813
204	0xbd985c04	-0.074394256
205	0x3fb6f213	1.4292625
206	0x3ed8181d	0.42205897
207	0xbf158f21	-0.5842152
208	0xbe067697	-0.13131176
209	0xbfad3c48	-1.3534021
210	0x3ee18562	0.44047076
211	0xbe4b80cd	-0.19873352
212	0xbec5002c	-0.38476694
213	0xbe968d8b	-0.29404864
214	0xbf92b2d1	-1.146082
215	0x3f2bd460	0.67120934
216	0xbf847471	-1.0348035
217	0x3f8a2870	1.079359
218	0xbff176d9	-1.8864394
219	0xbf9f23d1	-1.2432805
220	0x3ed30bc7	0.41219923
221	0x3e8f3c59	0.2797573
222	0x3fc7bdd3	1.5604805
223	0xbefa77d8	-0.4891956
224	0x3f64eaa7	0.8942055
225	0xbf5b214c	-0.8559768
226	0x3f8c59c5	1.0964895
227	0x3efa6596	0.4890563
228	0x3f9bf0ec	1.2182899
229	0xc006270f	-2.096134
230	0xbdc5c384	-0.09656432
231	0xbf151446	-0.5823406
232	0xbf8be743	-1.092995
233	0xbf305b60	-0.6888943
234	0xbdce1404	-0.100624114
235	0xbf6a9ca5	-0.9164527
236	0xbf1a2f97	-0.60228866
237	0xbda62458	-0.08112401
238	0x3f848183	1.0352024
239	0xbf4de29c	-0.80423903
240	0x3fd462fd	1.6592709
241	0x3fdba6c8	1.7160273
242	0xbf1398e8	-0.5765519
243	0x3e49a6e7	0.19692574
244	0xbfc2263f	-1.5167922
245	0x3e9973a8	0.2997105
246	0x3ff1f94c	1.8904204
247	0xbe853865	-0.26019588
248	0x3fa80027	1.3125046
249	0xbe528bbf	-0.20561121
250	0x3f931ee4	1.1493802
251	0x3e5f35ac	0.21797818
252	0xbf618dfe	-0.8810729
253	0x3e8d400e	0.27587932
254	0x3e8cb3d3	0.27480945
255	0xbe409920	-0.18808413

feat.conv3d_2.bias f4 [4, 16]
0	0x3aaf2679	0.0013362906
1	0xb9c215cf	-0.00037018812
2	0x3a719fc8	0.00092172297
3	0x3a968728	0.0011484371
4	0x3963411a	0.00021672659
5	0x3a035867	0.00050104264
6	0xba994a3c	-0.0011695097
7	0xba967291	-0.0011478235
8	0xbaa685e5	-0.0012704699
9	0x3a3ec523	0.00072773005
10	0x3a9e892b	0.0012095323
11	0xba63100c	-0.0008661754
12	0x3a996b9a	0.0011705041
13	0x3ab5c465	0.0013867734
14	0x3aa28e32	0.0012401997
15	0xb94d7f1e	-0.00019597678
16	0x3aa66b36	0.0012696746
17	0xba975ca5	-0.0011547996
18	0x3a946e00	0.0011324286
19	0x3a957427	0.0011402414
20	0xb91ba67c	-0.00014843972
21	0x3a4050e4	0.00073362724
22	0xba899586	-0.0010496832
23	0xba9b1f48	-0.0011834884
24	0xbaa70e4a	-0.0012745347
25	0x3a106abb	0.0005509068
26	0x3a9782a7	0.0011559323
27	0xba14eb37	-0.00056808017
28	0x3a88d02b	0.0010438015
29	0x3ab2dea8	0.0013646679
30	0x3a981674	0.0011603371
31	0xb75ad9ac	-1.3044493e-05
32	0xbab9c6be	-0.001417361
33	0x3a96d6e9	0.001150814
34	0xbab6f2ef	-0.0013957898
35	0xb8843b21	-6.305264e-05
36	0xba491ab7	-0.00076715223
37	0xbaaa0d47	-0.0012973928
38	0x3aae8312	0.0013314208
39	0x39078622	0.00012924572
40	0x3ab150f0	0.001352815
41	0xbaaa7054	-0.0013003447
42	0xbab263d6	-0.0013610076
43	0x3aafff5d	0.0013427545
44	0x39fb7e24	0.00047968433
45	0xbab7b506	-0.0014015741
46	0xbaa57d82	-0.0012625905
47	0x3a5ca381	0.0008416698
48	0x3ab48163	0.001377147
49	0xba7a29b4	-0.00095429574
50	0x3abade63	0.001425695
51	0xbaa0484f	-0.0012228581
52	0x3a7424e6	0.00093133596
53	0x3aaea3b2	0.0013323931
54	0xbaaf273d	-0.0013363134
55	0x3a8be08a	0.0010671776
56	0xbab1d55f	-0.0013567618
57	0x3ab2c9bd	0.0013640445
58	0x3ab11f9d	0.001351345
59	0xbab091ba	-0.0013471164
60	0xbaaccc40	-0.001318343
61	0x3aad792c	0.0013234965
62	0x3a93841c	0.0011254582
63	0xba93dba0	-0.0011280663

feat.conv3d_2.attention.fc1.weight f4 [3, 8, 1, 1, 1]
0	0x3e5be333	0.21473388
1	0x3c80d1f0	0.015725106
2	0xbe7d1698	-0.2471565
3	0x3d0f83ef	0.03503793
4	0x3c2e8e2d	0.010654015
5	0xbe21d61f	-0.15804337
6	0x3ead5eb7	0.33861324
7	0x3d56f0c6	0.052475713
8	0xbc578adc	-0.013155665
9	0xbe7694f2	-0.24080256
10	0xbe62b0ac	-0.22137707
11	0xbcb97031	-0.022636505
12	0x3e87fd9d	0.2656068
13	0x3e705fc3	0.2347403
14	0x3e6b9574	0.2300623
15	0xbe67923a	-0.22614375
16	0x3d8151b0	0.06314409
17	0xbe904f42	-0.2818547
18	0x3e11d6c2	0.1424208
19	0xbe29c067	-0.16577302
20	0x3e0c8cf6	0.13725647
21	0x3e5879e8	0.21140254
22	0xbe0af5a6	-0.1357027
23	0xbe2337a3	-0.15939192

feat.conv3d_2.attention.fc2.weight f4 [4, 3, 1, 1, 1]
0	0x3eef76a3	0.467702
1	0xbf13bc00	-0.5770874
2	0xbedb7e51	-0.4286981
3	0x3ee1cc49	0.4410117
4	0xbf0d5ef5	-0.5522302
5	0x3eab90ee	0.3350901
6	0x3cf6d7ad	0.03013214
7	0xbefb903b	-0.49133477
8	0xbe8c5cb1	-0.27414468
9	0x3f081d04	0.53169274
10	0x3e29edae	0.16594574
11	0x3ed3e3a5	0.41384616

feat.bn3.weight f4 [16]
0	0x3f7fbb89	0.9989553
1	0x3f803170	1.0015087
2	0x3f7faf98	0.9987731
3	0x3f7fc0c3	0.99903506
4	0x3f80020a	1.0000622
5	0x3f801b1b	1.0008272
6	0x3f8031c0	1.0015182
7	0x3f800866	1.0002563
8	0x3f7feb3e	0.99968326
9	0x3f7fb898	0.9989104
10	0x3f7fb86f	0.998908
11	0x3f7fc67f	0.99912256
12	0x3f801d23	1.0008892
13	0x3f7fd404	0.99932885
14	0x3f803084	1.0014806
15	0x3f7ff024	0.999758

feat.bn3.bias f4 [16]
0	0x3985379b	0.00025409166
1	0x3ac561c3	0.0015059042
2	0xba9d2309	-0.0011988591
3	0x39d0995a	0.00039787107
4	0x399972c3	0.00029267938
5	0x3a279cdd	0.0006393919
6	0x3ac7a50f	0.0015231686
7	0x3ac08724	0.0014688713
8	0xb9654bc7	-0.00021867371
9	0xba81023f	-0.0009842588
10	0xba9b134d	-0.0011831314
11	0xba8d7402	-0.0010792019
12	0x3ac2db8b	0.0014866454
13	0xba809c10	-0.0009812135
14	0x3ac1bba4	0.0014780653
15	0x391ac6f2	0.00014760697

feat.bn3.running_mean f4 [16]
0	0x40a22cd8	5.067974
1	0xc120f525	-10.05985
2	0xc06938b3	-3.6440856
3	0x3facdf9b	1.3505739
4	0x404f306f	3.2373312
5	0xc0a0b53f	-5.022125
6	0xc12ab1f8	-10.668449
7	0xc105fd64	-8.374363
8	0x3e4755b9	0.19466294
9	0x40ca6c52	6.3257227
10	0x411d3385	9.825078
11	0x400db39d	2.2140877
12	0xc0aa7e00	-5.327881
13	0x3f135383	0.57549304
14	0x404650cd	3.0986817
15	0x40ba4206	5.8205595

feat.bn3.running_var f4 [16]
0	0x42deef99	111.467964
1	0x42cd43cd	102.63242
2	0x421fb3e7	39.925686
3	0x428aaa50	69.33264
4	0x426d3ee9	59.311436
5	0x42b2f9a8	89.48761
6	0x42f5e790	122.95227
7	0x431e8c74	158.54865
8	0x421beacb	38.97929
9	0x428074da	64.228226
10	0x43020b96	130.04526
11	0x428da7b7	70.82757
12	0x42a94866	84.6414
13	0x42777304	61.86232
14	0x420f040b	35.75395
15	0x42418fa3	48.39027

mlp.fc2.weight f4 [10, 2000]
0	0xbc62df31	-0.013847158
1	0xbc2117e4	-0.009832356
2	0xbc932a30	-0.017964453
3	0x3c31539a	0.010823155
4	0xbcbc7537	-0.023005111
5	0x3c86bdc5	0.016447911
6	0x3c1e25b1	0.009652541
7	0x3a577a35	0.00082198094
8	0xbc292ce0	-0.01032564
9	0xbbdcee98	-0.00674231
10	0xbc8f6ada	-0.017507005
11	0x3bbc6351	0.005749144
12	0x3c9d060f	0.019167928
13	0xbb835e00	-0.0040090084
14	0x3bef5795	0.0073041418
15	0x3c0b7304	0.008511309
16	0x3c637b61	0.013884396
17	0x3c53e542	0.012933077
18	0xbc347eda	-0.011016572
19	0x3c0cc33e	0.008591471
20	0x3b954f76	0.0045565916
21	0xbc901266	-0.017586898
22	0x3ac5ab81	0.0015081019
23	0x3c799949	0.0152343
24	0x3ba5422b	0.005043288
25	0xbbe7de5c	-0.007076068
26	0x3c4803a4	0.012207899
27	0x3ca17657	0.01970975
28	0xbcadc37c	-0.021211378
29	0x3c2156d6	0.009847363
30	0x3c44690c	0.011987936
31	0x3adc5ded	0.001681266
32	0xbc93091d	-0.017948681
33	0xbc948f45	-0.018134722
34	0x3bd196c2	0.0063961456
35	0xbc2aeea8	-0.010432877
36	0xbc13a313	-0.009011048
37	0xbc2f85de	-0.010713069
38	0x3c79c309	0.015244254
39	0x3ca8e7e8	0.020618394
40	0x3c6b4aaf	0.014361068
41	0xbcaf1dfe	-0.021376606
42	0x3c2dd026	0.0106087085
43	0x3bbcd1b3	0.005762303
44	0x3ab47ee3	0.0013770725
45	0xbcc1b805	-0.023647318
46	0x38ae6528	8.3158084e-05
47	0x3b20965d	0.0024503686
48	0x3c8f5df1	0.01750085
49	0x3c3bf797	0.011472604
50	0x3b7d8960	0.0038686618
51	0xbc46822a	-0.0121159945
52	0xbb3965a9	-0.0028289354
53	0x3b358e41	0.0027703198
54	0x3bf14238	0.00736263
55	0xbc53d639	-0.012929493
56	0xbbfc36db	-0.007696969
57	0xba7b4932	-0.0009585797
58	0xbc677a75	-0.014128317
59	0x3b2b65fd	0.002615332
60	0x3b9bba24	0.0047524143
61	0x3c918604	0.017764099
62	0xbbddf6d2	-0.006773808
63	0x3c845b3c	0.016156785
64	0x3ca42df4	0.020041443
65	0x3c9e9eba	0.019362796
66	0x3ca12d24	0.019674845
67	0x3bfc42bc	0.007698385
68	0x3c8a9e24	0.01692111
69	0x3c4b6446	0.012414044
70	0x3bbf7d6c	0.005843809
71	0xbc667382	-0.014065625
72	0xbc9d216e	-0.01918098
73	0xbc457c3c	-0.012053546
74	0x3b4dd196	0.003140544
75	0xbba76c96	-0.00510938
76	0xbc2bfd53	-0.010497409
77	0x3c6b37a4	0.0143565275
78	0xbb954da3	-0.004556374
79	0xbc9ca183	-0.019119984
80	0xbc8bf723	-0.017085617
81	0x3b52750b	0.003211322
82	0x3ca42224	0.02003581
83	0xbb9688c6	-0.0045939414
84	0x3c6e0bed	0.0145292105
85	0x3c25688e	0.010095729
86	0xbbb135b8	-0.005408015
87	0x3c979d8f	0.018507747
88	0xbc0a8ce8	-0.008456446
89	0x3c624638	0.013810687
90	0x3c2d43db	0.01057526
91	0x3c127553	0.008939105
92	0x3c2f6147	0.010704345
93	0x3b060514	0.0020449804
94	0x3b0edcc1	0.002179906
95	0xbc940c10	-0.018072158
96	0x3c2c2b3a	0.010508353
97	0xbcbbfd99	-0.022948073
98	0xbaff2f1b	-0.0019468995
99	0x3bd1232c	0.0063823666
100	0xbcb97b32	-0.022641752
101	0xbc8fa502	-0.017534737
102	0xbc6e6f99	-0.014552974
103	0x3c22bc0e	0.009932531
104	0xbc96ad72	-0.018393252
105	0xbc9458ab	-0.018108686
106	0x3c1f7eeb	0.009734849
107	0x3b994961	0.004677937
108	0xbc45b0ff	-0.012066125
109	0x3c027bbd	0.007964072
110	0xbc7f5879	-0.015585058
111	0x3bd7186c	0.0065641906
112	0x3bc9f8d0	0.006163694
113	0x3bcfc43e	0.0063405326
114	0x3c30dcd9	0.010794842
115	0x3c6330bb	0.013866599
116	0xbc1df75f	-0.009641497
117	0x3bf74fd6	0.007547359
118	0x3ac3bd5d	0.0014933754
119	0xbc410d27	-0.011782921
120	0xbcb5d55d	-0.022196466
121	0xbca22da6	-0.019797157
122	0xbc3963e5	-0.011315321
123	0x3bc8258f	0.006107993
124	0xbc767e31	-0.015044735
125	0x3c7b3f6f	0.015334948
126	0xbc029057	-0.007968984
127	0x3b0ac423	0.0021174036
128	0xbca2375a	-0.019801784
129	0x3c681b69	0.014166691
130	0x3c8994cc	0.016794585
131	0xbbb07259	-0.005384725
132	0xbc784319	-0.015152716
133	0xba46b65b	-0.00075802737
134	0xbc912daf	-0.017721979
135	0xbc965cec	-0.018354855
136	0xbcac136a	-0.021005351
137	0xbcaf5c66	-0.021406364
138	0xbbcabe84	-0.006187262
139	0xbc949d6a	-0.018141467
140	0x3c62be42	0.013839306
141	0xbcb1f106	-0.021721374
142	0xbbf03275	-0.0073302337
143	0x3c7cbb1e	0.015425472
144	0xbc9b4a3f	-0.018956302
145	0xbc95906e	-0.018257346
146	0x3c8a8ddb	0.016913345
147	0x3c4a200f	0.012336745
148	0xbca6023f	-0.020264743
149	0x3be0d9e5	0.0068619126
150	0xbc6b9dab	-0.014380853
151	0xbcb10200	-0.021607399
152	0xbc3f3b4f	-0.011671855
153	0x39e15412	0.00042977982
154	0xbcb0224a	-0.021500725
155	0xbc742761	-0.014901967
156	0xbc37d68e	-0.011220587
157	0xba567aa6	-0.0008181728
158	0x3b062656	0.0020469627
159	0xbb6304e1	-0.003464036
160	0xbc534601	-0.012895108
161	0x3c11c681	0.008897425
162	0xbca9e178	-0.020737395
163	0xbc1c0787	-0.009523279
164	0xbc9567b1	-0.01823792
165	0x3bf8d3a2	0.007593588
166	0x3beeb3f8	0.0072846375
167	0x3ca19c99	0.019727992
168	0x3c5c92a3	0.013462695
169	0x3bd8d08f	0.006616659
170	0x3c931a89	0.017956989
171	0x3ad32418	0.0016108779
172	0xbc8a946d	-0.016916478
173	0xbb695419	-0.0035603105
174	0x3bf903f7	0.0075993496
175	0x3c9ab568	0.01888533
176	0xbabfd140	-0.0014634505
177	0xbb8df1e5	-0.0043318146
178	0x3c22d407	0.009938247
179	0xbc9db186	-0.019249689
180	0xbc6e97cd	-0.014562559
181	0xbbc28f9a	-0.005937529
182	0xbb5c4b7c	-0.0033614328
183	0x39bf16c2	0.00036447315
184	0xb9e26bf6	-0.00043186516
185	0xbca4fab8	-0.020139083
186	0x3b9aa1a8	0.004718978
187	0x3c958fa1	0.018256964
188	0xbc961705	-0.018321523
189	0xbae8f07d	-0.0017771866
190	0x3c78a939	0.015177065
191	0xbc8698f3	-0.016430354
192	0xbb853f49	-0.004066382
193	0xbc01ba3f	-0.00791794
194	0xbc533588	-0.012891181
195	0x3bffc1e3	0.0078050955
196	0x3c8a45d3	0.016878998
197	0x3bbae753	0.0057038455
198	0xbcbef048	-0.023307934
199	0xbcc04470	-0.023470134
200	0xbad7c22d	-0.0016461067
201	0xbc418f2c	-0.01181392
202	0xbb1faae2	-0.0024363329
203	0xbc603cc0	-0.013686359
204	0xbbf4e38b	-0.0074734143
205	0xbca5f253	-0.02025715
206	0x3c0bb439	0.008526855
207	0x3ca418dc	0.020031385
208	0xbc1c6018	-0.009544395
209	0xbc84d8c3	-0.016216641
210	0x3c2c3087	0.010509617
211	0xbc927c60	-0.017881572
212	0x3ae731c3	0.0017638732
213	0x3c6ee0cd	0.014579964
214	0x3c15a9d6	0.00913473
215	0xbcb794aa	-0.022409756
216	0x3c874e33	0.01651678
217	0xbc929019	-0.017890977
218	0x3c29148b	0.010319839
219	0x3c98340a	0.018579502
220	0xbc50db84	-0.012747649
221	0x3c6d2789	0.014474758
222	0xbcbc3564	-0.022974677
223	0x3c1d8593	0.009614366
224	0x3ba6764e	0.005080021
225	0x3c00778c	0.007841002
226	0xbc60afaf	-0.013713761
227	0xbbcc1dee	-0.006229154
228	0x3b2c0645	0.0026248854
229	0x3c2a9ae8	0.010412909
230	0x3b46772d	0.0030283437
231	0xbcb66d94	-0.022269048
232	0xbcb462d3	-0.02201978
233	0x3ba10c7f	0.0049148197
234	0xbb8d79ab	-0.0043174825
235	0x3b7f8697	0.0038990134
236	0x39a62c96	0.00031695206
237	0x3c9ef773	0.019405102
238	0xbc6ecb09	-0.014574775
239	0xbcae6925	-0.021290371
240	0x3c719f63	0.014747473
241	0x3c20263d	0.009774742
242	0x3a6c7263	0.00090197305
243	0x3b45c135	0.0030174975
244	0xbc38fef7	-0.011291257
245	0xbb2e9336	-0.0026638038
246	0x3b8354ea	0.0040079253
247	0xbb4342c5	-0.0029794436
248	0x3c7ed1cd	0.01555295
249	0xbbf83323	-0.0075744553
250	0x3b761290	0.0037547685
251	0x3c1d64b3	0.009606528
252	0xbb877cc6	-0.004134747
253	0x3c3d07f3	0.01153754
254	0x3c7da781	0.015481831
255	0x3a1875f1	0.00058159145

mlp.fc2.bias f4 [10]
0	0xbc50cd32	-0.012744235
1	0x3cad535d	0.021157915
2	0xbcb73810	-0.0223656
3	0x3c61d13b	0.013782795
4	0x3c823a55	0.015896956
5	0xba8f747f	-0.0010944753
6	0xbbbfab8d	-0.005849308
7	0xbcbd0d82	-0.02307773
8	0xbc2c50c4	-0.010517303
9	0x3c99bc3b	0.018766513
