cls/cls_model_6143.pth (torch, 158979 bytes, 17 tensors)

feat.conv3d_1.weight f4 [4, 8, 1, 5, 5, 5]
000000 7a ef 80 3f 21 55 aa bf 54 0b ad 3b 21 ee 3f be
       1.0073082 -1.3307229 0.0052808914 -0.18743183
000010 4f 19 c2 bf 2e 2d 2a 3e b8 e2 9f bf f9 24 e3 bd
       -1.5163974 0.16618797 -1.2491064 -0.11091036
000020 41 19 d2 3f b1 46 d4 be 98 69 c0 3d ac 92 ca bf
       1.6413957 -0.41460183 0.093951404 -1.5826011
000030 c6 4a cb bf fe 5e 28 c0 67 26 72 3f 2a 14 6e 3f
       -1.5882194 -2.6307979 0.9458985 0.9299952
000040 88 58 9a 3f 29 5d 5a bf 30 67 a9 3e 22 18 80 3e
       1.2058268 -0.852984 0.33086538 0.25018412
000050 de 1c 15 40 0c 45 8b 3e 91 1a 34 bf 2f c2 6a bd
       2.329887 0.27201116 -0.7035304 -0.057314094
000060 e5 1e e4 3e 82 94 07 bf da b1 ea bf 00 34 4c 3e
       0.4455482 -0.5296098 -1.8335526 0.19941711
000070 e9 ef 17 3f 57 7d e2 3e 43 17 e7 3f cd 99 14 3f
       0.5935045 0.44236252 1.8053974 0.5804718
000080 92 d9 06 3f 82 3f 85 bf 77 83 f7 bd 4d 7f 8d 3f
       0.52675736 -1.0410006 -0.12085622 1.1054474
000090 18 3e e1 be 74 1e 52 bf a3 46 54 bf 7b 6f 34 3a
       -0.43992686 -0.8207772 -0.82920283 0.0006883067
0000a0 ec c6 9c be 0b 26 09 3f 31 f3 b5 3e 64 e7 75 3f
       -0.30620515 0.53573674 0.35537103 0.960562
0000b0 f3 e7 b4 be 07 92 3d be ea 56 07 3f fb f2 e8 bf
       -0.35333213 -0.18512736 0.52866995 -1.8199152
0000c0 7f 1d 50 3e 98 46 ed bf fd 2a 9f be b2 76 a2 3f
       0.20323752 -1.8537169 -0.31087485 1.2692473
0000d0 b4 3c 44 be a3 e9 4d 3f 44 19 c2 3f f7 91 9e bf
       -0.19163781 0.80434626 1.516396 -1.2388295
0000e0 7f 31 b9 3e 57 0c 89 3f 1e 0d cd 3f 2b 8b 22 3e
       0.36170575 1.0706891 1.6019628 0.15873401
0000f0 9c 56 1f c0 23 e6 14 40 b9 fa f6 3c 27 c3 1a be
       -2.4896612 2.3265464 0.03014885 -0.15113507
000100 a9 75 27 c0 ad 5a ae bf 0f c1 f3 be f4 4f 10 3f
       -2.6165564 -1.3621422 -0.4760823 0.56372
000110 84 b1 6e bf 8f 78 b3 3d 4f 8c 9d bf 41 93 99 bf
       -0.9323962 0.08763229 -1.2308444 -1.1998063
000120 40 4c 8f 3d 29 2a a0 3f e0 df cf 3f 45 99 a9 be
       0.069969654 1.2512866 1.6240196 -0.33124748
000130 39 a4 e6 3e d6 c6 60 3e 6e 51 de bf e7 8d 05 3f
       0.45047167 0.2195085 -1.73686 0.5216965
000140 f2 23 eb 3f 8f 4a 6b 3f ed be 4c bf 83 be 0d 3f
       1.8370345 0.9191064 -0.7997883 0.5536882
000150 65 42 29 3d 48 47 b1 3d a3 f3 a1 3d 8b 5e ff 3e
       0.041323084 0.08656174 0.07907798 0.49876818
000160 2f 62 8c bf 5b bd a8 3e 3c d4 de bf 2b 61 7a be
       -1.0967463 0.32956967 -1.7408519 -0.24451129
000170 ed 77 0b 40 94 b4 46 3e 3c 1f 1a 3f 33 9e 6c bf
       2.1791947 0.19404823 0.6020391 -0.9242889
000180 62 e4 a9 bf 46 56 88 bf 72 44 d2 3e 31 60 07 bf
       -1.3272822 -1.0651329 0.41067845 -0.5288115
000190 d4 cb de 3e 20 ba 80 3f 8f 26 10 3f 5c cf 06 bf
       0.43514884 1.0056801 0.56308836 -0.52660155
0001a0 d2 03 07 3f 22 b9 5e 3f 00 c6 86 bd e7 4c e5 3e
       0.52740204 0.8700124 -0.06580734 0.44785234
0001b0 d7 54 a3 3e 28 bb 23 bc f9 12 34 3e 13 4a 82 3f
       0.31900665 -0.009993352 0.17585362 1.0178856
0001c0 c6 2a 88 3e 71 34 2b bf 99 63 9b 3f ea 51 6c 3f
       0.26595134 -0.66876894 1.213977 0.9231249
0001d0 56 74 13 3e 3f b7 b6 bb 1b 7e 20 bf 20 61 46 3e
       0.14399847 -0.005576044 -0.6269242 0.19372988
0001e0 74 d5 7a bf 6a 35 1a 3d e9 49 ab bf 74 d3 06 3e
       -0.97981954 0.037648596 -1.338193 0.131666
0001f0 35 bf b6 bd 17 1f c2 be 24 56 4e 3f 4f 72 e0 3f
       -0.089231886 -0.37914345 0.8060019 1.7534884
000200 4b 01 8f 3e f7 a2 ef bf f5 14 7f 3f a7 ec 9f 3f
       0.27930674 -1.8721608 0.9964135 1.2494096
000210 bd 35 f3 be 7d 40 58 bf e1 b7 e4 be 7c 90 cb 3d
       -0.47501937 -0.844734 -0.44671538 0.099396676
000220 7b 3e 11 3e 09 54 36 3f e0 8d 33 3e ff 77 b1 3d
       0.1418399 0.7122198 0.1753459 0.086654656
000230 87 2d 50 3f 5f 23 16 bf 30 b2 aa bf a8 e3 25 3f
       0.8131947 -0.5864772 -1.3335629 0.648005
000240 40 63 95 3e 7c 4d c1 bf 4b c9 e7 3f 81 ba 18 3f
       0.29177284 -1.5101771 1.8108305 0.5965958
000250 39 9b c0 be a0 e8 72 3f 46 3a 66 3f 3c 4a 9e 3e
       -0.37618425 0.9488621 0.8993267 0.3091601
000260 54 c9 89 3f 22 41 9c bf 2e c0 b9 3e db fc ae bf
       1.0764565 -1.2207377 0.36279434 -1.3670915
000270 31 a4 4f bd 9e 69 d4 be 39 58 48 bf 55 ee 20 3d
       -0.050693695 -0.4148683 -0.7825962 0.03928979
000280 49 80 8d be 6d 83 7e 3f 1b 29 d8 be a3 2d 38 3e
       -0.27636936 0.9941929 -0.4221886 0.17986159
000290 7c a2 53 3f f1 b7 bc 3f 31 73 a1 3e 5a 87 66 bf
       0.82669806 1.4743634 0.31533197 -0.9005028
0002a0 a7 df 23 3e d7 81 a7 be 81 b4 ae bf ee 66 ea 3f
       0.16003285 -0.32716247 -1.3648835 1.8312662
0002b0 e9 b7 79 3d a3 0e 7f 3e 3c d8 7f 3f 40 f1 c0 bf
       0.060966406 0.24907927 0.9993932 -1.5073624
0002c0 98 a4 a4 3e 3a 46 e4 be 2d 49 91 bd 47 37 3b bf
       0.32156825 -0.4458483 -0.07094035 -0.7313122
0002d0 71 10 c8 be 7c f9 4d bf da be 5e be 32 34 1f bf
       -0.39075044 -0.8045881 -0.21752492 -0.6218902
0002e0 bd b5 cd bd 2f 01 45 be 94 f5 b9 be 45 15 a4 bf
       -0.100444295 -0.19238733 -0.36320174 -1.2818991
0002f0 0a 28 70 3d 33 83 db 3e 5d 81 6a 3f d1 90 25 bf
       0.058631934 0.42873535 0.9160364 -0.646741
000300 d4 76 1f 3f 48 16 b2 3f 5c 3b 18 3f d7 33 04 bf
       0.6229069 1.391305 0.59465575 -0.516416
000310 df cd 2a bf cd b8 7c bf ec 5d 81 bf 6a 2e c4 be
       -0.66720384 -0.98719484 -1.0106788 -0.3831666
000320 fe 55 90 bf 26 ee 93 3f 05 90 c6 3e f4 b8 29 bf
       -1.1276243 1.1557052 0.38781753 -0.6629784
000330 78 1f d9 bf c8 5f 65 3e 30 5b a4 3f 4d fe b2 3e
       -1.6962729 0.22399819 1.2840328 0.3495964
000340 37 88 c3 bf 09 4c af 3e 86 3b 4f bc c7 91 ce be
       -1.5275944 0.34237698 -0.012648469 -0.40345594
000350 11 3d e3 be 81 f9 9a 3f 7c 31 fd be e6 63 88 3e
       -0.44382527 1.2107393 -0.49451816 0.26638716
000360 ed 60 5a 3f 10 e4 2a 3e ae 09 81 bd fe 1f 06 be
       0.85304147 0.16688561 -0.063006744 -0.13098142
000370 c7 1f c3 bf 2f a9 b9 3f ed 32 0b 3f 82 6e 07 bf
       -1.5244073 1.4504756 0.5437458 -0.52902997
000380 ad 76 ad bf 26 89 aa bf 65 3e 50 3e fa 1f 15 c0
       -1.3551842 -1.3323104 0.20336302 -2.3300767
000390 56 e2 2b 3f 36 57 09 be b3 e5 93 bf ac bb d8 3e
       0.67142236 -0.13412175 -1.1554474 0.42330682
0003a0 6e b7 e6 3f 24 97 7a 3f dd 9e 1a be 3f 4a 20 3f
       1.8024728 0.9788687 -0.15099664 0.6261329
0003b0 58 80 a9 3f bb 17 46 3e 9b 2c ba 3f 53 05 47 be
       1.3242292 0.1934499 1.4544863 -0.19435625
0003c0 48 77 f6 bd 93 b5 18 bf b4 f5 56 3f a4 91 f1 3d
       -0.1203447 -0.5965206 0.83968663 0.11795357
0003d0 ab 52 69 3f 3d 87 d9 be f4 f3 12 3f 84 e0 fd 3e
       0.91141766 -0.4248599 0.5740349 0.49585354
0003e0 4a a8 b2 3f 69 d7 8a be b2 80 cc 3e ea 60 65 3e
       1.3957608 -0.2711747 0.39941937 0.22400251
0003f0 f0 91 c2 bf 01 49 2f bd e9 49 41 bf 98 89 4b bf
       -1.5200787 -0.04279423 -0.755034 -0.79506826

feat.conv3d_1.bias f4 [4, 8]
000000 12 bd f7 b8 a3 3f 05 3a 3d 80 e2 38 24 73 20 b9
       -0.00011813095 0.000508303 0.00010800406 -0.00015301682
000010 23 3f 1f 39 a4 e4 e7 39 7b 8c 8a 38 6c b6 f5 b9
       0.00015186942 0.00044230104 6.606519e-05 -0.00046865956
000020 12 bd f7 b8 a3 3f 05 3a 3d 80 e2 38 24 73 20 b9
       -0.00011813095 0.000508303 0.00010800406 -0.00015301682
000030 23 3f 1f 39 a4 e4 e7 39 7b 8c 8a 38 6c b6 f5 b9
       0.00015186942 0.00044230104 6.606519e-05 -0.00046865956
000040 12 bd f7 b8 a3 3f 05 3a 3d 80 e2 38 24 73 20 b9
       -0.00011813095 0.000508303 0.00010800406 -0.00015301682
000050 23 3f 1f 39 a4 e4 e7 39 7b 8c 8a 38 6c b6 f5 b9
       0.00015186942 0.00044230104 6.606519e-05 -0.00046865956
000060 12 bd f7 b8 a3 3f 05 3a 3d 80 e2 38 24 73 20 b9
       -0.00011813095 0.000508303 0.00010800406 -0.00015301682
000070 23 3f 1f 39 a4 e4 e7 39 7b 8c 8a 38 6c b6 f5 b9
       0.00015186942 0.00044230104 6.606519e-05 -0.00046865956

feat.conv3d_1.attention.fc2.weight f4 [4, 1, 1, 1, 1]
000000 3a 2e 5a bf 68 32 8b be 40 15 ca bc b8 15 22 3f
       -0.85226786 -0.27186894 -0.024668336 0.6331439

feat.bn2.weight f4 [8]
000000 16 5e 80 3f a5 34 80 3f 62 bc 7f 3f 75 42 7f 3f
       1.0028713 1.0016066 0.99896824 0.9971078
000010 ce 43 80 3f 30 79 7f 3f bf a0 7f 3f b8 49 80 3f
       1.0020692 0.9979429 0.99854654 1.0022497

feat.bn2.bias f4 [8]
000000 77 fa 48 3b c7 80 44 3b 23 7a d4 3a af 69 3e bb
       0.0030666867 0.0029983984 0.0016210716 -0.0029054692
000010 31 53 26 3b cf 69 95 ba d6 33 15 37 65 dd 37 3b
       0.0025379176 -0.0011399331 8.893161e-06 0.0028055545

feat.bn2.running_mean f4 [8]
000000 16 d5 04 3f 59 5c d2 3e 39 c5 d2 3e 99 d7 02 3f
       0.51887643 0.4108608 0.41166094 0.51110226
000010 8d c1 81 3f b9 ea aa be f7 7f 6a 3d 7b 30 0b be
       1.0137192 -0.33382204 0.057250943 -0.13592713

feat.bn2.running_var f4 [8]
000000 cd c4 20 40 92 b7 dc 3f 44 2b 14 40 a8 11 75 40
       2.5120118 1.7243521 2.3151407 3.8292027
000010 2a 1a a6 40 08 dd c8 3f e0 c7 02 40 dc b5 4d 3f
       5.190694 1.5692453 2.0434494 0.8035562

feat.conv3d_2.weight f4 [4, 16, 8, 3, 3, 3]
000000 f2 99 48 be 1d 28 0e 40 cd 40 5d bf 72 78 63 bd
       -0.19589975 2.2211983 -0.86427003 -0.055534787
000010 b4 6e 3a be a3 db 58 3f b8 a4 0d 3f 14 07 70 3f
       -0.18206292 0.8471014 0.55329466 0.937608
000020 de 4f 26 3f 1f 5d 59 3f 15 bc 0c 3f 95 c5 36 3f
       0.6496562 0.84907717 0.5497449 0.71395236
000030 62 b6 7a bf a3 d0 01 c0 b9 5b 10 c0 37 31 05 3f
       -0.97934544 -2.0283592 -2.2555983 0.5202822
000040 6c a8 e3 3f 5e e6 38 3e 2a 69 c4 bf f4 4d 27 c0
       1.7785773 0.18056628 -1.5344594 -2.614133
000050 e2 ef 26 3f 00 b2 2c 3f 7d cb 49 3e 58 b5 23 3f
       0.6520978 0.67459106 0.19706531 0.63948584
000060 42 b0 ad 3f ce 73 de bf 3a 0a a3 bd 58 dd 01 bf
       1.3569415 -1.7379091 -0.07960935 -0.5072837
000070 87 91 c9 3f dd 77 a6 be cb c6 04 3f 77 35 9b 3e
       1.5747536 -0.32513323 0.51865834 0.30314228
000080 94 b4 03 bf 9e b4 89 3f 82 dc a5 3f c5 39 47 3f
       -0.51447415 1.0758245 1.2957919 0.77822524
000090 54 3b 95 bc 2e c5 ea 3e d7 9e ad 3e 23 61 fc bf
       -0.018216766 0.4585356 0.33910248 -1.9717144
0000a0 ea ff 6b bf 07 a1 14 bf 7b 69 b4 bd 5e 96 f6 3f
       -0.9218737 -0.5805821 -0.08809181 1.9264638
0000b0 02 9f 14 bf bf 03 92 bf 37 90 7d 3e 2a 8c 70 3e
       -0.58055127 -1.1407393 0.24762045 0.23490968
0000c0 53 ed 22 3d 63 84 94 be 32 62 02 3e 5b 83 d0 be
       0.03977711 -0.29007253 0.12732771 -0.40725216
0000d0 46 92 c1 bd 85 ce 89 be 30 47 26 bf 99 c5 22 3e
       -0.094517276 -0.26915374 -0.64952374 0.1589569
0000e0 3c 67 b8 bd 83 6e 72 bf 94 33 df be 13 7a 19 be
       -0.090040654 -0.9469988 -0.43594038 -0.14987974
0000f0 8e fc 42 3f 77 93 00 3f 90 cd 22 bf 62 77 99 bf
       0.7616662 0.50225013 -0.63594913 -1.1989558
000100 10 12 e1 bf 63 a2 83 3f bc 54 2a bf 19 7f ac be
       -1.7583637 1.0283931 -0.66535544 -0.33690718
000110 0d 4b 53 3e 43 82 c3 3f 5c 97 62 bf ee 3f 80 3f
       0.20634098 1.5274128 -0.88512206 1.001951
000120 c4 ef 00 3f eb 92 47 bf df 07 fc bf 87 90 e8 bf
       0.50365853 -0.77958554 -1.9689902 -1.8169106
000130 56 a4 0d c0 cd 84 26 3e ed 00 a8 3e ac fc 3e bf
       -2.2131553 0.16261597 0.32813206 -0.74604297
000140 a7 29 29 bf f8 bb 9e 3e d1 a5 16 3f 43 29 ea bf
       -0.6607918 0.31002784 0.58846766 -1.8293842
000150 bb c0 83 bf f7 8d 53 3e 0f 36 35 3d ac 86 2b 3f
       -1.0293192 0.20659624 0.044241007 0.6700237
000160 b7 a8 ae be a8 7f d5 3e 4a 45 23 3f 22 0e c2 be
       -0.34113094 0.41698956 0.637776 -0.37901407
000170 1e 29 11 3f 45 86 37 bf e5 48 9e bf f0 77 a4 bf
       0.56703365 -0.71689254 -1.2365996 -1.2849102
000180 d1 e9 d4 3e 38 97 59 3f 78 a1 db 3f eb ca 40 be
       0.41584638 0.84996367 1.7158651 -0.18827407
000190 26 7b 04 40 d1 bf 5f 3f 31 e8 84 bf 67 4d 04 bf
       2.0700164 0.87402064 -1.0383359 -0.51680607
0001a0 2f 11 65 3e e5 35 4f bf 9e 2a 05 40 e7 f6 56 bf
       0.22369836 -0.8094161 2.0807261 -0.83970493
0001b0 83 20 a8 3f b2 80 a7 3f 39 db 24 40 8d 29 fa 3e
       1.3134922 1.308615 2.5758803 0.48859826
0001c0 9e 03 9e bd f6 36 a0 bf 90 f0 16 3f 2f 0e 9b bf
       -0.07715534 -1.2516773 0.5896082 -1.2113703
0001d0 fb 3a 1f 3d 79 fd 86 3f f1 86 17 3f ad 71 1d c0
       0.038874608 1.0546104 0.5919028 -2.4600632
0001e0 aa a2 5a 3f 3a 6c ac bf cd e4 aa be ab cf 4c be
       0.85404456 -1.3470528 -0.33377686 -0.20001094
0001f0 81 77 b0 bf 56 4e a1 3f ed 57 52 bf c2 31 d4 3e
       -1.378647 1.2602031 -0.82165414 0.41444212
000200 d1 48 83 3f 92 29 25 bf 1b 6a e8 be 5a 5d 4e 3f
       1.0256597 -0.64516556 -0.45393452 0.80611193
000210 c4 2a 62 3f e0 55 9e 3f 2a 17 82 3f c0 70 75 bc
       0.88346505 1.2369957 1.0163319 -0.014980495
000220 47 07 b3 be b5 72 ae bf 1b ae 96 3e 9b b0 af bf
       -0.3496649 -1.3628756 0.29429707 -1.3725771
000230 81 ff 73 3c 89 24 06 40 21 8f 31 bf 7d a1 2c 3e
       0.01489246 2.09598 -0.6935902 0.16858478
000240 14 01 13 3f 7c a0 02 40 44 ec 1e 3e db 5e 8b bf
       0.5742352 2.0410452 0.15519816 -1.0888323
000250 aa 3b bb bf 91 11 ba bf aa a6 be bf ba 7b 13 bf
       -1.4627583 -1.4536611 -1.4894612 -0.57610667
000260 92 51 42 3e 88 e4 83 3e c9 ac ca bf e1 16 e0 be
       0.18976429 0.25760293 -1.583398 -0.43767455
000270 09 87 98 bf ff d8 d4 3d a8 4c 48 bf 54 ac 12 c0
       -1.191621 0.10392951 -0.7824197 -2.291768
000280 09 fb df be 56 60 d1 be 76 52 e6 3f 9a 41 46 bf
       -0.43746212 -0.4089381 1.7993915 -0.7744385
000290 9e 9d b8 3f da 92 0b bf 60 29 ad bf e6 9e 5c 3f
       1.4423101 -0.5452095 -1.3528252 0.8617996
0002a0 25 82 e5 bf 46 bd f8 bd 83 0d d6 bd 27 84 cb 3e
       -1.7930342 -0.12145476 -0.10451796 0.39749262
0002b0 c7 1a a9 3e 51 92 72 bf eb ee 46 bf 84 97 25 3f
       0.33028242 -0.9475451 -0.7770831 0.6468432
0002c0 12 16 f7 bf 6a d9 35 bf 93 7c c8 be 45 26 84 bf
       -1.930361 -0.7103487 -0.39157543 -1.0324179
0002d0 ab 8f 03 3f a1 fd dd be 79 fb a7 be 7c 1f 99 3f
       0.51391095 -0.43357566 -0.32809046 1.1962733
0002e0 c9 c7 a4 3e c5 48 1b 3f 1c f8 7e be 4b 4f 9a 3f
       0.32183674 0.6065791 -0.24899334 1.2055448
0002f0 42 58 b1 3f 17 85 00 bf ea 45 f4 bf 90 b7 b5 3f
       1.3855059 -0.5020308 -1.9083836 1.4196644
000300 38 2f b4 bf 5d a2 49 3f 63 35 23 bf 70 f8 d0 3f
       -1.407691 0.7876337 -0.63753337 1.6325817
000310 3e 88 26 40 9d 74 e0 be 33 e9 0d 3f c9 df 67 bf
       2.6020656 -0.4383897 0.5543396 -0.90575844
000320 a8 14 14 c0 4c a4 ab 3e 9a f6 42 3f de bb 9a 3f
       -2.3137608 0.33523786 0.76157534 1.2088583
000330 4c 88 9a bd d1 c7 b6 3f b6 7f d7 3e a3 38 15 bf
       -0.07545528 1.4279729 0.42089623 -0.58289546
000340 2f 6c 05 be 3d 37 ad bf db 49 e1 3e 65 a1 4c be
       -0.1302955 -1.3532482 0.4400166 -0.19983442
000350 4f 89 c5 be 9e ca 96 be 61 d8 92 bf 4a 94 2b 3f
       -0.3858132 -0.2945146 -1.1472284 0.67023146
000360 45 99 84 bf b8 04 8a 3f 42 9c f1 bf 7e 4a 9f bf
       -1.0359274 1.078269 -1.8875811 -1.2444608
000370 4f 90 d2 3e 0e c8 8e 3e df 94 c7 3f 6f 0b fb be
       0.41125724 0.27887005 1.5592307 -0.4903216
000380 5a b3 64 3f 0e ff 5a bf ff 47 8c 3f ff ff f9 3e
       0.8933617 -0.8554543 1.0959471 0.48828122
000390 35 0e 9c 3f b5 39 06 c0 6f 2b c7 bd 2d 5a 15 bf
       1.2191836 -2.0972722 -0.09725081 -0.5834072
0003a0 33 12 8c bf 5b 98 30 bf 28 d9 d0 bd 56 fe 6a bf
       -1.0943054 -0.68982476 -0.10197669 -0.91794336
0003b0 6b 6d 1a bf 0e f8 a7 bd a1 4e 84 3f 90 ea 4d bf
       -0.6032321 -0.082016096 1.0336496 -0.8043604
0003c0 9b 33 d4 3f b8 74 db 3f 4e b5 13 bf 8f 54 48 3e
       1.6578249 1.7144995 -0.57698524 0.19563507
0003d0 7d 3e c2 bf 3c f2 98 3e af d1 f1 3f 59 b7 85 be
       -1.517532 0.2987231 1.8892115 -0.26116446
0003e0 34 e7 a7 3f fa bb 53 be 8c f9 92 3f 34 85 5e 3e
       1.3117433 -0.20677176 1.1482406 0.217305
0003f0 29 dc 61 bf a9 d9 8d 3e c7 53 8c 3e fb ca 41 be
       -0.8822656 0.27705124 0.27407667 -0.18925087

feat.conv3d_2.bias f4 [4, 16]
000000 47 fe 17 3b fd 40 97 ba 0f 1a e3 3a 14 ed fc 3a
       0.0023192333 -0.0011539754 0.0017326492 0.0019296729
000010 ae c8 3c 39 59 6a b3 39 f3 2a 18 bb c7 e0 04 bb
       0.00018003836 0.00034220776 -0.002321896 -0.002027558
000020 e5 5e 19 bb 58 9a 71 3a 17 1c fd 3a 3f ba e0 ba
       -0.0023402509 0.00092164194 0.001931074 -0.0017145349
000030 c3 fe 14 3b a1 b1 2e 3b ef e2 0d 3b 9e 3a 00 ba
       0.0022734858 0.0026656168 0.0021650156 -0.0004891547
000040 c3 da 0d 3b ec a9 1e bb 7f 63 00 3b ca d7 fc 3a
       0.0021645285 -0.0024210168 0.0019590554 0.0019290384
000050 28 f9 01 ba fa 1a 31 3a 1c 64 11 bb 1e de 14 bb
       -0.00049580866 0.0006756034 -0.0022184914 -0.00227154
000060 59 77 1d bb f1 de 0c 3a b2 31 ef 3a 0f dd 9f ba
       -0.0024027436 0.0005373797 0.0018249063 -0.0012196618
000070 b5 73 00 3b 17 f3 28 3b c5 44 03 3b cd 98 69 b9
       0.0019600217 0.0025779658 0.0020030004 -0.00022277534
000080 5d 87 1f bb a3 91 29 3b 49 0c 33 bb 60 c6 76 3a
       -0.0024342157 0.002587416 -0.0027320555 0.00094137155
000090 e4 2c a5 ba d6 29 0c bb c0 13 31 3b 44 4a 26 3a
       -0.001260188 -0.002138724 0.0027019829 0.0006343464
0000a0 2b 4d 2b 3b d6 fc 17 bb 7f 93 1f bb af 0f 39 3b
       0.0026138525 -0.0023191473 -0.002434939 0.0028238108
0000b0 ba d9 e9 3a 4b 4e 26 bb da 1c 05 bb 48 a6 e9 3a
       0.0017841377 -0.0025376256 -0.0020311386 0.0017826045
0000c0 29 32 19 3b ca a7 1a bb 1f ef 39 3b 57 31 2e bb
       0.0023375845 -0.0023598545 0.0028371287 -0.0026579702
0000d0 68 af eb 3a 88 f0 1f 3b dd c8 2f bb 7e 4d e2 3a
       0.0017981352 0.0024404842 -0.0026822605 0.0017265526
0000e0 04 7a 2f bb 52 bd 28 3b 7a 60 25 3b 13 ca 3a bb
       -0.0026775608 0.002574761 0.0025234506 -0.0028501793
0000f0 d1 f1 3b bb e4 5c 05 3b 77 45 cd 3a 75 70 14 bb
       -0.002867807 0.0020349557 0.0015660961 -0.0022650037

feat.conv3d_2.attention.fc1.weight f4 [3, 8, 1, 1, 1]
000000 9a 55 5d 3e 90 73 8c 3c 84 a2 7b be c8 37 15 3d
       0.21614686 0.017144948 -0.24573714 0.03643015
000010 5b ff 45 3c 8b 9b 20 be c5 11 ae 3e 31 41 5b 3d
       0.012084807 -0.15684335 0.33997932 0.05352897
000020 30 57 41 bc 78 2f 75 be 1d 4e 61 be d9 72 ae bc
       -0.011800572 -0.23943889 -0.22002454 -0.021294998
000030 f5 ae 88 3e 7a b4 71 3e 26 f4 6c 3e 72 40 66 be
       0.26695982 0.23604003 0.2314001 -0.22485521
000040 b4 51 80 3d 9b 7f 90 be dd 62 11 3e 2c 65 2a be
       0.06265584 -0.28222355 0.1419787 -0.16640157
000050 3a 28 0c 3e ec 78 57 3e 20 b0 0b be 33 21 24 be
       0.1368722 0.21042222 -0.13641405 -0.1602829

feat.conv3d_2.attention.fc2.weight f4 [4, 3, 1, 1, 1]
000000 29 f7 ee 3e 06 f2 13 bf 67 05 db be 4b 68 e1 3e
       0.46672943 -0.57791173 -0.4277756 0.44024882
000010 26 c4 0d bf ea 20 ab 3e 46 df eb 3c 5f 06 fb be
       -0.55377424 0.3342355 0.028792989 -0.49028298
000020 bf d1 8b be c7 72 08 3f 22 3b 2b 3e 3d 5e d3 3e
       -0.2730846 0.53300136 0.16721776 0.41282836

feat.bn3.weight f4 [16]
000000 65 e2 7f 3f f7 62 80 3f 94 b9 7f 3f c1 f8 7f 3f
       0.99954826 1.0030202 0.99892545 0.99988943
000010 a8 33 80 3f 7f 51 80 3f d3 63 80 3f de 3d 80 3f
       1.0015764 1.0024871 1.0030464 1.001888
000020 4a 26 80 3f 7e e3 7f 3f 10 e9 7f 3f 78 05 80 3f
       1.0011685 0.999565 0.99965 1.0001669
000030 8b 52 80 3f 55 11 80 3f ef 63 80 3f 9b 2a 80 3f
       1.002519 1.0005289 1.0030497 1.0013002

feat.bn3.bias f4 [16]
000000 86 38 f8 3a e3 d2 43 3b fd 13 86 ba 11 cc fc 3a
       0.0018937744 0.0029880337 -0.0010229346 0.0019286891
000010 ff 03 de 3a 6e 56 15 3b 04 82 47 3b 73 0d 4b 3b
       0.0016938447 0.0022787112 0.0030442486 0.0030983358
000020 87 36 aa 3a 8d 17 cb b7 dc 8a 5c ba c8 69 0c ba
       0.0012986221 -2.4210452e-05 -0.00084130256 -0.0005356339
000030 21 cc 4a 3b b2 bd 65 ba a2 e3 43 3b 48 f2 e7 3a
       0.0030944424 -0.00087639235 0.0029890318 0.0017696107

feat.bn3.running_mean f4 [16]
000000 cb a1 c0 40 ab b9 3c c1 f2 7b 88 c0 41 df c0 3f
       6.01975 -11.795329 -4.26513 1.5068132
000010 33 69 6d 40 9d 28 c0 c0 88 9e 47 c1 79 e2 1d c1
       3.7095459 -6.0049577 -12.476204 -9.867791
000020 cc 1c 4e 3e 51 0f ec 40 b5 ff 37 41 ad b4 27 40
       0.20128173 7.3768697 11.499928 2.6204026
000030 e8 59 c6 c0 42 ad 4f 3f af 9b 60 40 24 76 d4 40
       -6.198475 0.81123745 3.5095022 6.6394215

feat.bn3.running_var f4 [16]
000000 13 32 06 43 27 8c f7 42 3c c4 3b 42 70 9c a5 42
       134.1956 123.773735 46.941635 82.80554
000010 cb c6 8d 42 0c 5e da 42 0c 9f 14 43 6b 02 41 43
       70.88827 109.183685 148.62128 193.00945
000020 71 8f 39 42 b4 12 9b 42 7e b9 1e 43 ba de a7 42
       46.39008 77.53653 158.72458 83.93501
000030 f1 90 cd 42 d8 e3 91 42 f0 dc 29 42 3b 3b 65 42
       102.78309 72.94501 42.46576 57.307842

mlp.fc2.weight f4 [10, 2000]
000000 c3 f7 6b bc 56 85 2a bc 3c e1 97 bc 45 ec 24 3c
       -0.014402333 -0.010407766 -0.018540017 0.010066097
000010 54 66 c4 bc af 7b 81 3c 3d 77 14 3c f7 51 b3 39
       -0.023974575 0.015806047 0.009061632 0.0003420261
000020 f9 c9 35 bc 00 15 fd bb 0d fa 94 bc 1d e9 a6 3b
       -0.011095517 -0.0077234507 -0.01818564 0.0050937072
000030 af 8f 98 3c 59 35 9e bb 94 81 ce 3b f6 df 00 3c
       0.018623201 -0.004828137 0.006302068 0.007865896
000040 ab 25 59 3c 41 d3 48 3c 2e f3 43 bc 41 f6 f8 3b
       0.01325361 0.012257398 -0.011959834 0.007597715
000050 b7 b9 7d 3b a6 9d 95 bc 81 56 2d 3a 7c aa 69 3c
       0.003871543 -0.01826365 0.00066123164 0.014261838
000060 d8 8b 85 3b 1b 18 ff bb a3 f9 3a 3c 3d 9e 9b 3c
       0.0040755086 -0.007784856 0.011412057 0.018996352
000070 41 62 b4 bc 66 2b 11 3c a0 53 38 3c e2 8e 68 3a
       -0.022019507 0.008860445 0.0112504065 0.0008871389
000080 66 6b 98 bc fe c0 9a bc 3d 4e b2 3b 06 8d 37 bc
       -0.018605899 -0.018890854 0.0054414556 -0.011203056
000090 63 cb 20 bc 4b c4 3a bc 40 2e 6c 3c ad 02 a1 3c
       -0.009814116 -0.011399339 0.014415324 0.019654596
0000a0 4a 74 5e 3c 28 96 b5 bc db c5 21 3c d2 8c 9e 3b
       0.01357753 -0.022166327 0.009873833 0.0048385644
0000b0 96 63 c1 39 e7 ae c7 bc d0 54 22 ba 2a 01 e0 3a
       0.00036886026 -0.024375392 -0.00061924476 0.0017090191
0000c0 ce e6 87 3c 7c f7 2b 3c 89 b3 4f 3b 2e 80 53 bc
       0.016589548 0.010496017 0.0031692705 -0.012908978
0000d0 74 7b 6e bb 8e f0 fa 3a 04 37 d1 3b 3b ba 5f bc
       -0.0036389502 0.0019145177 0.006384732 -0.013655241
0000e0 43 19 0b bc 79 cc e6 ba 95 c1 74 bc 13 e6 da 3a
       -0.00848991 -0.0017608545 -0.014938732 0.0016700648
0000f0 ff 50 84 3b bf ff 8a 3c a0 62 f8 bb 56 79 7a 3c
       0.004037976 0.016967652 -0.0075801164 0.015287718
000100 01 4f 9c 3c 7e fd 98 3c 85 1d 9b 3c 2a c7 e1 3b
       0.01908064 0.018675562 0.018934974 0.0068901973
000110 34 02 83 3c 38 08 3b 3c 91 38 ae 3b ad 54 6f bc
       0.015992261 0.011415534 0.005316802 -0.014607591
000120 1c b0 a2 bc f2 2a 53 bc 21 1f 10 3b ff 56 be bb
       -0.019859366 -0.012888657 0.002199121 -0.0058087106
000130 c5 7e 39 bc 10 3e 5d 3c f8 e7 b1 bb da b4 a4 bc
       -0.011321728 0.013503566 -0.005429264 -0.020105768
000140 d3 3a 92 bc 19 88 1b 3b 57 0e 9d 3c f7 05 b4 bb
       -0.017850315 0.0023732244 0.019171877 -0.005493875
000150 c2 fc 5d 3c 56 95 18 3c 83 46 cc bb 5e 8b 90 3c
       0.013549032 0.009312948 -0.0062339916 0.01764458
000160 1f f4 19 bc 9f 5c 52 3c 40 f5 21 3c 76 a8 05 3c
       -0.009396582 0.012839465 0.009885132 0.00815784
000170 df 7d 21 3c c2 dc 8f 3a 62 43 99 3a 7a 59 98 bc
       0.00985667 0.0010975825 0.0011693055 -0.018597353
000180 13 82 22 3c 8d 13 c2 bc 1c 33 3b bb 49 4f b1 3b
       0.009918707 -0.023690963 -0.00285644 0.005411063
000190 37 93 be bc 56 9f 95 bc aa 5a 7b bc 20 08 15 3c
       -0.023263557 -0.018264454 -0.01534144 0.009096175
0001a0 22 5d 9e bc 64 4a 9a bc e6 9a 12 3c 34 ac 7b 3b
       -0.019331519 -0.0188343 0.0089480635 0.0038402202
0001b0 e3 e2 53 bc 2c 2c e6 3b 8b c7 85 bc e3 63 bc 3b
       -0.012932512 0.0070243087 -0.016330501 0.005749212
0001c0 ee e2 ad 3b 00 99 b2 3b be 87 21 3c 7e cf 58 3c
       0.005306593 0.005450368 0.009859024 0.013233064
0001d0 a5 46 2a bc 8a 8e db 3b 1e 1a 1a 3a 9e 31 51 bc
       -0.0103928195 0.0067003416 0.00058785256 -0.012768177
0001e0 9f 46 b9 bc 18 21 a6 bc 1b 37 44 bc 45 44 ad 3b
       -0.022616683 -0.020279452 -0.011976029 0.0052876794
0001f0 e9 d4 82 bc 5e fd 6d 3c 3e c5 0f bc 21 91 a4 3a
       -0.015970664 0.0145257395 -0.008775054 0.0012555459
000200 b6 99 a9 bc 29 56 5a 3c d8 35 83 3c b5 bb ca bb
       -0.020703178 0.013326206 0.016016886 -0.006186927
000210 60 b1 82 bc 28 8e d7 ba d3 28 98 bc 72 9e 9c bc
       -0.01595372 -0.0016445564 -0.018574154 -0.019118521
000220 96 c8 b2 bc 07 38 b6 bc 3a 18 e8 bb 66 8d 9b bc
       -0.021824162 -0.022243513 -0.007082966 -0.018988322
000230 19 90 56 3c a9 66 b8 bc c3 85 05 bc cd 31 6e 3c
       0.013095879 -0.02250989 -0.008149567 0.014538241
000240 40 13 a2 bc 34 b2 9b bc 25 57 84 3c ff e6 3d 3c
       -0.01978457 -0.019005872 0.016154835 0.011590718
000250 ae 71 ac bc ed 1a ca 3b 52 03 7a bc 44 72 b8 bc
       -0.0210503 0.0061677606 -0.015259581 -0.022515424
000260 47 d9 4c bc 14 94 e4 b9 06 ad b6 bc bd 89 80 bc
       -0.012502975 -0.00043597876 -0.0222993 -0.015690679
000270 25 c9 43 bc b9 f0 c4 ba 6c 0d a0 3a 73 4c 8c bb
       -0.011949812 -0.0015025354 0.0012211031 -0.0042815744
000280 44 6b 5f bc da b2 05 3c 24 6f af bc ec a7 29 bc
       -0.013636414 0.008160317 -0.0214153 -0.010354977
000290 37 ec 9b bc df da df 3b e6 03 d7 3b 2d a5 9b 3c
       -0.019033534 0.0068315114 0.006561744 0.01899966
0002a0 72 96 4e 3c 0c 39 be 3b 32 11 8d 3c 11 23 6d 3a
       0.012609111 0.0058051404 0.017220113 0.0009046058
0002b0 6c f9 8f bc 75 ec 8d bb 27 25 e2 3b 9d 5f 93 3c
       -0.017574988 -0.0043311664 0.0069014016 0.017989928
0002c0 d1 b0 18 bb 5f e4 a6 bb 81 31 17 3c 2c aa a3 bc
       -0.002329875 -0.005093142 0.009228111 -0.019978605
0002d0 22 25 7c bc 95 c5 d4 bb c3 7c 67 bb ca 19 57 b8
       -0.0153897125 -0.00649328 -0.0035322167 -5.1284012e-05
0002e0 b1 b7 91 ba 82 6f ab bc b4 61 8c 3b 60 61 95 3c
       -0.0011117366 -0.020927195 0.004284108 0.018234909
0002f0 0c 05 99 bc 7b 31 1e bb 46 31 6c 3c 6e f2 89 bc
       -0.018679164 -0.002413838 0.014416045 -0.016839232
000300 30 02 84 bb 33 3f 08 bc d1 34 5d bc 4c 1f e6 3b
       -0.004028581 -0.008315849 -0.013501362 0.007022774
000310 f1 a2 86 3c bc 25 b6 3b 61 28 c1 bc 94 10 c4 bc
       0.016435118 0.0055586975 -0.023578824 -0.023933686
000320 9a f2 24 bb b4 0d 50 bc 49 70 56 bb 8b 44 6d bc
       -0.0025169016 -0.01269858 -0.0032720736 -0.014481674
000330 5d c6 06 bc 08 c9 ac bc 14 0e 00 3c 50 6e a0 3c
       -0.008226004 -0.021091953 0.0078158565 0.019583851
000340 72 94 26 bc ed 77 8a bc c9 70 1f 3c 97 9e 97 bc
       -0.010167228 -0.016902888 0.00973148 -0.018508239
000350 30 ab b2 3a ec 57 66 3c 0c 52 0b 3c 81 a6 bd bc
       0.001363134 0.014059048 0.008503448 -0.023150684
000360 2d 2e 83 3c 6a 5c 95 bc 2d a3 1f 3c d2 5c 93 3c
       0.01601323 -0.018232543 0.009743494 0.017988596
000370 c9 e6 5d bc 57 74 62 3c 89 54 bf bc 05 b7 15 3c
       -0.013543793 0.013821683 -0.02335574 0.009137874
000380 24 2b 98 3b c5 d8 e5 3b 2f 36 6f bc a8 80 e9 bb
       0.0046438146 0.0070143663 -0.014600321 -0.0071259327
000390 ae 27 e2 3a df e7 1c 3c 34 a9 0e 3b 00 bc bd bc
       0.0017254257 0.009576767 0.0021768333 -0.023160934
0003a0 66 57 bb bc 8f 59 84 3b ca 58 a8 bb 7b 4d 48 3b
       -0.022868823 0.0040389965 -0.0051375376 0.003056376
0003b0 54 fe 07 ba 42 66 98 3c 18 ea 7c bc 55 e5 b4 bc
       -0.0005187739 0.018603448 -0.015436672 -0.02208201
0003c0 cc 9f 64 3c 8a b7 12 3c 0d 9c ce 38 07 fa 0d 3b
       0.013954114 0.008954892 9.851912e-05 0.002166392
0003d0 bd 94 45 bc fa f6 62 bb 85 2a 4e 3b 6a bd 77 bb
       -0.012059388 -0.0034632073 0.003145845 -0.0037802109
0003e0 e7 7a 71 3c 3a f7 07 bc 92 8b 43 3b 1c a4 0f 3c
       0.014738775 -0.0082986895 0.002983783 0.008767154
0003f0 71 f1 a0 bb fa 82 2f 3c 66 9d 6e 3c 6e 0f 20 b9
       -0.0049115946 0.01071238 0.014563894 -0.00015264537

mlp.fc2.bias f4 [10]
000000 91 c6 5d bc 1f 5b b4 3c 67 6a bf bc 2e e5 50 3c
       -0.013536111 0.022016106 -0.023366166 0.012749953
000010 cf 88 88 3c ae 79 f6 ba af 5d b0 bb f9 fd bd bc
       0.016666798 -0.0018804574 -0.0053822617 -0.023192393
000020 af cb 2b bc 0b 73 a2 3c
       -0.010485574 0.019830247
