cls/cls_model_8953.pth (torch, 158979 bytes, 17 tensors)

feat.conv3d_1.weight f4 [4, 8, 1, 5, 5, 5]
000000 c1 08 80 3f 2e ed ae bf 32 cb 15 bd d2 db 67 be
       1.0002671 -1.3666131 -0.036570735 -0.22642449
000010 a1 94 c8 bf 17 b7 2c 3e 82 d6 a3 bf 9d e9 16 be
       -1.5670358 0.16866718 -1.2799838 -0.14737554
000020 52 48 cd 3f d5 20 eb be 8e b0 c7 3d 03 76 d1 bf
       1.6037695 -0.45923486 0.09750472 -1.6364139
000030 f8 f6 cf bf eb ab 2a c0 03 26 66 3f f0 31 75 3f
       -1.6247244 -2.666743 0.8990175 0.95779324
000040 32 31 96 3f af ac 5f bf b7 2a 99 3e 11 4c 4e 3e
       1.1733763 -0.8737287 0.299154 0.20146205
000050 3a 3e 15 40 e2 c8 68 3e 5d ca 39 bf 49 f5 ce bd
       2.331923 0.2273288 -0.72574407 -0.10105378
000060 1b ba c8 3e ec 0e 0d bf 22 96 ec bf cc a9 28 3e
       0.39204487 -0.55100894 -1.8483317 0.16471022
000070 63 38 10 3f ba 57 c7 3e 6f 6e e5 3f 2d bb 11 3f
       0.5633604 0.38934118 1.7924327 0.5692623
000080 56 29 fe 3e 5d f0 89 bf 1d 03 33 be 12 7d 8d 3f
       0.49640912 -1.0776478 -0.17481656 1.1053793
000090 bf 1e f3 be 3f fc 58 bf e1 4f 5e bf 20 04 7c bd
       -0.47484395 -0.84759897 -0.86840636 -0.06152737
0000a0 cd 1f 96 be a4 bd 03 3f b3 f4 ae 3e 1b 83 6c 3f
       -0.29321137 0.51461244 0.34171066 0.9238755
0000b0 56 14 d6 be a3 84 44 be 21 01 00 3f 69 ea ea bf
       -0.4181239 -0.19191222 0.5000172 -1.8352786
0000c0 c9 79 1e 3e fa 18 f6 bf 29 a2 99 be 64 f3 a6 3f
       0.15476145 -1.9226372 -0.3000653 1.3043027
0000d0 56 86 25 be 1d 8a 4d 3f 3b b9 bb 3f 60 cc 9d bf
       -0.16164526 0.8028887 1.4665903 -1.2327995
0000e0 21 d8 c7 3e 66 79 8b 3f 17 0d ca 3f c9 4c d5 3d
       0.3903208 1.0896423 1.5785245 0.10415036
0000f0 66 cd 1d c0 2a a2 15 40 86 23 6d 3d 8f 56 2e be
       -2.4656615 2.3380227 0.057895206 -0.17025207
000100 95 ad 2b c0 ea 1e aa bf ba 58 e5 be 4c 4d 1c 3f
       -2.6824696 -1.3290684 -0.44794255 0.61055446
000110 22 c1 72 bf 7a e0 a8 3c 92 16 9c bf 1e af 97 bf
       -0.9482595 0.020614851 -1.2194388 -1.1850317
000120 88 b7 dd 3d 25 1c 9c 3f 34 83 c6 3f a0 a0 a7 be
       0.108260214 1.2196089 1.550879 -0.32739735
000130 99 0e fa 3e 3e 6e 8c 3e 85 82 de bf 7e ce e7 3e
       0.48839262 0.27427858 -1.7383581 0.4527473
000140 98 9b ea 3f 8a 19 73 3f 5a 69 40 bf 77 cf 0a 3f
       1.8328733 0.94960845 -0.75160754 0.54222816
000150 de 48 e7 bc 3a a3 b6 3d 63 27 b5 3d 74 15 0c 3f
       -0.028232988 0.08917852 0.08845403 0.54720235
000160 0e d0 8d bf fd 14 7e 3e 9e bc dc bf 3e 88 5b be
       -1.1079118 0.24812694 -1.7245061 -0.21438691
000170 51 60 0f 40 eb 4d 4a 3e 43 40 04 3f 6b 37 6a bf
       2.2402537 0.19756286 0.51660556 -0.9149081
000180 1d 49 a6 bf 35 48 81 bf 18 1d d0 3e d8 65 1f bf
       -1.2991062 -1.0100161 0.40647197 -0.62264776
000190 57 a1 d1 3e 14 2c 78 3f 60 0e 09 3f e8 c4 0e bf
       0.40943405 0.9694226 0.5353756 -0.55769205
0001a0 fd 4a f0 3e b8 7c 5b 3f d1 4f b5 bd 4e 4f da 3e
       0.46932212 0.8573718 -0.088531144 0.4263863
0001b0 60 72 90 3e 16 65 81 bd f2 2d 3b 3e 42 1b 7d 3f
       0.2821226 -0.06318109 0.18279245 0.9886972
0001c0 c7 d8 81 3e 3e 0c 35 bf d6 b7 92 3f 30 c5 70 3f
       0.253607 -0.70721805 1.1462352 0.94050884
0001d0 6d a0 06 3e 05 d7 f9 bb 46 47 2b bf 7f 0f f1 3d
       0.13147135 -0.0076245093 -0.6690563 0.11770534
0001e0 21 ae 7c bf aa 81 24 3c cc bb ab bf 2a bd a6 3d
       -0.987032 0.01004068 -1.3416686 0.08141549
0001f0 24 3e 30 be e7 fc cc be 6d a2 45 3f ab bb e5 3f
       -0.17211205 -0.400367 0.7720097 1.7947897
000200 97 ba 91 3e ad 80 f5 bf 6e 4c 7b 3f 8c f0 9c 3f
       0.2846267 -1.9179894 0.981635 1.2260909
000210 88 88 da be 66 e6 55 bf 6c 0e 00 bf 83 e2 6c 3d
       -0.4268229 -0.83554685 -0.50022006 0.057833206
000220 af f2 af 3d bd e1 3d 3f 75 99 37 3e 6c 64 ed 3c
       0.0859121 0.74172574 0.17929633 0.028978549
000230 4d fb 42 3f 29 e4 25 bf 71 ec a7 bf 73 18 27 3f
       0.76164705 -0.6480127 -1.3119031 0.6527168
000240 6b e6 77 3e 9e 82 c9 bf 6b db de 3f c7 aa 1b 3f
       0.24208991 -1.5742986 1.7410711 0.6080746
000250 01 c4 c8 be c2 76 64 3f 81 26 61 3f 4a cf 8b 3e
       -0.3921204 0.8924371 0.8794938 0.27306587
000260 df a6 8a 3f 6d 54 9d bf 04 de ad 3e d9 6c b0 bf
       1.0832175 -1.229139 0.33958447 -1.3783218
000270 45 73 92 bd 45 9a cf be 2c aa 48 bf ac 9e 85 3b
       -0.07150892 -0.40547386 -0.7838466 0.004077753
000280 f6 c8 a3 be 86 34 72 3f e1 55 df be e5 60 2e 3e
       -0.3198926 0.94611394 -0.43620208 0.1702915
000290 5a 32 4b 3f 99 03 b8 3f 2e 8d 85 3e 3a 59 6c bf
       0.79373705 1.4376098 0.26084274 -0.9232365
0002a0 d4 f5 16 3e 14 4d b6 be e8 0a b4 bf 25 9c e3 3f
       0.14742213 -0.3560568 -1.4065828 1.7782027
0002b0 48 99 f6 3c 22 a9 5f 3e 8c 65 74 3f 84 c8 c1 bf
       0.030102387 0.21841863 0.9546745 -1.5139318
0002c0 08 93 99 3e cb 55 e2 be f1 a1 a5 bd 6d 1b 43 bf
       0.29994988 -0.4420608 -0.080875285 -0.76213723
0002d0 b9 bf c6 be 72 3e 51 bf 8d ae 57 be 25 19 1d bf
       -0.38818148 -0.8173591 -0.2106268 -0.6136649
0002e0 7e b1 01 be df 02 5c be a0 f1 ca be 56 c2 a3 bf
       -0.12665364 -0.2148547 -0.3963747 -1.2793682
0002f0 21 59 6d 3d 37 ca c9 3e a5 31 61 3f c0 cd 2f bf
       0.057946328 0.3941209 0.87966377 -0.68673325
000300 26 07 1e 3f 81 93 b3 3f db 52 15 3f 34 26 0e bf
       0.6172966 1.402939 0.5832955 -0.55527043
000310 c1 a0 34 bf fc 00 7c bf 99 2f 81 bf 70 47 cf be
       -0.7055779 -0.98439 -1.0092651 -0.4048419
000320 9d fe 8b bf b6 a6 95 3f d8 1c da 3e d1 1f 26 bf
       -1.0937077 1.1691501 0.4260013 -0.648923
000330 f1 76 d9 bf 43 d8 89 3e b9 82 a8 3f 24 3f ca 3e
       -1.6989423 0.26922807 1.3164893 0.39501297
000340 0b ac c0 bf bc af af 3e 3c 8d 91 bb 90 9c cd be
       -1.5052503 0.34313762 -0.0044418853 -0.4015851
000350 80 73 d0 be db bc 9d 3f f4 ce f7 be 3f c7 92 3e
       -0.4071312 1.2323259 -0.4840008 0.28667638
000360 48 f0 5a 3f f4 8d 57 3e a3 13 db bc 8d df e1 bd
       0.8552289 0.21050245 -0.026742762 -0.11028967
000370 23 c2 c3 bf 11 5d b9 3f 50 29 15 3f 4b 72 fb be
       -1.5293621 1.4481527 0.5826616 -0.49110636
000380 7d c9 aa bf 61 61 a8 bf 1d f5 38 3e 36 cd 13 c0
       -1.3342739 -1.3154718 0.18062253 -2.3094
000390 bd b6 2a 3f 40 63 22 be dc e9 91 bf a3 8e d1 3e
       0.66685086 -0.15858173 -1.1399493 0.40929136
0003a0 61 ed e8 3f e8 78 79 3f 0b 8b 36 be b6 2c 1c 3f
       1.8197442 0.97450113 -0.17826478 0.61005723
0003b0 79 f7 a4 3f 67 8c 51 3e f2 e2 b8 3f db cd 64 be
       1.2888023 0.20463715 1.4444258 -0.22344153
0003c0 46 8f d4 bd 3e 87 1d bf 3e 9c 5d 3f 38 81 01 3e
       -0.1037889 -0.6153449 0.8656653 0.1264695
0003d0 08 9b 62 3f c0 86 d7 be fe a7 10 3f f6 b9 07 3f
       0.8851781 -0.42094994 0.56506336 0.5301813
0003e0 00 c9 b3 3f 6a f8 98 be 47 a2 c5 3e 22 e5 49 3e
       1.4045715 -0.29877025 0.3860037 0.19716313
0003f0 e6 ca c1 bf 43 23 76 bc 49 41 35 bf 47 18 57 bf
       -1.5140045 -0.0150230555 -0.7080274 -0.8402142

feat.conv3d_1.bias f4 [4, 8]
000000 ed f1 f7 b9 1b 88 b5 b8 f2 e7 6b ba 8f fe b9 b7
       -0.0004729176 -8.656104e-05 -0.0008999101 -2.2172257e-05
000010 d5 0d d2 39 db 2e 51 ba 07 5e 0e 3a bb e2 7d ba
       0.00040064627 -0.00079796993 0.0005430881 -0.00096849696
000020 ed f1 f7 b9 1b 88 b5 b8 f2 e7 6b ba 8f fe b9 b7
       -0.0004729176 -8.656104e-05 -0.0008999101 -2.2172257e-05
000030 d5 0d d2 39 db 2e 51 ba 07 5e 0e 3a bb e2 7d ba
       0.00040064627 -0.00079796993 0.0005430881 -0.00096849696
000040 ed f1 f7 b9 1b 88 b5 b8 f2 e7 6b ba 8f fe b9 b7
       -0.0004729176 -8.656104e-05 -0.0008999101 -2.2172257e-05
000050 d5 0d d2 39 db 2e 51 ba 07 5e 0e 3a bb e2 7d ba
       0.00040064627 -0.00079796993 0.0005430881 -0.00096849696
000060 ed f1 f7 b9 1b 88 b5 b8 f2 e7 6b ba 8f fe b9 b7
       -0.0004729176 -8.656104e-05 -0.0008999101 -2.2172257e-05
000070 d5 0d d2 39 db 2e 51 ba 07 5e 0e 3a bb e2 7d ba
       0.00040064627 -0.00079796993 0.0005430881 -0.00096849696

feat.conv3d_1.attention.fc2.weight f4 [4, 1, 1, 1, 1]
000000 3a 2e 5a bf 68 32 8b be 40 15 ca bc b8 15 22 3f
       -0.85226786 -0.27186894 -0.024668336 0.6331439

feat.bn2.weight f4 [8]
000000 6b 53 81 3f 45 e2 7e 3f 4b bc 77 3f 95 da 74 3f
       1.0103582 0.9956401 0.9677169 0.9564603
000010 7e 57 71 3f c8 49 86 3f dc 9a 88 3f 2c 21 86 3f
       0.9427413 1.0491266 1.0672259 1.0478873

feat.bn2.bias f4 [8]
000000 8e 51 95 3d c3 5c 85 3d 62 f8 c7 3d 23 12 0a bd
       0.07290946 0.065118335 0.09764172 -0.033708703
000010 50 22 6d 3c 5a 4f 24 bd 71 1f 07 3d 74 1c 2a 3d
       0.014473513 -0.040114738 0.03298897 0.04153104

feat.bn2.running_mean f4 [8]
000000 e9 65 90 3e b5 4e 9d 3e 03 53 0b 3e c7 a8 f5 3e
       0.2820275 0.3072411 0.13605885 0.4798033
000010 dd 08 8a 3f cd 25 a8 be e4 c2 05 3d b8 48 20 be
       1.0783955 -0.3284134 0.032656565 -0.1565274

feat.bn2.running_var f4 [8]
000000 59 86 c2 3f 98 95 a2 3f ac 78 86 3f d3 c8 72 40
       1.519725 1.2701902 1.0505576 3.7935073
000010 8f 11 ba 40 0f 8d a3 3f 97 11 cd 3f b5 ac 34 3f
       5.8146434 1.2777423 1.6020993 0.7057603

feat.conv3d_2.weight f4 [4, 16, 8, 3, 3, 3]
000000 f3 8a 72 be 7b 72 0a 40 79 31 6d bf 72 08 ac bd
       -0.23685817 2.1632373 -0.92653614 -0.08400048
000010 39 62 6f be fe fe 4a 3f 5e fe 07 3f 89 23 74 3f
       -0.23377313 0.7929534 0.5312251 0.9536672
000020 eb f5 2d 3f fd 4a 50 3f c7 65 f6 3e 4a 3a 29 3f
       0.67953366 0.81364423 0.48124525 0.6610457
000030 13 d4 81 bf df 90 06 c0 da 73 13 c0 5f 86 ff 3e
       -1.0142845 -2.1025922 -2.303946 0.49907205
000040 99 96 e0 3f e2 98 40 3e 02 b9 c8 bf f0 6e 2b c0
       1.7545959 0.1880832 -1.568146 -2.678646
000050 dd 42 1a 3f e6 45 23 3f e8 c6 08 3e d8 5b 18 3f
       0.60258275 0.6377853 0.13357127 0.5951514
000060 b8 fd a9 3f 0b 87 e1 bf a9 8e c8 bd 90 ae 07 bf
       1.3280554 -1.7619337 -0.09792835 -0.53000736
000070 0f 5c c4 3f 47 1b c8 be 0f 06 02 3f 64 5d 8e 3e
       1.5340594 -0.3908331 0.50790495 0.27805626
000080 60 4e 0f bf 6d 4a 89 3f 91 4c a8 3f 30 7c 4c 3f
       -0.55978966 1.0725838 1.3148366 0.79876995
000090 23 71 60 bd 8c c0 d1 3e cb c0 85 3e e9 8f 00 c0
       -0.054795396 0.40967214 0.26123652 -2.0087836
0000a0 79 19 7a bf cd 7f 27 bf 09 63 cf bd 6f e6 f9 3f
       -0.9769512 -0.65429384 -0.10126311 1.9523448
0000b0 bb 70 0a bf 3b 30 97 bf 99 4d 4b 3e e5 e7 24 3e
       -0.54078263 -1.1811594 0.1985382 0.16104086
0000c0 86 ba 91 bb 3b 31 b0 be ca d1 7e 3d 9a 9d dc be
       -0.004447284 -0.3441256 0.06221179 -0.4308899
0000d0 f9 26 93 bd 5f f6 77 be 0d 87 21 bf 27 54 33 3e
       -0.07185168 -0.24215077 -0.63096696 0.1751257
0000e0 fa ad e7 bd 1c 54 72 bf 49 7e e2 be 3e f2 37 be
       -0.1131248 -0.9465959 -0.44236973 -0.17963502
0000f0 62 14 43 3f 8c 08 fc 3e 26 07 23 bf e8 27 98 bf
       0.76202977 0.4922527 -0.6368278 -1.1887178
000100 be a0 de bf eb 0e 83 3f cb 01 2d bf f2 7f b6 be
       -1.7392805 1.0238928 -0.6758086 -0.3564449
000110 dc f1 27 3e 99 75 bf 3f 7e 95 69 bf e4 72 7d 3f
       0.16400856 1.4957763 -0.9124373 0.99003434
000120 da 5c 05 3f e5 9c 41 bf 94 c7 fd bf 3b 60 e9 bf
       0.52094805 -0.7563003 -1.9826531 -1.8232492
000130 ed e0 0e c0 75 d4 02 3e 67 f3 93 3e b6 c5 44 bf
       -2.2324784 0.12776358 0.2889664 -0.7686418
000140 57 84 2e bf 00 62 9b 3e af 45 07 3f ca ee f0 bf
       -0.68170685 0.30348206 0.52840704 -1.8822873
000150 dd 9d 84 bf 9e 6c 12 3e 5b a9 32 3b 13 a5 2b 3f
       -1.0360676 0.14299247 0.0027261588 0.6704876
000160 9d 53 bf be 93 67 d0 3e 57 10 22 3f 70 0a db be
       -0.3736848 0.4070402 0.6330618 -0.427814
000170 bb 70 09 3f fa 67 3a bf e5 ab a6 bf 5a 90 a7 bf
       0.5368764 -0.72814906 -1.3021208 -1.3090928
000180 c7 b3 d5 3e 7f 44 56 3f c8 10 de 3f 8f f6 37 be
       0.41738722 0.83698267 1.7348871 -0.17965148
000190 8a 58 02 40 42 40 59 3f d6 31 85 bf f3 57 10 bf
       2.036654 0.84863675 -1.0405834 -0.563842
0001a0 0d 39 4f 3e 32 7e 4e bf 53 9c 04 40 6f 95 54 bf
       0.20236607 -0.8066131 2.0720413 -0.8304052
0001b0 18 39 a6 3f 18 25 a3 3f 71 55 20 40 f0 19 f5 3e
       1.2986174 1.2745695 2.505215 0.4787135
0001c0 2e e4 e4 bd d4 7d a8 bf c9 ba 14 3f 69 f3 9c bf
       -0.11176334 -1.31634 0.5809751 -1.2261783
0001d0 f7 65 08 39 4b 0f 84 3f c0 7e 0d 3f 4b c5 21 c0
       0.00013007956 1.0317167 0.5527153 -2.5276668
0001e0 dd 83 52 3f ab 73 b3 bf 6d 7d ce be fc ab 63 be
       0.8223246 -1.4019674 -0.40330067 -0.22233576
0001f0 44 1f b3 bf 99 4d 9c 3f cd 8b 5a bf a9 06 bb 3e
       -1.3993917 1.2211181 -0.8536957 0.3652852
000200 02 36 76 3f c0 e0 30 bf b8 8c 04 bf 28 19 3e 3f
       0.9617616 -0.6909294 -0.5177722 0.74257135
000210 01 4b 58 3f cb ef 98 3f 75 ce 77 3f c3 7d 4e bd
       0.84489447 1.1948179 0.96799403 -0.050412904
000220 da c7 b2 be 7d bb aa bf 9f 94 a2 3e 27 48 ad bf
       -0.349181 -1.3338467 0.31754014 -1.3537644
000230 8b 94 85 3d ad e8 08 40 04 d4 24 bf 54 08 7b 3e
       0.06522473 2.1392014 -0.6438601 0.24514896
000240 c0 8a 0d 3f 9b 81 02 40 d2 62 30 3e ba c2 8c bf
       0.5528984 2.0391605 0.17225197 -1.0996926
000250 f9 9a bb bf 4c 74 b6 bf 39 d7 b8 bf ea 90 07 bf
       -1.4656669 -1.4254241 -1.4440681 -0.52955496
000260 5b 64 87 3e e5 29 6a 3e 03 0d ca bf 3d 81 d6 be
       0.26443753 0.22867544 -1.5785221 -0.41895476
000270 90 4d 98 bf 13 cc de 3d 46 2f 41 bf 92 5f 10 c0
       -1.189867 0.10878768 -0.7546276 -2.2558331
000280 c4 c6 c4 be 9b 45 a8 be ce df e0 3f cd 41 5c bf
       -0.38432896 -0.32865605 1.75683 -0.86037904
000290 1c 6e b0 3f 54 fa 12 bf 66 70 b6 bf 40 4f 58 3f
       1.3783603 -0.5741322 -1.4253051 0.84495926
0002a0 6c d0 e9 bf 5d eb 2b be 2a f0 8a bd b0 e2 b8 3e
       -1.826673 -0.16789003 -0.06784089 0.3611045
0002b0 59 e8 86 3e c3 3f 81 bf 98 0e 4d bf 4f 28 18 3f
       0.26349142 -1.0097584 -0.80100393 0.59436506
0002c0 bb 2e fa bf 64 25 3a bf d6 08 c7 be f9 51 7c bf
       -1.9545511 -0.72713304 -0.3887393 -0.9856258
0002d0 33 46 05 3f a6 94 ef be 19 f5 b8 be a4 4c 9a 3f
       0.5206024 -0.46793097 -0.36124495 1.2054639
0002e0 75 bd 99 3e 3c 1e 16 3f 87 3f 6f be cf f2 9d 3f
       0.30027357 0.58639884 -0.23364078 1.2339724
0002f0 39 bc b8 3f dc e5 07 bf 94 02 f6 bf 52 b1 ba 3f
       1.4432441 -0.5308511 -1.9219537 1.4585364
000300 54 91 b8 bf 0f 02 41 3f 7f 65 13 bf a1 32 d2 3f
       -1.4419351 0.75393766 -0.57576746 1.6421701
000310 58 cc 26 40 32 24 c0 be 57 76 0c 3f 5b a9 6b bf
       2.6062222 -0.37527615 0.5486807 -0.9205529
000320 87 b9 12 c0 53 5a 96 3e 5e c9 35 3f c4 d4 9b 3f
       -2.2925737 0.29365787 0.71010387 1.2174306
000330 3b 92 b0 bd 74 0a b5 3f 71 15 f2 3e 95 f6 0f bf
       -0.08621641 1.4143815 0.47281983 -0.5623563
000340 fa be ed bd 1b 6f aa bf e8 b6 d6 3e 77 38 74 be
       -0.116086915 -1.3315157 0.4193642 -0.23849665
000350 c3 1d c0 be 7d f3 9b be 41 b1 94 bf 02 a1 31 3f
       -0.37522706 -0.30459204 -1.1616594 0.69386303
000360 91 4d 85 bf 9b 5b 8b 3f d9 32 f6 bf 63 51 9a bf
       -1.0414296 1.0887331 -1.9234267 -1.2056087
000370 33 b5 ec 3e ac b3 8e 3e 37 f8 cd 3f 83 1d d8 be
       0.46231994 0.27871454 1.6091374 -0.42210016
000380 2c 3e 6e 3f 2d fc 63 bf 16 96 8d 3f 1a 36 e6 3e
       0.93063617 -0.89056665 1.1061428 0.4496315
000390 a6 c8 9f 3f 1a e5 01 c0 95 db e2 bd c8 d8 0a bf
       1.2483108 -2.0296082 -0.11077038 -0.5423703
0003a0 a2 7b 82 bf 1c ba 27 bf ca 63 24 be cd 07 77 bf
       -1.019398 -0.65518355 -0.16053692 -0.9649628
0003b0 a8 38 28 bf 9a d5 f0 bd 6f c3 80 3f 59 12 58 bf
       -0.6571145 -0.11759491 1.0059642 -0.84402996
0003c0 38 84 d1 3f f2 82 db 3f fa 03 13 bf 13 31 40 3e
       1.6368475 1.7149336 -0.5742794 0.1876872
0003d0 ee 3e c4 bf 17 ee 82 3e b5 e4 f2 3f 69 7f 86 be
       -1.5331705 0.25572273 1.8976046 -0.2626908
0003e0 e7 ba a4 3f d4 29 36 be 09 58 97 3f 79 d7 63 3e
       1.2869538 -0.17789394 1.1823741 0.22250165
0003f0 35 ab 5c bf b4 83 ba 3e c3 1f 83 3e ea e1 1a be
       -0.8619874 0.36428607 0.2561017 -0.15125242

feat.conv3d_2.bias f4 [4, 16]
000000 f8 a0 b1 bd 42 d9 27 3d fc 53 24 bd b5 fb 22 bd
       -0.086732805 0.040978678 -0.040119156 -0.039790828
000010 bf 86 86 bd 9f 81 60 bc fa d5 e3 bc 64 f8 d4 3b
       -0.065686695 -0.013702779 -0.027811993 0.006499337
000020 44 d0 80 bd dc da 85 bd 29 ff 1f bd 15 ca 80 bd
       -0.062897235 -0.06535885 -0.0390617 -0.06288544
000030 1b 3d ed 3c 3a 5d 0e bd 67 a8 25 bd 18 ac 12 3c
       0.028959801 -0.034756877 -0.040443804 0.008952163
000040 1b 34 a5 bd c9 8b ec 3c 93 a1 22 bd be df 12 bd
       -0.08066579 0.028875249 -0.03970487 -0.03585791
000050 6e 52 84 bd df ce b6 bc ff 52 0a bd 70 9c 17 bb
       -0.06461035 -0.02231544 -0.033770557 -0.0023134016
000060 d1 39 83 bd ff a4 85 bd c3 a7 1f bd 9a 35 66 bd
       -0.06407512 -0.06525611 -0.03897835 -0.056203462
000070 7d bc 07 3d 33 45 ff bc e4 b5 1d bd 5f 3f 24 3c
       0.03313874 -0.031160926 -0.038503543 0.0100248745
000080 c9 d5 c6 3d 89 f3 0c bd 1a 98 4d ba 22 97 94 3d
       0.09708745 -0.03441194 -0.00078427943 0.07255389
000090 64 cc 6b 3d a9 66 16 3a 25 74 12 3c 0d 6f 5e bc
       0.05756797 0.00057373435 0.008938824 -0.013576281
0000a0 34 b6 94 3d 1c de 64 3d d2 93 08 3d af 65 9b 3d
       0.07261315 0.055875883 0.033344097 0.07587754
0000b0 6c b3 09 3d af 13 81 3d b2 49 5e 3d eb 67 ee 3b
       0.033618376 0.063025825 0.0542695 0.0072755716
0000c0 6c d7 c0 bd f9 4b 9a 3c 03 94 ef 3c 2b d4 9d bd
       -0.094160885 0.018835055 0.029245382 -0.077064835
0000d0 bb 22 07 bd 80 11 48 3c c8 5e 79 3c 0e 82 9f 3c
       -0.032992106 0.012211204 0.0152203515 0.019471195
0000e0 23 aa 93 bd 83 17 aa bc f2 89 29 bc ad 8b 98 bd
       -0.072101854 -0.020763164 -0.01034783 -0.07448516
0000f0 7c de 58 bd 28 ba 9b bd 4e b7 63 bd 99 2e 9b bc
       -0.052946553 -0.07603866 -0.055594735 -0.018943118

feat.conv3d_2.attention.fc1.weight f4 [3, 8, 1, 1, 1]
000000 ef 5e 79 3e c3 0e 40 3d c9 07 60 be 49 f9 64 3d
       0.2435262 0.046889078 -0.2187797 0.0559018
000010 5b dd 1e 3d 19 b7 00 be f4 00 bb 3e 80 22 9d 3d
       0.03878532 -0.12569846 0.36524165 0.07672596
000020 a3 93 d1 bb 78 ce 6d be 8e 67 5a be 31 6d 9d bc
       -0.0063957735 -0.23223293 -0.21328565 -0.019217106
000030 85 f2 8b 3e f4 bf 75 3e 93 48 77 3e 95 5a 64 be
       0.27333465 0.23999006 0.24148779 -0.2230018
000040 07 9e 4a 3d 05 c5 93 be 7b ed 05 3e 44 68 38 be
       0.049467113 -0.2886125 0.13078873 -0.18008524
000050 8f 88 02 3e 79 06 35 3e 07 0f 18 be c7 67 44 be
       0.12747405 0.1767825 -0.14849482 -0.19180213

feat.conv3d_2.attention.fc2.weight f4 [4, 3, 1, 1, 1]
000000 84 2d f1 3e 0b 85 14 bf f7 56 c5 be 71 04 e1 3e
       0.47105038 -0.5801551 -0.3854291 0.439487
000010 62 1a 19 bf f6 52 a8 3e 0d 5a d5 3a 60 fe e4 be
       -0.5980588 0.32875794 0.0016277448 -0.44725323
000020 38 84 87 be e3 45 0b 3f d4 84 42 3e 48 4c ba 3e
       -0.26468062 0.54403514 0.18995982 0.36386323

feat.bn3.weight f4 [16]
000000 b0 3d 8a 3f c7 f2 88 3f 31 d8 8b 3f 35 46 8a 3f
       1.0800076 1.069909 1.0925351 1.0802675
000010 e2 78 8a 3f f1 6c 89 3f ea 3f 89 3f b7 25 88 3f
       1.081814 1.0736371 1.072263 1.063651
000020 4b ba 8a 3f 20 92 89 3f ad fb 88 3f b6 79 8a 3f
       1.0838102 1.0747719 1.0701805 1.0818393
000030 63 b5 88 3f 02 d3 8a 3f a2 e4 8a 3f ef fd 89 3f
       1.0680355 1.0845644 1.0851023 1.0780619

feat.bn3.bias f4 [16]
000000 4e 7c 8d 3d e0 98 2a 3d ce 67 96 3d f3 77 87 3d
       0.06908475 0.0416497 0.07344018 0.066146754
000010 b9 b4 90 3d d3 6b 5c 3d 7c 9e 41 3d b5 69 17 3d
       0.0706572 0.053813767 0.047270283 0.036966044
000020 a2 06 99 3d fa a3 7a 3d f1 ee 59 3d 60 22 8f 3d
       0.07471968 0.061191536 0.053206388 0.069889784
000030 16 0f 42 3d 77 a8 8f 3d fe 0b a4 3d 6f 14 8f 3d
       0.04737767 0.07014554 0.080101 0.06986319

feat.bn3.running_mean f4 [16]
000000 70 66 3a 40 94 da 45 c1 6f 1e db c0 79 b7 a4 3f
       2.9125023 -12.365864 -6.847465 1.2868491
000010 31 6c db 3f 1e 92 b5 c0 dc 40 47 c1 77 a8 19 c1
       1.7142392 -5.6740866 -12.453335 -9.603629
000020 ac 96 2c 3f 4c 8b 10 40 f8 e6 f6 40 f1 c5 d2 3f
       0.6741741 2.258502 7.7156944 1.6466657
000030 af 33 96 c0 5c 24 db 3f 83 2b 32 40 f8 08 ee 40
       -4.693809 1.7120471 2.7839057 7.438595

feat.bn3.running_var f4 [16]
000000 38 4a d7 42 16 9a da 42 34 d2 89 42 36 0b c6 42
       107.64496 109.30095 68.91055 99.0219
000010 9e 5a 9b 42 76 52 ce 42 3c a9 10 43 65 a5 24 43
       77.67699 103.16106 144.66107 164.64607
000020 15 c1 36 42 42 6d 6d 42 50 a5 f8 42 87 bb 9e 42
       45.688557 59.356697 124.322876 79.366264
000030 49 c7 97 42 65 97 8b 42 0b 3e 45 42 aa 2a 7a 42
       75.88923 69.79569 49.31059 62.541664

mlp.fc2.weight f4 [10, 2000]
000000 53 1e 0a 3c c4 ba 3b 3c 9d 8f 8f bc 54 af 81 3c
       0.008430081 0.011458103 -0.017524535 0.015830673
000010 18 13 67 bd df 63 e8 3c d9 43 f0 3c c3 77 43 3c
       -0.056414694 0.028367935 0.029329227 0.011930409
000020 24 24 af 3a a8 f4 35 bd eb 1e 69 bc c5 ae 87 3c
       0.0013362211 -0.044422776 -0.014228563 0.016562829
000030 66 5f ff 3c 93 8f 14 3c 99 ab 13 bb 45 56 a1 3c
       0.03117342 0.009067434 -0.00225327 0.019694457
000040 26 65 06 3d 9c 12 b3 3c 49 1e bf bc a3 5e f5 bc
       0.032811306 0.02185946 -0.02332987 -0.029952353
000050 ae f8 ef 3b 32 d7 8b bc 11 a7 28 bd dd c6 ed bc
       0.007323346 -0.017070387 -0.041174952 -0.02902549
000060 2c 01 37 bd 7f cf 0e bc 0d 34 31 ba 72 cb d4 bb
       -0.044678852 -0.008716463 -0.00067597703 -0.006493979
000070 87 af 01 bd 24 1c c8 bc b5 4f 40 3c e6 08 a9 bb
       -0.031661537 -0.024427481 0.011737754 -0.0051585315
000080 7d 7e 04 bd 13 d0 7a bc 61 55 a4 bc c3 46 86 bc
       -0.03234719 -0.015308398 -0.020060243 -0.016391164
000090 cd 84 80 bc f5 16 43 bc fd df 8b 3c e0 1a 1c bc
       -0.015688324 -0.011907329 0.01707458 -0.009527892
0000a0 9f 3d 1d 3c ef 32 bf bc be 23 75 3b cc fe 1e bc
       0.009597211 -0.023339717 0.0037405337 -0.009704303
0000b0 92 e1 d4 bc 13 cc d7 bc 05 ee 9e 3a 87 fd 03 bd
       -0.025986467 -0.026342427 0.0012125379 -0.032224204
0000c0 66 84 02 bd 5c 93 1c bd 1c b3 24 b8 7b 62 87 bc
       -0.031864546 -0.03822647 -3.9267456e-05 -0.016526451
0000d0 c4 a9 c6 bc fb f7 ca bb dd 2c 90 bc af 40 93 bc
       -0.024250872 -0.0061941124 -0.017599517 -0.01797518
0000e0 00 55 72 bc 07 e6 5d bc 36 c6 dc bc af c4 f3 bc
       -0.014790773 -0.013543612 -0.026949983 -0.029756872
0000f0 df 6e 6d 3b 90 f8 4c 3c 40 19 87 bc d5 15 8c 39
       0.0036229414 0.012510434 -0.016491532 0.00026719147
000100 dc 52 b6 bb e8 12 b5 3c 0c 0c d9 3c fc 5a 47 3b
       -0.005564077 0.022103742 0.026495002 0.003041922
000110 fe 55 c0 3b 9c 24 4a bc e3 45 d9 3c 4c 11 36 3c
       0.005869626 -0.01233783 0.026522582 0.011112522
000120 9e f7 81 bc 6e 5d 2e bd d6 0c 1e bd c1 fe 87 3a
       -0.015865143 -0.04256957 -0.03858646 0.0010375605
000130 f6 d4 42 bc 05 02 c5 3b f6 1d 18 bc e6 09 1f bd
       -0.011891594 0.0060122036 -0.009284487 -0.0388278
000140 12 6f be bc 6b c0 88 bb 4c ec 01 3c 24 26 83 bc
       -0.023246322 -0.0041733286 0.007929873 -0.016009398
000150 bc 16 16 bc d7 db d8 b9 f9 e3 29 bc 58 be db 3b
       -0.009160694 -0.00041362524 -0.010369294 0.0067060404
000160 1a a0 07 bd 04 78 c4 bb ea bc 54 3c 85 ed 40 3c
       -0.03311167 -0.0059957523 0.012984494 0.011775379
000170 3d 08 11 3b 36 59 96 bc 4f b7 9a bc dc a4 af 3b
       0.0022130155 -0.018353086 -0.018886236 0.005360229
000180 73 64 13 3d 3a 17 94 bc 7b 82 e3 bc 66 a4 84 bc
       0.035984468 -0.018077482 -0.027772179 -0.016191673
000190 b2 ac d2 bb 69 39 d2 b9 e2 07 3e bc ed 2f 0a bc
       -0.0064292783 -0.00040097095 -0.011598559 -0.008434278
0001a0 56 71 5c bd d9 7e 63 bc 81 45 bd 3b c0 33 bf 3a
       -0.053819023 -0.013885223 0.005776108 0.0014587566
0001b0 89 57 cd bc 37 4d 35 bc 90 65 94 bc 65 94 13 ba
       -0.025066154 -0.011065773 -0.018114835 -0.00056297175
0001c0 b3 57 e2 ba e2 de 06 bc 25 77 0a bc 09 fb 92 3c
       -0.0017268568 -0.00823185 -0.008451258 0.017941969
0001d0 1b 8e 16 bc ab 75 be ba 94 af 49 bc bf bc 04 bd
       -0.009189154 -0.0014530917 -0.0123099275 -0.032406565
0001e0 e0 08 58 ba ac 06 8c 3b 0d 10 e9 bb 80 17 94 bc
       -0.00082410686 0.0042732563 -0.007112509 -0.018077612
0001f0 2c dc 37 bd da a5 d1 3c 54 77 89 3c 74 8b b8 3b
       -0.044887707 0.02559178 0.016780533 0.0056318585
000200 b6 08 d9 bc 1e 03 95 3c 44 3a 84 3c cb 2f ee ba
       -0.026493412 0.018189963 0.016141064 -0.0018172202
000210 0d 04 c0 bc 36 fd 55 bc dd 0d bf bc 4a e2 a7 bc
       -0.023439432 -0.0130608585 -0.02332204 -0.020493645
000220 8a 81 c9 bc 2d 99 1e bd 3e d2 96 bc 73 ae b0 bc
       -0.024597902 -0.0387203 -0.018410798 -0.021567559
000230 63 d5 59 3c 90 15 bc bc 39 19 cc bc 1e 49 d8 3a
       0.013295504 -0.0229595 -0.02491437 0.0016501283
000240 13 6e 98 bc 86 93 99 bc 75 b1 a8 3c ac 01 42 3c
       -0.018607175 -0.018747102 0.02059243 0.011841219
000250 90 12 a0 bc 91 07 b7 3c 4d f8 69 bc 24 52 d9 bc
       -0.019540101 0.022342475 -0.014280391 -0.026528426
000260 3d 18 10 bc 1d d8 5b bc 91 3b 68 bc 6b d9 a8 bc
       -0.008794841 -0.013418225 -0.014174358 -0.020611485
000270 3e a9 1b bc 2f 95 8f bb a6 9b 41 bb 7a f0 b1 bb
       -0.0095008 -0.0043817977 -0.0029542237 -0.0054302784
000280 0a 44 96 bc 65 e8 f8 3a f0 b0 df bc f1 3b c2 bc
       -0.01834299 0.0018990157 -0.02730605 -0.023710223
000290 28 bc 9c bc d3 f7 3d 39 e6 9e c8 3b e3 e9 10 3c
       -0.019132689 0.00018116766 0.006122458 0.008844825
0002a0 1b 04 e0 bb fa 85 d6 3a 19 b5 67 3c b4 c2 14 3c
       -0.006836427 0.0016366832 0.014142298 0.009079624
0002b0 47 cf 54 bc 1e e8 14 bc 54 e3 33 3c 3e 65 11 3c
       -0.012988872 -0.009088544 0.010979492 0.008874236
0002c0 c3 01 7a bc ea b0 33 ba 4e 78 a4 3c 6c 09 bd bb
       -0.015259209 -0.00068546704 0.020076897 -0.0057689454
0002d0 9b 58 0f bd b1 84 c6 bb 2c c8 48 3c 99 ca db 3c
       -0.03499661 -0.0060582985 0.012254756 0.026830005
0002e0 ce c0 44 3c 5c 53 05 bd b2 21 40 3c a2 5b 34 3d
       0.012008859 -0.0325502 0.011726784 0.0440327
0002f0 f7 d0 42 3c 63 5f 5a 3c b7 55 30 3c f3 7a 01 b9
       0.011890641 0.013328406 0.0107626235 -0.00012348201
000300 c1 a3 fa 3c ee 7b 83 3c 47 65 f7 3a 7f e2 12 bb
       0.030595662 0.016050305 0.0018874787 -0.0022412834
000310 22 cf 03 3d 38 57 d0 3c 03 0b 10 bc 09 0c 02 bc
       0.03217996 0.025432214 -0.008791688 -0.00793744
000320 b0 c8 f4 ba 39 90 dd bc 7b 50 44 bb bc f4 69 bc
       -0.0018675532 -0.02704631 -0.0029955197 -0.014279541
000330 b0 ac 51 39 3a fc 19 bd 37 6a eb 39 7a e6 32 3d
       0.00019996124 -0.037594058 0.0004490183 0.04367683
000340 87 49 be ba 8a a6 e7 bb 1c a5 eb 3b 17 41 93 bc
       -0.0014517762 -0.0070694136 0.0071913134 -0.017975373
000350 e1 f7 b7 3c ed de f6 3c e3 a9 a5 3c 7a a0 be bc
       0.022457065 0.030135596 0.02022261 -0.02326988
000360 ba 47 ee 3c e3 c5 12 3c 82 f6 60 3c 99 0c f5 3c
       0.029086936 0.008958313 0.013730647 0.029913234
000370 38 73 bf bc 64 e0 c6 3c 79 a3 f4 3b 16 3d d5 3c
       -0.02337037 0.02427692 0.0074657765 0.026030105
000380 cb be c5 3c b3 8b d9 3c 47 81 9e bb b8 61 c6 ba
       0.024138829 0.026555872 -0.0048371884 -0.0015135324
000390 19 b9 a1 ba 9e fc 4e 3c 58 05 ad bb 12 a1 1b bd
       -0.0012338489 0.012633471 -0.005280178 -0.037995405
0003a0 12 71 94 bc 4d 8b c1 3a ad 9a 8a bb d5 f2 92 bb
       -0.018120322 0.0014766246 -0.0042298646 -0.0044845142
0003b0 6c c2 31 bc 5b bf 9d 3c 1a 86 db bc ac 83 b5 bc
       -0.010849576 0.019256284 -0.026797343 -0.022157513
0003c0 ae 74 6c 3c bf 9a 1e 3c e3 44 f8 3b 15 85 9a bb
       0.0144321155 0.009680449 0.0075765713 -0.0047155716
0003d0 03 20 40 bc e8 21 af ba 7b c0 0e bb da c9 f1 3b
       -0.011726382 -0.0013361545 -0.0021782208 0.007378799
0003e0 46 3c 81 3c 20 76 6a 3b c7 0f 96 3c e2 27 27 3d
       0.01577581 0.0035775974 0.01831807 0.04080952
0003f0 8e 6d c2 3c 72 3b 8c 3c ee c7 20 bb 7a b9 54 3c
       0.02373388 0.01711819 -0.002453323 0.012983674

mlp.fc2.bias f4 [10]
000000 79 ef 65 bc d7 18 b6 3c db 0f d0 bc 78 6a f0 3b
       -0.0140341455 0.022228641 -0.025398185 0.007336911
000010 f2 5f 8c 3c 7d 39 27 bc 2a b9 99 bb 00 93 9d bc
       0.017135594 -0.010206577 -0.0046912627 -0.019235134
000020 17 c4 6d bc 8b 8f f5 3c
       -0.0145120835 0.029975673
