cls/cls_model_8309.pth (torch, 158607 bytes, 6 tensors)

feat.conv3d_1.weight f4 [8, 1, 5, 5, 5]
0	0x3d67db8e	0.056605868
1	0x3d9dcbea	0.07704909
2	0x3d990316	0.07471292
3	0xbce22d98	-0.027609631
4	0x3d813039	0.06308026
5	0xbc80f1da	-0.015740324
6	0xbbc1bd9b	-0.0059124953
7	0xbd20514a	-0.039140023
8	0x3d2075da	0.039174892
9	0x3db848ac	0.08998236
10	0x3dbbdddf	0.09173178
11	0xbd872f18	-0.06600779
12	0x3d6c11e6	0.057634257
13	0xbd81cbf1	-0.06337727
14	0xbcd2d8c8	-0.025738135
15	0x3d94a878	0.07258695
16	0x3dbe19f5	0.09282295
17	0xbda1ca35	-0.07899896
18	0xbbb1ecc1	-0.0054298346
19	0x3dba4308	0.090948164
20	0x3d0b81e3	0.034059417
21	0x3d92c650	0.07166731
22	0x3c600132	0.01367216
23	0x3db74eed	0.08950601
24	0xbd585374	-0.052813962
25	0xbcbe99c8	-0.023266688
26	0x3d9fd90c	0.0780507
27	0x3b719e35	0.003686798
28	0xbd23261d	-0.03983127
29	0xba889601	-0.0010420681
30	0x3d8ef05e	0.0697944
31	0x3d073463	0.033008944
32	0x3dbab68a	0.09116848
33	0x3d8c74a8	0.06858188
34	0x3db97b63	0.09056737
35	0x3dc6351a	0.09678097
36	0x3db836d5	0.089948334
37	0xbce9f1b3	-0.028557634
38	0x3da93e33	0.08263817
39	0xbd5b8826	-0.05359664
40	0xbcc347c0	-0.023837924
41	0xbd1ad46c	-0.037800238
42	0x3d8ed137	0.06973498
43	0xbd6f1580	-0.058370113
44	0xbd2633a8	-0.040576607
45	0x3c395158	0.011310898
46	0xbc9b24ec	-0.018938504
47	0x3d14d13a	0.036332346
48	0x3da0147d	0.07816408
49	0x3d374530	0.044743717
50	0xbd4549d2	-0.048166104
51	0x3d6261ab	0.055268925
52	0xbd7df2b6	-0.061999045
53	0x3d302dda	0.043012477
54	0xbd9ff431	-0.07810248
55	0x3d91c065	0.071167745
56	0x3c953eb3	0.018218374
57	0x3d0196ad	0.031637836
58	0xbd8ee23b	-0.06976744
59	0x3dc2d456	0.09513156
60	0x3bca1979	0.0061675874
61	0x3bc4ffe3	0.0060119494
62	0x3cae9e15	0.021315614
63	0xbbe40a2c	-0.0069592204
64	0xbd026aa7	-0.031839993
65	0xbcca7097	-0.02471189
66	0x3d9bd542	0.07609035
67	0xbd86c584	-0.06580642
68	0x3d4645d7	0.04840645
69	0xbd8cd856	-0.068772
70	0xbc4e0450	-0.01257427
71	0x3d9f7c58	0.077873886
72	0xbb1d24e4	-0.0023978287
73	0x3d6d949b	0.05800305
74	0x3d78ecfe	0.06077289
75	0x3c377fc5	0.011199896
76	0x3dcaa3fe	0.0989456
77	0xbd3c9a4c	-0.046045586
78	0x3d1f218c	0.038850352
79	0x3d1ece85	0.03877117
80	0x3d825520	0.063638926
81	0x397e78f3	0.00024268385
82	0xbcf9d097	-0.030494971
83	0x3d8e8df1	0.06960667
84	0x3c246da2	0.010035904
85	0xbd6a0bfd	-0.05714034
86	0x3d83afed	0.064300396
87	0x3cf7a612	0.030230556
88	0xbd901321	-0.070348985
89	0x3ccccd1c	0.025000148
90	0x38c520b5	9.399784e-05
91	0x3d0c684c	0.034279153
92	0x3d9e6ade	0.07735227
93	0x3d98bf50	0.07458365
94	0xbcb41a59	-0.02198522
95	0xbd3c4b5d	-0.04597031
96	0x3d482260	0.048860908
97	0xbd70b5b0	-0.05876702
98	0x3d3838fa	0.044976212
99	0xbc588a37	-0.013216547
100	0x3d72bc67	0.059261706
101	0xbd4c583d	-0.049888838
102	0xbd84aad9	-0.06477899
103	0x3daa9206	0.08328633
104	0xbd4add42	-0.049527414
105	0x3cdd37e1	0.027004184
106	0xbcdf50f4	-0.027260281
107	0x3c281aa6	0.01026026
108	0x3d08e8b6	0.033425055
109	0xbcd6a111	-0.02619985
110	0x3c5f50b0	0.013630077
111	0x3dbee971	0.09321869
112	0xbd95752e	-0.07297741
113	0x3d4b88d4	0.049691036
114	0xbd771337	-0.06032106
115	0x3ce14c4e	0.027502205
116	0xbd58e321	-0.052950982
117	0xbca0cf07	-0.019629968
118	0x3d2d0a13	0.042245936
119	0x3dc3cdd5	0.09560744
120	0x3d879d15	0.06621758
121	0x3d253637	0.040334906
122	0xbd91599c	-0.0709717
123	0xbce862e2	-0.028367463
124	0x3dacb485	0.08432869
125	0x3d518b86	0.05115845
126	0x3c038e1b	0.008029486
127	0x3caccdc3	0.021094209
128	0x3ca3a3cc	0.019975565
129	0x3d3b95e3	0.04579724
130	0x3d210b25	0.03931727
131	0x3da86559	0.082224555
132	0x3d732c68	0.05936852
133	0x3d3cbd53	0.04607899
134	0xba3dae84	-0.00072357827
135	0xbd274cb8	-0.04084465
136	0x3d52a93d	0.05143093
137	0x3be2072f	0.006897829
138	0x3dbd21de	0.09234975
139	0xbc488237	-0.012238077
140	0x3d9155d2	0.07096447
141	0xbd19399a	-0.03740845
142	0xbcde3796	-0.027126115
143	0xbd4797ee	-0.048728876
144	0x3dafe4e0	0.08588576
145	0x3d946cc2	0.072473064
146	0x3d129c56	0.035793625
147	0xbcd426ba	-0.025897373
148	0xbd4cd819	-0.050010774
149	0x3c34d5f7	0.011037341
150	0x3dba95cc	0.09110603
151	0x3d64fbea	0.055904306
152	0xbcb8f06a	-0.022575576
153	0x3c62e5f9	0.013848775
154	0x3c9bbc17	0.019010587
155	0x3d57e759	0.052710865
156	0x3dba56c3	0.0909858
157	0xbd54b74c	-0.051932618
158	0xbd938257	-0.07202595
159	0x3d988704	0.07447627
160	0x3daf7ca0	0.08568692
161	0x3bd203a5	0.006409126
162	0x3c883bcd	0.016630078
163	0x3c85495b	0.01627033
164	0xbd079872	-0.033104368
165	0xbd8fcacd	-0.07021103
166	0xbd8c09dc	-0.06837818
167	0x3d31c5b6	0.043401442
168	0xbd7b756a	-0.06139127
169	0x3b7d5008	0.0038652439
170	0x3c9511be	0.018196937
171	0x3d48b1d4	0.048997715
172	0x3d521bca	0.051296033
173	0xbd9c4ec0	-0.07632208
174	0x3daf31be	0.085544094
175	0x3d567368	0.052356154
176	0x3c5a3f78	0.013320796
177	0x3da597ce	0.08085595
178	0x3d64a871	0.0558247
179	0xbc636d1f	-0.013880997
180	0x3d8d0f45	0.06887678
181	0xbc01b49e	-0.007916598
182	0xbd44f8b3	-0.04808874
183	0xbcb9302e	-0.022605982
184	0x3da0166c	0.07816777
185	0x3d373d09	0.044735942
186	0x3d3370d4	0.043808773
187	0x3d99f250	0.075169206
188	0xbd85565d	-0.06510613
189	0x3d5513bf	0.052020784
190	0xbcee58ec	-0.029095136
191	0x3c13549a	0.008992339
192	0xbba3fc8f	-0.0050044726
193	0x3dc98d9e	0.098414645
194	0xbaf44d71	-0.0018638802
195	0x3d9bd256	0.07608478
196	0x3d568b60	0.052379012
197	0x3d5a3b22	0.05327905
198	0xbd0c7220	-0.034288526
199	0x3cba5282	0.02274442
200	0xbcc45783	-0.02396751
201	0x3d801ebf	0.06255864
202	0xbd32bd57	-0.0436376
203	0x3d39e36d	0.045382906
204	0x3d99e572	0.07514466
205	0x3d9616bc	0.07328555
206	0xbc7799ce	-0.0151123535
207	0xbc226d7f	-0.009913801
208	0xbc8ffba6	-0.01757605
209	0xbc6eef45	-0.0145834135
210	0xbd4d6eed	-0.050154615
211	0x3d9f1995	0.07768551
212	0xbcc8fe8f	-0.024535445
213	0x3d8b5925	0.06804112
214	0xbcd52768	-0.026019767
215	0xbcfb5b2c	-0.030683123
216	0x3db1e380	0.0868597
217	0xbd5f42c6	-0.05450704
218	0x3dc2513a	0.09488149
219	0xbbe75ecc	-0.007060861
220	0xbd9d7679	-0.076886125
221	0xbd15703c	-0.03648399
222	0xbd94f5e0	-0.072734594
223	0x3dc4784d	0.09593258
224	0x3d844dfd	0.064601876
225	0xbda2b4c6	-0.07944636
226	0xbd30f97e	-0.043206684
227	0x3b913855	0.004431764
228	0xbd02fe49	-0.031980786
229	0xbda27a1e	-0.07933448
230	0x3d8721dc	0.06598255
231	0x3d50d982	0.05098868
232	0xbc4ad762	-0.012380453
233	0xbd2c4388	-0.04205659
234	0xbd28228d	-0.041048575
235	0x3da69b77	0.08135121
236	0xbd772a53	-0.060343098
237	0x3d58d742	0.05293966
238	0x3da9e338	0.08295292
239	0xbb811667	-0.003939438
240	0xbd95ec3f	-0.07320451
241	0x3da104b4	0.07862225
242	0x3d0938a8	0.033501297
243	0xbd29da35	-0.041467864
244	0x3d8f44ed	0.069955684
245	0x3dc40b4b	0.095724665
246	0x3d610482	0.05493594
247	0xbd478d20	-0.04871857
248	0x3d0a5c47	0.03377941
249	0x3d8fda36	0.07024042
250	0xbae2a220	-0.0017290749
251	0xbd6591e1	-0.056047324
252	0xbbd54b15	-0.0065091946
253	0x3d877665	0.06614379
254	0xbd0b0033	-0.033935737
255	0x3db38167	0.08764916

feat.conv3d_1.bias f4 [8]
0	0xbd816b8b	-0.0631934
1	0x3d82a45e	0.06379007
2	0xbd6b7d95	-0.05749281
3	0x3cb4cfcf	0.022071747
4	0xbc75ce2f	-0.015002771
5	0x3caea9fc	0.02132129
6	0xbccf4166	-0.02529974
7	0x3afdca89	0.0019362728

feat.conv3d_2.weight f4 [16, 8, 3, 3, 3]
0	0x3d097616	0.03355988
1	0x3d5ccb8f	0.053905066
2	0xbc63ac29	-0.013896027
3	0x3c6be76c	0.014398437
4	0xbceac49c	-0.028658204
5	0xbd45d98a	-0.048303165
6	0x3d8d0218	0.06885165
7	0x3d886298	0.0665943
8	0x3d8fc502	0.07019998
9	0xbce3f7b0	-0.027828068
10	0x398880db	0.00026035946
11	0x3cae528f	0.021279601
12	0xbd65e82a	-0.056129612
13	0x3d455108	0.04817298
14	0x3c82caa6	0.01596577
15	0xbbb84633	-0.005623603
16	0xbcd912b7	-0.026498182
17	0x3d4a2133	0.049348067
18	0x3c3c456f	0.011491164
19	0x3d3afd3b	0.045651656
20	0x3d6fc3fa	0.058536507
21	0x3d5d6392	0.054050036
22	0x3da05a18	0.07829684
23	0xbc7e9f45	-0.0155409025
24	0xbc7969b4	-0.0152229555
25	0x3d450ba5	0.04810681
26	0xbcf72431	-0.030168625
27	0x3d7de56b	0.06198637
28	0x3d9a121d	0.07522986
29	0xbcd839b1	-0.026394697
30	0xbcd19a1d	-0.025586182
31	0x3b7fd0a1	0.0039034265
32	0x3d73d52f	0.05952948
33	0x3abc8376	0.001438244
34	0x3d7d9730	0.06191176
35	0xbbec4ac6	-0.007211062
36	0xbd2f7152	-0.04283268
37	0x3d76d616	0.060262762
38	0xbcb98273	-0.02264521
39	0x3d2105ea	0.03931228
40	0x3cd0a9ad	0.025471533
41	0x3d300711	0.04297549
42	0x3d9228b8	0.07136673
43	0xbd3730cb	-0.044724267
44	0xbd12ded4	-0.035857037
45	0xbcb233a4	-0.02175314
46	0xbd1a84c3	-0.037724268
47	0xbd5d13e9	-0.053974066
48	0xbd3b5bb2	-0.045741744
49	0xbd490f6b	-0.04908697
50	0xbc632b7c	-0.013865348
51	0x3d6ea027	0.058258202
52	0x3d616b2a	0.05503384
53	0x3d39b092	0.045334406
54	0x3d8e50a8	0.06948978
55	0x3d18e21b	0.037325006
56	0x3d5694c5	0.05238797
57	0xbb988f62	-0.0046557644
58	0x3d7ea350	0.062167466
59	0xbb9fa761	-0.004872248
60	0xbb76d2aa	-0.0037662187
61	0x3d5dd22f	0.054155525
62	0xbba64e55	-0.005075256
63	0xbd2f6d47	-0.042828824
64	0x3c432357	0.011910281
65	0x3baeb9ce	0.0053322082
66	0x3d085335	0.033282477
67	0xbb6ccac0	-0.003613159
68	0xbd05df8c	-0.032683894
69	0x3ca90717	0.020633264
70	0x3cd7b76b	0.026332578
71	0x3d2ae83a	0.041725375
72	0x3c0a5ea8	0.008445419
73	0x3c6bb69c	0.014386799
74	0x3c624839	0.013811165
75	0xbcdcf5c7	-0.026972665
76	0xbb21af93	-0.00246713
77	0x3d870443	0.0659261
78	0xbcdabe2c	-0.02670201
79	0x3ba1fdf3	0.004943603
80	0x3d3b1e6d	0.045683313
81	0x3d9ca73a	0.076490834
82	0xbc561dd1	-0.013068632
83	0x3d7a56f5	0.061118085
84	0xbd3d7fdc	-0.046264514
85	0xbc1ba9fd	-0.009500978
86	0x3d82d5ad	0.06388412
87	0xbd3ce693	-0.04611833
88	0x3c214225	0.00984243
89	0x3c18fdfe	0.0093379
90	0x3d77d893	0.060509276
91	0xbc6b81a4	-0.01437417
92	0xbd147354	-0.036242798
93	0x3d658040	0.05603051
94	0xbd060ada	-0.032725193
95	0xbb994bfd	-0.004678248
96	0xbd4fd3aa	-0.050738968
97	0x3b2a5c28	0.002599487
98	0x3d5e713c	0.054307207
99	0x3d9885f2	0.07447423
100	0x3d34ddd9	0.044156883
101	0xbd31de3a	-0.043424822
102	0x3d9f2868	0.07771379
103	0xbd129bfa	-0.035793282
104	0xbced04c0	-0.028932929
105	0xbd3d45ce	-0.04620915
106	0xbd11f130	-0.035630405
107	0xbd26277a	-0.04056499
108	0x3c37090b	0.01117159
109	0x3d744547	0.05963638
110	0x3d82920b	0.06375512
111	0xbc39d653	-0.011342603
112	0x3c3d514c	0.011555027
113	0xbbb187c8	-0.0054177977
114	0x3d0edceb	0.034878653
115	0x3d5bc8f6	0.05365845
116	0xbca65a62	-0.02030677
117	0x3cbf22a1	0.023331942
118	0x3c8b24bf	0.016985295
119	0x3d044eba	0.032301642
120	0x3d43a3c6	0.04776361
121	0xbcf22ae3	-0.029561466
122	0x3d945815	0.07243363
123	0x3d5b8447	0.053592946
124	0xbca8148d	-0.020517612
125	0xbd0b1956	-0.03395971
126	0x3d17a042	0.037018068
127	0x3d9a0fb1	0.07522524
128	0xbc7fe995	-0.015619655
129	0xbd53e856	-0.051735245
130	0x3d428ceb	0.04749767
131	0x3cb3f0b8	0.02196537
132	0xbafe4b77	-0.0019401152
133	0xbc7e075c	-0.015504684
134	0x3c7689a6	0.015047466
135	0x3c1520d5	0.009102066
136	0x3bde65f4	0.006787056
137	0x3d897fc4	0.067138225
138	0xbd30214a	-0.043000497
139	0xbc4270bc	-0.011867698
140	0xbd4c4a3b	-0.04987548
141	0xbd48e9a2	-0.049050935
142	0xbb9de166	-0.0048181294
143	0x3d7b4a17	0.061349954
144	0x3b1222a8	0.0022298489
145	0xbcce8888	-0.025211588
146	0xbc5f328d	-0.013622892
147	0xbd5e5b19	-0.054286096
148	0x3d320565	0.043462176
149	0x3d131e4d	0.03591757
150	0xbce8fa11	-0.028439553
151	0xbd34e808	-0.044166595
152	0x3d33628e	0.04379516
153	0x3d940c41	0.072289
154	0x3d52b261	0.051439647
155	0x3d83a42b	0.06427797
156	0xbd027a86	-0.03185513
157	0xbc3da28c	-0.011574399
158	0xbbb73c84	-0.005591931
159	0x3d40bd8f	0.047055777
160	0x3d7313a8	0.059344918
161	0x3d835b8e	0.06413947
162	0xbd1095ef	-0.035299238
163	0xb9d65888	-0.00040883222
164	0x3d3586f9	0.044318173
165	0x3d877c2c	0.06615481
166	0xbcdec3f1	-0.027193042
167	0xbc6ef386	-0.014584428
168	0xbd63adbe	-0.055585615
169	0xba01d2f3	-0.00049523934
170	0x3da2cad1	0.079488404
171	0x3d19ab79	0.037517045
172	0xbd4d8080	-0.050171375
173	0xbcd41397	-0.025888247
174	0x3d944644	0.072399646
175	0x3d58a50f	0.052891787
176	0xbd314025	-0.043274064
177	0xbcaaf90c	-0.020870708
178	0x3d94ad6a	0.072596386
179	0x3d6e2d94	0.058148935
180	0x3ceb0283	0.028687721
181	0xbc51d05d	-0.012806025
182	0xbd412f28	-0.047164112
183	0xbc7b2d8c	-0.015330683
184	0xbd442323	-0.04788507
185	0x3d2b7189	0.041856322
186	0x3c8fb1b2	0.017540786
187	0x3d58d0b5	0.052933414
188	0x3cc4c508	0.024019733
189	0x3d4a2d9b	0.0493599
190	0x3ca9a8c9	0.020710366
191	0x3b11b550	0.0022233315
192	0x3d8ee9f3	0.06978216
193	0x3cbf821d	0.023377473
194	0x3da12529	0.07868416
195	0x3d6d923c	0.058000788
196	0xbc3c9540	-0.011510193
197	0x3d023a69	0.031793986
198	0xbd345256	-0.044023834
199	0x3d7dcaf5	0.061961133
200	0xbc013333	-0.007885742
201	0xbc997bc8	-0.018735781
202	0x3d661559	0.056172702
203	0xbcab5c67	-0.020918084
204	0x3c3f71bf	0.011684834
205	0x3c2fbde8	0.0107264295
206	0x3cd0be81	0.025481464
207	0x3c1eee33	0.009700346
208	0xbd10d8e8	-0.035363108
209	0x3d60f180	0.054917812
210	0x3d0fde43	0.035124075
211	0xbca5c4bc	-0.020235412
212	0xbd258c07	-0.040416744
213	0x3d620127	0.05517688
214	0x3bcb1941	0.006198079
215	0xbc5c0344	-0.013428513
216	0x3d7761bb	0.060395937
217	0x3c2e798f	0.010649099
218	0x3d052631	0.032507125
219	0x3d57e5e9	0.052709494
220	0x3d40799f	0.046990987
221	0x3c9ecc8a	0.019384641
222	0xbd668912	-0.056283064
223	0x3d8ffe6e	0.070309505
224	0xbcdf1d84	-0.027235754
225	0x3be487f2	0.0069742138
226	0x3c43ddf8	0.011954777
227	0x3d72e598	0.05930099
228	0x3a9aeb7b	0.0011819446
229	0x3c1fb734	0.009748269
230	0xbb9eb54a	-0.0048433887
231	0xbc95c6e1	-0.01828331
232	0xbbe86089	-0.007091586
233	0xbb85bd42	-0.004081399
234	0x3d4276b0	0.04747647
235	0xbb8e6777	-0.00434583
236	0xbcfb4824	-0.030674048
237	0xbd19238e	-0.037387423
238	0xbd0ea716	-0.034827314
239	0xbd484c9d	-0.04890119
240	0xbca4d9ee	-0.020123448
241	0x3c4e434e	0.012589289
242	0x3d8de7e5	0.06928996
243	0xbd04eb6f	-0.03245109
244	0xbcc11a27	-0.02357204
245	0xbd45ca3c	-0.04828857
246	0x3d676ee2	0.05650223
247	0x3d01c608	0.031682998
248	0xbbd8cb15	-0.006616006
249	0x3d37e673	0.044897508
250	0x3cc72df2	0.0243139
251	0xbd42f94c	-0.04760103
252	0x3d88e674	0.066845804
253	0xbc42ee4e	-0.011897637
254	0x3d3ad3c1	0.0456121
255	0xbcb7f201	-0.022454264

feat.conv3d_2.bias f4 [16]
0	0xbd88e372	-0.06684007
1	0xbb7a2bee	-0.0038173157
2	0xbcf3729f	-0.029717742
3	0xbd316261	-0.043306712
4	0x3d9e7697	0.07737463
5	0xbce8a721	-0.028400006
6	0x3cee791e	0.029110488
7	0xbd2c2ba0	-0.04203379
8	0x3d8e789e	0.069566
9	0xbd771301	-0.060320858
10	0x3d860e14	0.06545654
11	0xbc322d36	-0.010875037
12	0x3bbfc411	0.0058522304
13	0xbd4400ed	-0.047852445
14	0x3d82c4a3	0.06385162
15	0xbd45de9c	-0.048308

mlp.fc2.weight f4 [10, 3456]
0	0xbb5d9752	-0.0033812118
1	0xbc11a6fc	-0.00888991
2	0x3c010824	0.007875476
3	0xbc17bbfd	-0.0092611285
4	0x3bb355ac	0.0054728594
5	0xbc407c2e	-0.011748357
6	0x3c405bf6	0.011740675
7	0xbb9538b0	-0.004553877
8	0x3c455b9b	0.012045766
9	0xbc4b425d	-0.012405959
10	0xbc2762cd	-0.010216427
11	0xbc9fdade	-0.019513544
12	0x3c9289dc	0.017888002
13	0xbba05249	-0.0048926217
14	0x3b9d58b9	0.0048018363
15	0x3be970c7	0.00712404
16	0x3c4de1f1	0.012566076
17	0xbc36e591	-0.011163131
18	0xbc5d5312	-0.013508575
19	0xbba3c5cc	-0.0049979445
20	0x3c850a2e	0.016240206
21	0xbc31770b	-0.010831605
22	0x3c63e984	0.013910655
23	0x3a329310	0.0006812075
24	0x3c1a86f0	0.009431586
25	0xbba75a7c	-0.005107222
26	0x3c1e380b	0.009656916
27	0x3c660866	0.014040088
28	0x3b26c2fc	0.002544581
29	0xbcb269cf	-0.02177897
30	0xb8f9e7b4	-0.00011916403
31	0xbbc41da8	-0.0059849806
32	0xbbe44cb4	-0.0069671515
33	0x3bb9645e	0.0056577167
34	0x3c3b6293	0.011437076
35	0xbb9aacc0	-0.0047203004
36	0xbb11b6fc	-0.0022234311
37	0xbb118d69	-0.002220953
38	0x3ba2f94c	0.004973566
39	0x3aee165a	0.001816462
40	0x3c9543f0	0.018220872
41	0x3bce9494	0.006304333
42	0xbc4df863	-0.012571427
43	0x3b02e94f	0.0019975489
44	0x3a971280	0.0011525899
45	0x3a91d208	0.0011125216
46	0x3c88aabb	0.016682973
47	0xbb8f6099	-0.004375529
48	0xbaeeb560	-0.0018212013
49	0xbc1bdfec	-0.009513836
50	0x3bbce84b	0.005764996
51	0xba05833d	-0.00050931034
52	0x3ab14422	0.0013524333
53	0xbc50dd9c	-0.012748148
54	0xbc768d0b	-0.015048276
55	0x3c5f43fa	0.013627047
56	0xbbf4c757	-0.007470052
57	0x3bc39fa6	0.0059699593
58	0x3afb206b	0.0019159442
59	0x3be69419	0.0070366976
60	0xbc93fd3e	-0.018065091
61	0x3c921ffb	0.017837515
62	0x3afa7acf	0.0019110086
63	0x3c2528f3	0.010080564
64	0x3c075aa2	0.008261355
65	0xbcd4aeec	-0.025962315
66	0x3c177ec0	0.009246528
67	0xbbacc7fb	-0.005272863
68	0x3c036700	0.008020163
69	0xbc3bd93a	-0.011465365
70	0x3a2984f0	0.00064666476
71	0xbcdf76a9	-0.027278261
72	0xbc6fd681	-0.014638544
73	0x3c10efee	0.008846266
74	0x3c3fe3bb	0.01171201
75	0xbc2cd2ec	-0.010548335
76	0x3c634a53	0.013872701
77	0x3b5d7266	0.003379011
78	0x3c3740f7	0.011184922
79	0x3c54d16a	0.012989381
80	0xbbde433f	-0.0067829187
81	0xbc18e29c	-0.009331372
82	0xbbd77fdd	-0.006576522
83	0x3c143d98	0.009047888
84	0xbb8b0a7d	-0.0042431937
85	0x3c7473e2	0.014920207
86	0x3c198c30	0.009371802
87	0xbc3f2a77	-0.011667839
88	0xbb071855	-0.0020613868
89	0x3b852be1	0.0040640687
90	0xbc187c92	-0.009307044
91	0x3c524a56	0.012835106
92	0x3c88b39b	0.016687205
93	0x3b432859	0.0029778688
94	0xbc6d919c	-0.014500048
95	0xbc7a3f77	-0.01527392
96	0x3b20c25f	0.0024529917
97	0x3c863c19	0.016386079
98	0x3c85d6fb	0.016337862
99	0x3c9222f3	0.01783893
100	0x3c7b07e7	0.015321708
101	0xbcc1c4eb	-0.023653468
102	0xbb7e5316	-0.0038806847
103	0x3cb45d46	0.022017132
104	0x3bcef84c	0.0063162204
105	0xbb87fb31	-0.0041498174
106	0x39c46101	0.00037456307
107	0x393d5f29	0.00018059895
108	0x3bf01250	0.007326402
109	0xbb359e6a	-0.002771283
110	0xbab24443	-0.0013600666
111	0x39960f53	0.00028621647
112	0xbc1e03ee	-0.009644492
113	0x392343d0	0.00015570153
114	0x3c2bd885	0.010488634
115	0x3c2f1b73	0.010687697
116	0xbc14e67c	-0.009088155
117	0xbbf99bb7	-0.0076174396
118	0xbc2551fc	-0.010090347
119	0xbc0f841b	-0.008759524
120	0xbb7161fb	-0.0036832083
121	0x3bfcc17e	0.0077134958
122	0x3b8f17d2	0.0043668533
123	0x3b9582f7	0.0045627314
124	0xbc6e4b5b	-0.014544333
125	0xbcc131b6	-0.023583274
126	0x3ba3af42	0.0049952576
127	0x3be63866	0.007025766
128	0xb958ea42	-0.00020686633
129	0x3b4bb322	0.0031082113
130	0xbbf67935	-0.007521773
131	0xbcc20ad9	-0.023686813
132	0xbc606d50	-0.013697937
133	0x3ac61eb9	0.0015115357
134	0xbb22ef6e	-0.002486195
135	0xbc8cc77d	-0.017184967
136	0x3bc3d1bf	0.0059759314
137	0x395e3513	0.00021191342
138	0xbc85b32a	-0.016320784
139	0x3c7715ad	0.0150808515
140	0x3bdff58e	0.0068346923
141	0xbbd4ca12	-0.006493815
142	0xbc09321d	-0.008373764
143	0xbc03bcb8	-0.0080405995
144	0x3c19f66b	0.0093971295
145	0x3c529b52	0.012854414
146	0x3c916975	0.017750481
147	0xbb2f58aa	-0.0026755729
148	0x38e3f146	0.00010869144
149	0xbccf33dd	-0.025293285
150	0x3c4653c9	0.012104937
151	0x3c27889e	0.010225443
152	0xbc65d963	-0.01402888
153	0xbaad5b7c	-0.0013226117
154	0xbc8524c1	-0.016252877
155	0xbc80f3a4	-0.015741177
156	0xbca73e6b	-0.020415505
157	0xbc5988ed	-0.013277275
158	0xb9f464d1	-0.0004661442
159	0x3be0ff26	0.0068663536
160	0xbc8d6c9a	-0.0172637
161	0xbcb6483a	-0.022251237
162	0xbc0de2a5	-0.008659993
163	0x3c0ac48e	0.008469714
164	0xbbbae899	-0.0057039973
165	0xbc66b400	-0.014081001
166	0xbc86d37d	-0.016458267
167	0xbbf8c08a	-0.007591312
168	0x3b2fa6ff	0.0026802418
169	0xbc570894	-0.013124604
170	0x3bb5ef5d	0.005552216
171	0xbb57f984	-0.003295512
172	0x3c3a628e	0.011376036
173	0xbcdbf780	-0.026851416
174	0x3c132461	0.008980841
175	0x3caf8bbc	0.021428935
176	0x3c913980	0.017727613
177	0xbbfdcbc0	-0.007745236
178	0xbc263c04	-0.010146145
179	0xbc930e3d	-0.017951125
180	0xbc792f1d	-0.015208987
181	0xbc546e91	-0.012965814
182	0x3b902f17	0.004400145
183	0xbc1ce36a	-0.009575704
184	0x3c838808	0.016056076
185	0xbbf4f40b	-0.0074753813
186	0xbbd57a4c	-0.006514823
187	0xbb94d76b	-0.0045422814
188	0xbb1bc761	-0.0023769962
189	0x3c88e4d1	0.01671067
190	0xbabd0464	-0.0014420864
191	0xbcca249b	-0.024675658
192	0xbc184669	-0.009294131
193	0x3c639db3	0.013892579
194	0x3c67492f	0.014116569
195	0xbab783b7	-0.0014001046
196	0x3ba8c140	0.0051499903
197	0xbc044dfe	-0.008075235
198	0xbc786f1f	-0.015163212
199	0x3b1e4ef6	0.002415595
200	0xbc306f36	-0.010768702
201	0xbbb93e75	-0.0056531974
202	0xba42ef47	-0.0007436168
203	0xb7b3aa2e	-2.1417709e-05
204	0xbc7cb4d2	-0.01542397
205	0x3ca71f74	0.02040074
206	0xbb9175ef	-0.0044391076
207	0xb9fd3cda	-0.00048301258
208	0xbc46c6a7	-0.012132323
209	0xbbdaf8c0	-0.0066824853
210	0x39b512d1	0.0003453703
211	0x3c887bbc	0.016660564
212	0x3bcfa6d4	0.006337026
213	0xbba53c05	-0.0050425553
214	0x3b561048	0.0032663513
215	0xbbc9c85f	-0.0061579193
216	0xbc92ddd4	-0.017928042
217	0xba91c9c0	-0.0011122748
218	0xbc0fd685	-0.008779173
219	0xbc6496dc	-0.013951983
220	0xbc80a5f8	-0.01570414
221	0xbc0db3b7	-0.008648804
222	0xbb1195be	-0.0022214497
223	0x3c8f36b1	0.017482134
224	0xbc80bcf1	-0.015715094
225	0x3c7d7b53	0.015471297
226	0x3c01980f	0.007909789
227	0xbc6ade43	-0.014335218
228	0x3c103eea	0.008804062
229	0x3c950b55	0.01819388
230	0x3c92b723	0.017909592
231	0x3c0949f4	0.008379448
232	0x3c8521fa	0.016251553
233	0xbb2d80a4	-0.002647438
234	0xba04b126	-0.00050617976
235	0xbbb8cb76	-0.005639489
236	0xbc28ec4c	-0.010310244
237	0x3c5b5a0f	0.013388171
238	0xbaa17f95	-0.0012321348
239	0xbc888111	-0.016663106
240	0xbbff53ef	-0.007791988
241	0x3c81ba12	0.015835796
242	0xb901b20a	-0.00012368723
243	0xbb2d49d3	-0.0026441708
244	0x3ae1ffa0	0.001724232
245	0xbc2ae2bb	-0.010430033
246	0xbb0956ad	-0.0020956204
247	0x3c2c94a7	0.010533488
248	0xbc8a8a9a	-0.016911794
249	0xbc668e1d	-0.014071968
250	0xbb9dd123	-0.004816191
251	0xbc27eb3e	-0.010248957
252	0xbb0b8364	-0.0021288032
253	0x3aa93139	0.0012908346
254	0xbb98cf85	-0.00466341
255	0xba558372	-0.0008144892

mlp.fc2.bias f4 [10]
0	0x3b250b43	0.0025183714
1	0x3ca2cbcd	0.01987257
2	0xbcb24d2a	-0.02176531
3	0xbc76469b	-0.015031482
4	0xbaaf1ecb	-0.0013360617
5	0xbc616cb3	-0.013758826
6	0xbb8f8eaf	-0.004381023
7	0xbb0bd745	-0.0021338027
8	0xbc57347d	-0.013135073
9	0x3cd18b95	0.025579253
