cls/cls_model_8284.pth (torch, 158979 bytes, 17 tensors)

feat.conv3d_1.weight f4 [4, 8, 1, 5, 5, 5]
0	0x3f80f17b	1.0073694
1	0xbfab9dbd	-1.3407513
2	0xbc15b406	-0.009137159
3	0xbe54730e	-0.20747015
4	0xbfc4c8c0	-1.5373764
5	0x3e29cd7c	0.16582292
6	0xbfa13d23	-1.2596782
7	0xbe00bfc7	-0.12573157
8	0x3fcf7ffe	1.6210935
9	0xbedf0801	-0.43560794
10	0x3dc35581	0.09537793
11	0xbfcc5536	-1.5963504
12	0xbfcd4182	-1.6035616
13	0xc029a190	-2.650486
14	0x3f6cdd8a	0.9252554
15	0x3f70422e	0.9385098
16	0x3f995f95	1.1982294
17	0xbf5d6112	-0.8647624
18	0x3e9fa132	0.3117767
19	0x3e6b582a	0.2298285
20	0x40158301	2.3361208
21	0x3e873643	0.26408586
22	0xbf3671f4	-0.7126763
23	0xbd994c6e	-0.07485281
24	0x3ed9fb91	0.42574742
25	0xbf087975	-0.5331033
26	0xbfebecae	-1.8431604
27	0x3e3bfe3a	0.18358698
28	0x3f12e3e3	0.5737898
29	0x3ed7a4ff	0.4211807
30	0x3fe6a60a	1.8019421
31	0x3f125e93	0.5717556
32	0x3f02d8ee	0.5111226
33	0xbf87e1de	-1.0615804
34	0xbe11d25c	-0.14240402
35	0x3f8dcf75	1.1078936
36	0xbee6b35e	-0.4505872
37	0xbf55eab3	-0.8356125
38	0xbf596a5b	-0.8492791
39	0xbcab6c78	-0.020925745
40	0xbe9ae8fe	-0.30255884
41	0x3f06f123	0.52711695
42	0x3eafcd30	0.34336233
43	0x3f70d40b	0.9407355
44	0xbebff306	-0.374901
45	0xbe3b6250	-0.18299222
46	0x3f050b3a	0.51970255
47	0xbfea47d0	-1.8303165
48	0x3e3bf9ca	0.18357006
49	0xbff00716	-1.8752162
50	0xbe9c96c6	-0.3058378
51	0x3fa2f9b9	1.2732459
52	0xbe48fc72	-0.1962755
53	0x3f498bc0	0.78728867
54	0x3fbf7169	1.4956485
55	0xbf9e1c1e	-1.2352331
56	0x3ebacb0e	0.36483043
57	0x3f8827dd	1.0637165
58	0x3fcaa934	1.5832887
59	0x3e0cd857	0.13754402
60	0xc01eb5db	-2.4798496
61	0x401535a9	2.3314002
62	0x3ce9917f	0.02851176
63	0xbe2c85a1	-0.1684785
64	0xc028d554	-2.6380205
65	0xbfad0bbb	-1.3519205
66	0xbef052d4	-0.46938193
67	0x3f11f7fd	0.57019025
68	0xbf72e1ab	-0.9487559
69	0x3d873cb1	0.06603373
70	0xbf9c8a83	-1.222977
71	0xbf98fb4d	-1.1951691
72	0x3d9a31f7	0.07529061
73	0x3f9e3f9e	1.2363164
74	0x3fcd2c6c	1.6029181
75	0xbea47825	-0.32122913
76	0x3eed51bf	0.4635143
77	0x3e6a917d	0.22907062
78	0xbfe02638	-1.7511663
79	0x3f0053c3	0.5012781
80	0x3fec9780	1.8483734
81	0x3f6ec869	0.9327455
82	0xbf4a0b52	-0.78923523
83	0x3f09fa52	0.53897583
84	0x3ca7a131	0.020462604
85	0x3dce08eb	0.10060295
86	0x3dbdc6b0	0.09266412
87	0x3f0341a3	0.5127203
88	0xbf8de36a	-1.1085026
89	0x3e9dcfa4	0.3082248
90	0xbfdcd3d8	-1.725215
91	0xbe6b09da	-0.22952977
92	0x400c824a	2.1954522
93	0x3e4032c3	0.18769364
94	0x3f148de0	0.58028984
95	0xbf689a02	-0.9086
96	0xbfa7de60	-1.3114738
97	0xbf864c2c	-1.0491996
98	0x3ed1d6ad	0.40984097
99	0xbf0d29e7	-0.5514206
100	0x3edbc8a6	0.4292652
101	0x3f7e40cf	0.9931764
102	0x3f0c1df2	0.5473319
103	0xbf0bacc9	-0.54560524
104	0x3f01f152	0.5075885
105	0x3f5f40ac	0.87208056
106	0xbd949ff5	-0.07257072
107	0x3ede9620	0.4347391
108	0x3e99527d	0.29945746
109	0xbcf61f4b	-0.030044219
110	0x3e3f13db	0.18659918
111	0x3f82382a	1.017339
112	0x3e8582e2	0.26076418
113	0xbf303f66	-0.6884674
114	0x3f98acfd	1.1927792
115	0x3f6f35d4	0.9344151
116	0x3e1605c0	0.14650631
117	0xbbe083fb	-0.006851671
118	0xbf255c53	-0.64594
119	0x3e2fdf8d	0.17175122
120	0xbf786e53	-0.9704334
121	0x3d20af40	0.03922963
122	0xbfaae3f3	-1.3350815
123	0x3decb4db	0.11557933
124	0xbde69239	-0.112583585
125	0xbec40e82	-0.3829232
126	0x3f4c088e	0.79700553
127	0x3fe205de	1.765804
128	0x3e927ef8	0.28612494
129	0xbff02163	-1.8760189
130	0x3f7eed1f	0.9958057
131	0x3f9ee7ee	1.2414529
132	0xbeec8f06	-0.46202868
133	0xbf56c69a	-0.8389679
134	0xbee85081	-0.4537392
135	0x3dbc4a4d	0.09193859
136	0x3e048e18	0.1294483
137	0x3f38edfa	0.72238123
138	0x3e36eb73	0.17863254
139	0x3d9d7109	0.07687575
140	0x3f4c9a95	0.79923373
141	0xbf1a4b65	-0.6027129
142	0xbfaa0fe1	-1.3286096
143	0x3f260dd0	0.64864826
144	0x3e90cbae	0.28280395
145	0xbfc35ac1	-1.5262071
146	0x3fe5a79c	1.7941775
147	0x3f196a37	0.59927696
148	0xbec289ab	-0.37995657
149	0x3f7012ae	0.937785
150	0x3f642399	0.8911682
151	0x3e9781e1	0.29591277
152	0x3f8a2407	1.0792245
153	0xbf9c046e	-1.2188852
154	0x3eb9a998	0.36262202
155	0xbfafe4f5	-1.3741747
156	0xbd82f8c7	-0.06395107
157	0xbed504ac	-0.41605127
158	0xbf482e6a	-0.7819582
159	0x3d0a98b8	0.03383705
160	0xbe92af74	-0.28649485
161	0x3f7ab228	0.97928095
162	0xbedb4cbb	-0.42831978
163	0x3e337eff	0.17528914
164	0x3f51c65d	0.81943303
165	0x3fbb50cc	1.4634032
166	0x3e992d58	0.29917407
167	0xbf684d11	-0.90742594
168	0x3e1c6880	0.15274239
169	0xbeac29e0	-0.33625698
170	0xbfb02b19	-1.3763152
171	0x3fe85fac	1.8154197
172	0x3d53cd50	0.051709473
173	0x3e7354b2	0.23762777
174	0x3f7c7915	0.98622257
175	0xbfc1dc05	-1.514527
176	0x3e9f514b	0.3111671
177	0xbee11f87	-0.43969366
178	0xbd8702d2	-0.06592335
179	0xbf3aaefc	-0.72923255
180	0xbecb4a59	-0.3970516
181	0xbf5120c3	-0.81690615
182	0xbe5be725	-0.21474893
183	0xbf1e1c88	-0.61762285
184	0xbdcefe3e	-0.101070866
185	0xbe4d272e	-0.20034477
186	0xbec066a3	-0.37578306
187	0xbfa3e55c	-1.280437
188	0x3d78d380	0.060748577
189	0x3eda006c	0.42578447
190	0x3f67af00	0.90501404
191	0xbf29022f	-0.66018957
192	0x3f1fef00	0.6247406
193	0x3fb24e58	1.3930159
194	0x3f187655	0.5955556
195	0xbf06dd2a	-0.5268122
196	0xbf2e0e98	-0.6799102
197	0xbf7c4bf4	-0.98553395
198	0xbf816d34	-1.0111451
199	0xbec64397	-0.38723442
200	0xbf8f88c9	-1.1213619
201	0x3f940250	1.1563206
202	0x3ecd6da7	0.4012272
203	0xbf271f63	-0.6528227
204	0xbfd7ef6e	-1.6869943
205	0x3e6b19d6	0.22959074
206	0x3fa45022	1.2836955
207	0x3eb9de9f	0.3630266
208	0xbfc24a40	-1.5178909
209	0x3eb3f15d	0.35145083
210	0xbc465441	-0.012105049
211	0xbecf9783	-0.40545282
212	0xbedc9ce2	-0.43088442
213	0x3f9c3aba	1.2205422
214	0xbef7ee4d	-0.48423997
215	0x3e88fe3a	0.2675646
216	0x3f5a0ece	0.8517884
217	0x3e383a02	0.17990878
218	0xbd5698da	-0.052391864
219	0xbdf2e271	-0.118595965
220	0xbfc30cca	-1.5238278
221	0x3fb999a8	1.4500017
222	0x3f0e6528	0.556231
223	0xbf04b31e	-0.5183581
224	0xbfabe14e	-1.3428133
225	0xbfaabd9c	-1.3339114
226	0x3e47561d	0.19466443
227	0xc0147e85	-2.3202221
228	0x3f2d8486	0.6778034
229	0xbe051fcc	-0.13000411
230	0xbf9477df	-1.1599082
231	0x3ed3bff4	0.41357386
232	0x3fe7aa4a	1.8098843
233	0x3f7ba417	0.98297256
234	0xbe194029	-0.14965881
235	0x3f1e6228	0.61868525
236	0x3fa81db1	1.3134061
237	0x3e4ce6f6	0.2000998
238	0x3fbaaf09	1.4584666
239	0xbe46aa72	-0.19400957
240	0xbdf8bd9d	-0.12145541
241	0xbf1a9d1b	-0.60395974
242	0x3f596e3f	0.8493385
243	0x3dff1686	0.12455468
244	0x3f69c5d2	0.91317475
245	0xbeda544d	-0.4264244
246	0x3f11c26c	0.5693729
247	0x3f019603	0.50619525
248	0x3fb3800c	1.4023452
249	0xbe89e018	-0.26928782
250	0x3ec70e7e	0.38878244
251	0x3e5a95d7	0.21346222
252	0xbfc3676b	-1.5265936
253	0xbd2c13c5	-0.04201104
254	0xbf408981	-0.75209814
255	0xbf4ef8d5	-0.8084844

feat.conv3d_1.bias f4 [4, 8]
0	0xb9366361	-0.00017393894
1	0x3a164412	0.0005732189
2	0xb8f601f4	-0.00011730558
3	0xb915d039	-0.00014287316
4	0x396d67ee	0.00022640798
5	0x393e214d	0.00018132218
6	0x394e1698	0.00019654108
7	0xba4beeaf	-0.0007779402
8	0xb9366361	-0.00017393894
9	0x3a164412	0.0005732189
10	0xb8f601f4	-0.00011730558
11	0xb915d039	-0.00014287316
12	0x396d67ee	0.00022640798
13	0x393e214d	0.00018132218
14	0x394e1698	0.00019654108
15	0xba4beeaf	-0.0007779402
16	0xb9366361	-0.00017393894
17	0x3a164412	0.0005732189
18	0xb8f601f4	-0.00011730558
19	0xb915d039	-0.00014287316
20	0x396d67ee	0.00022640798
21	0x393e214d	0.00018132218
22	0x394e1698	0.00019654108
23	0xba4beeaf	-0.0007779402
24	0xb9366361	-0.00017393894
25	0x3a164412	0.0005732189
26	0xb8f601f4	-0.00011730558
27	0xb915d039	-0.00014287316
28	0x396d67ee	0.00022640798
29	0x393e214d	0.00018132218
30	0x394e1698	0.00019654108
31	0xba4beeaf	-0.0007779402

feat.conv3d_1.attention.fc2.weight f4 [4, 1, 1, 1, 1]
0	0xbf5a2e3a	-0.85226786
1	0xbe8b3268	-0.27186894
2	0xbcca1540	-0.024668336
3	0x3f2215b8	0.6331439

feat.bn2.weight f4 [8]
0	0x3f822054	1.0166116
1	0x3f80cbd3	1.0062202
2	0x3f7b63f7	0.9819941
3	0x3f7bc93c	0.98353934
4	0x3f7d0b7a	0.98845637
5	0x3f80675e	1.0031545
6	0x3f81263f	1.0089797
7	0x3f82d5f0	1.0221539

feat.bn2.bias f4 [8]
0	0x3cb48e0d	0.022040391
1	0x3caec6f9	0.021335112
2	0x3caefc69	0.021360593
3	0xbc84224a	-0.016129632
4	0x3c233c3d	0.009963092
5	0xbc2f58b8	-0.010702305
6	0x3cbc80de	0.023010667
7	0x3c76b29f	0.015057235

feat.bn2.running_mean f4 [8]
0	0x3ee0beaf	0.4389548
1	0x3ed2d246	0.4117605
2	0x3ec5e32b	0.38649878
3	0x3f1d131a	0.6135727
4	0x3f87ffd2	1.0624945
5	0xbeac980f	-0.33709762
6	0x3d4b2958	0.049599975
7	0xbe007044	-0.12542826

feat.bn2.running_var f4 [8]
0	0x40063d75	2.097501
1	0x3fd7bd69	1.6854678
2	0x400563c6	2.0842147
3	0x408e5937	4.4483905
4	0x40b22b9a	5.5678225
5	0x3fc22010	1.5166035
6	0x3ffd40ea	1.9785435
7	0x3f36555e	0.7122401

feat.conv3d_2.weight f4 [4, 16, 8, 3, 3, 3]
0	0xbe449798	-0.19198453
1	0x400e099e	2.219337
2	0xbf614afa	-0.8800503
3	0xbd4c780f	-0.049919184
4	0xbe3994e8	-0.1812321
5	0x3f5575b5	0.8338273
6	0x3f0f79d7	0.5604529
7	0x3f732f85	0.94994384
8	0x3f280e7a	0.6564709
9	0x3f583ccd	0.84467775
10	0x3f089fc2	0.5336877
11	0x3f3303a7	0.6992745
12	0xbf7c9f8f	-0.9868097
13	0xc002fcfd	-2.0466912
14	0xc011428e	-2.2696872
15	0x3f04b216	0.5183424
16	0x3fe3aeb5	1.7787691
17	0x3e352a52	0.17691925
18	0xbfc52539	-1.5401984
19	0xc028584a	-2.6303887
20	0x3f231778	0.63707685
21	0x3f2a4183	0.6650621
22	0x3e3898ce	0.1802704
23	0x3f202775	0.62560207
24	0x3facfcbd	1.351463
25	0xbfde9880	-1.7390289
26	0xbdb43dd3	-0.088008545
27	0xbf00ce99	-0.50315243
28	0x3fc970a3	1.5737499
29	0xbea9fe56	-0.33201855
30	0x3f065b2a	0.52482855
31	0x3e9cae82	0.3060189
32	0xbf040ea5	-0.51584846
33	0x3f8a7201	1.0816041
34	0x3fa6fc33	1.3045715
35	0x3f4a5f26	0.79051435
36	0xbc90afd7	-0.017661972
37	0x3ee846ac	0.45366418
38	0x3ea607f8	0.32427955
39	0xbffc638c	-1.9717879
40	0xbf6d6c5c	-0.9274347
41	0xbf1895ac	-0.5960338
42	0xbda9cb93	-0.08290782
43	0x3ff7e0f0	1.936552
44	0xbf114f35	-0.56761485
45	0xbf926dc9	-1.1439754
46	0x3e73e633	0.23818283
47	0x3e5e5ffe	0.21716306
48	0x3d07edfe	0.03318595
49	0xbe9be48b	-0.30447802
50	0x3de335a0	0.110942125
51	0xbed1b20e	-0.40956157
52	0xbdafd808	-0.085861266
53	0xbe85b4b9	-0.26114443
54	0xbf22cbcc	-0.6359222
55	0x3e2c97c6	0.16854772
56	0xbdafc426	-0.08582334
57	0xbf6f98b3	-0.93592376
58	0xbedd01aa	-0.43165332
59	0xbe182ee0	-0.14861631
60	0x3f457c19	0.77142483
61	0x3f01e7e2	0.5074445
62	0xbf210007	-0.62890667
63	0xbf986528	-1.190587
64	0xbfe03231	-1.7515317
65	0x3f845f08	1.0341501
66	0xbf29a30d	-0.6626442
67	0xbeaee03a	-0.34155446
68	0x3e4abe50	0.19799161
69	0x3fc36b60	1.5267143
70	0xbf62981d	-0.88513356
71	0x3f815062	1.0102656
72	0x3f0263fa	0.509338
73	0xbf462c70	-0.77411556
74	0xbffccfae	-1.9750879
75	0xbfe8c4f6	-1.8185108
76	0xc00de9a8	-2.2173862
77	0x3e1bdaa0	0.15220118
78	0x3ea3e8a7	0.32013437
79	0xbf3f2d6f	-0.746787
80	0xbf29240f	-0.66070646
81	0x3ea1185d	0.314639
82	0x3f14573b	0.57945603
83	0xbfec2b4b	-1.8450712
84	0xbf8338c3	-1.0251697
85	0x3e4b7011	0.19866969
86	0x3cfc986a	0.030834395
87	0x3f2cc792	0.6749202
88	0xbead903a	-0.338991
89	0x3ed2cc7d	0.41171637
90	0x3f23e472	0.64020455
91	0xbec89cf3	-0.39182243
92	0x3f0dd685	0.55405456
93	0xbf3781ac	-0.7168224
94	0xbfa03ee4	-1.2519193
95	0xbfa5e965	-1.2961851
96	0x3ed67d6c	0.41892564
97	0x3f5a7173	0.8532936
98	0x3fdb4fd1	1.7133733
99	0xbe3dab3f	-0.18522356
100	0x4003bbbf	2.058334
101	0x3f5cd113	0.8625652
102	0xbf84ebd5	-1.038447
103	0xbf07aa1a	-0.5299393
104	0x3e5ac810	0.2136538
105	0xbf4e9c78	-0.807075
106	0x4005336b	2.0812633
107	0xbf577124	-0.84157014
108	0x3fa8d865	1.3191038
109	0x3fa779da	1.3084061
110	0x4023e30e	2.5607333
111	0x3efd3115	0.4945151
112	0xbd9ebe37	-0.07751124
113	0xbfa1c9dd	-1.2639729
114	0x3f1890b5	0.59595805
115	0xbf9a749c	-1.2066836
116	0x3d0f16a2	0.034933694
117	0x3f8726a6	1.055867
118	0x3f15ed37	0.58565086
119	0xc01e9672	-2.4779325
120	0x3f5a3f67	0.85252994
121	0xbfade483	-1.3585361
122	0xbeb42128	-0.35181546
123	0xbe4b2ff6	-0.19842514
124	0xbfb04bf1	-1.3773175
125	0x3f9ff8f8	1.2497854
126	0xbf533413	-0.82501334
127	0x3ecdfba1	0.4023104
128	0x3f812f78	1.0092611
129	0xbf27062a	-0.6524378
130	0xbef10554	-0.47074378
131	0x3f4a469e	0.79014003
132	0x3f6131d1	0.8796664
133	0x3f9d9825	1.2312056
134	0x3f80ab67	1.0052308
135	0xbc8193c7	-0.015817536
136	0xbeaf3e63	-0.34227285
137	0xbfacd138	-1.3501348
138	0x3e9b3629	0.30314758
139	0xbfae2f84	-1.3608251
140	0x3cf11d1c	0.029432826
141	0x400666fc	2.1000357
142	0xbf2dd32c	-0.6790035
143	0x3e4011c6	0.1875678
144	0x3f128274	0.57230306
145	0x4002fe5b	2.0467746
146	0x3e290098	0.16504133
147	0xbf8c36b6	-1.0954196
148	0xbfba62e5	-1.456143
149	0xbfb93bea	-1.4471409
150	0xbfbe4053	-1.486338
151	0xbf0febf8	-0.56219435
152	0x3e52b3b0	0.20576358
153	0x3e828f12	0.2549978
154	0xbfc9df60	-1.5771294
155	0xbedc54eb	-0.43033537
156	0xbf99a05c	-1.2002063
157	0x3de0d88f	0.10978805
158	0xbf483af2	-0.78214943
159	0xc01314a5	-2.298135
160	0xbed926fd	-0.42412558
161	0xbec8cd9b	-0.39219365
162	0x3fe6aa64	1.8020749
163	0xbf4a01ae	-0.78908813
164	0x3fb7ae58	1.435008
165	0xbf0a9bb9	-0.54143864
166	0xbfae1855	-1.3601176
167	0x3f5df9d6	0.86709344
168	0xbfe546e2	-1.7912257
169	0xbdf71e1c	-0.1206629
170	0xbdbce997	-0.09224241
171	0x3ecc1ea2	0.3986712
172	0x3ea43fbb	0.32079872
173	0xbf746287	-0.9546284
174	0xbf46ba9b	-0.7762849
175	0x3f237c8c	0.6386192
176	0xbff6e78b	-1.9289411
177	0xbf354eaa	-0.70823157
178	0xbec4b11b	-0.3841637
179	0xbf8220b0	-1.0166225
180	0x3f04954a	0.517903
181	0xbee2f590	-0.44327974
182	0xbeaa7e50	-0.33299494
183	0x3f98f635	1.1950136
184	0x3e9ed071	0.31018403
185	0x3f1a30c2	0.6023065
186	0xbe810767	-0.2520096
187	0x3f9a54a8	1.2057085
188	0x3fb34d37	1.4007939
189	0xbf00a1e6	-0.5024704
190	0xbff3fbcc	-1.9061217
191	0x3fb7a2cb	1.4346555
192	0xbfb4bb03	-1.4119571
193	0x3f4813a0	0.78154945
194	0xbf1fde99	-0.6244903
195	0x3fd1a0f4	1.6377244
196	0x40268a6d	2.6021988
197	0xbedb3dce	-0.4282059
198	0x3f0db6da	0.55357134
199	0xbf6ab247	-0.9167828
200	0xc013e239	-2.3106825
201	0x3ea4473d	0.320856
202	0x3f3f4695	0.74717075
203	0x3f9a8a36	1.2073429
204	0xbda8f260	-0.08249354
205	0x3fb5aad7	1.4192761
206	0x3ed9c4b8	0.42532897
207	0xbf14174d	-0.57848054
208	0xbe0481af	-0.12940095
209	0xbfacb84e	-1.3493745
210	0x3edba231	0.4289718
211	0xbe58df62	-0.21178964
212	0xbec71e43	-0.38890275
213	0xbe988c5f	-0.29794595
214	0xbf937b02	-1.1521914
215	0x3f2ca653	0.6744129
216	0xbf85b001	-1.0444337
217	0x3f891a41	1.0711137
218	0xbff367b3	-1.9016021
219	0xbf9eb192	-1.239794
220	0x3ed6b919	0.41938093
221	0x3e8c260d	0.2737278
222	0x3fc8e6c5	1.5695425
223	0xbef3a226	-0.47584647
224	0x3f662f3d	0.8991583
225	0xbf5e60db	-0.8686654
226	0x3f8a8235	1.0820986
227	0x3ef135ff	0.47111508
228	0x3f9d141e	1.2271764
229	0xc0061006	-2.094728
230	0xbde043f8	-0.10950464
231	0xbf12c92f	-0.5733823
232	0xbf8b1187	-1.0864724
233	0xbf31305b	-0.6921441
234	0xbdf20f71	-0.118193515
235	0xbf6f3073	-0.934333
236	0xbf1e9d93	-0.6195919
237	0xbdb94931	-0.09047163
238	0x3f82c669	1.02168
239	0xbf5083c9	-0.8145109
240	0x3fd380f7	1.6523732
241	0x3fda9ba4	1.7078748
242	0xbf13f142	-0.57790005
243	0x3e428a5f	0.18998097
244	0xbfc33ddb	-1.5253252
245	0x3e916f6f	0.2840533
246	0x3ff20345	1.8907248
247	0xbe86440d	-0.26223794
248	0x3fa73fff	1.3066405
249	0xbe4b4216	-0.19849429
250	0x3f93f320	1.1558571
251	0x3e6460e5	0.22302587
252	0xbf62eacf	-0.8863954
253	0x3e9436e8	0.2894814
254	0x3e8494d7	0.25894806
255	0xbe39d82c	-0.1814887

feat.conv3d_2.bias f4 [4, 16]
0	0xbc5e6954	-0.013574917
1	0x3c10bbf4	0.008833874
2	0xbc398a27	-0.011324442
3	0xbb94efe7	-0.0045452
4	0xbc55d516	-0.013051292
5	0x3b666190	0.0035153367
6	0xbc0ad048	-0.00847251
7	0x3b3d355c	0.0028870916
8	0xbc877be8	-0.016538575
9	0xbc9da41c	-0.019243293
10	0xbc7b8154	-0.015350658
11	0xbc88fa5c	-0.016720943
12	0x3c95b9c6	0.01827706
13	0x3a4eafbf	0.00078844646
14	0x3c2f7f4c	0.010711502
15	0xba809a06	-0.0009811528
16	0xbc5a356f	-0.013318404
17	0xbab4a7e7	-0.0013782949
18	0xbc40eca0	-0.011775166
19	0xbb3b95d3	-0.0028623238
20	0xbc716c26	-0.014735257
21	0x399a395a	0.000294159
22	0xbc2d0590	-0.010560408
23	0xbb53b33d	-0.003230288
24	0xbc87bb2d	-0.016568745
25	0xbca16f3e	-0.019706365
26	0xbc7a339a	-0.015271092
27	0xbc6fae2c	-0.014628928
28	0x3c8e110f	0.017342119
29	0x3a82345b	0.0009933816
30	0x3c36ff06	0.011169201
31	0xb98d1452	-0.00026908756
32	0x3c86e7f4	0.016468026
33	0xbb39972c	-0.0028318865
34	0xbc1fcbf8	-0.00975322
35	0x3cab0652	0.020877037
36	0x3b30f497	0.0027001256
37	0xbc29a6ae	-0.010354681
38	0x3bc10baa	0.005891283
39	0xbb131d19	-0.0022447763
40	0x3cac4175	0.021027306
41	0x3c4313a2	0.011906536
42	0x3c2730d0	0.010204509
43	0x3cbe9559	0.023264574
44	0x3c8066a3	0.015673941
45	0x3c15eae8	0.009150244
46	0x390c1335	0.00013358596
47	0x3c2848ad	0.0102712335
48	0xbc86cd03	-0.01645518
49	0xb988f2a4	-0.00026120723
50	0x3c97237a	0.018449534
51	0xbcb9f156	-0.022698086
52	0x3c0dd76b	0.008657317
53	0x3c40caf7	0.011767141
54	0xba81b206	-0.0009894974
55	0x3b58867f	0.003303915
56	0xbcb816bf	-0.022471784
57	0x3b127b38	0.0022351276
58	0x3a3e8938	0.0007268372
59	0xbcc0478c	-0.023471616
60	0xbcb6e3a7	-0.02232535
61	0xbc8a9d7a	-0.016920794
62	0xbc2d176f	-0.010564669
63	0xbc6f37cc	-0.014600705

feat.conv3d_2.attention.fc1.weight f4 [3, 8, 1, 1, 1]
0	0x3e67f226	0.22650966
1	0x3ce44574	0.02786515
2	0xbe708981	-0.23489954
3	0x3d3f7458	0.046741813
4	0x3cb902a3	0.022584265
5	0xbe1524ec	-0.14564866
6	0x3eb2a991	0.34894994
7	0x3d82e3e3	0.06391122
8	0xbb71a8c0	-0.0036874264
9	0xbe6d5e52	-0.23180512
10	0xbe58379a	-0.2111496
11	0xbc5c2f37	-0.013438991
12	0x3e8cc256	0.27492017
13	0x3e7c0541	0.24611379
14	0x3e75755f	0.23970555
15	0xbe5e3af2	-0.21702173
16	0x3d7b5c00	0.061367035
17	0xbe90aed8	-0.28258395
18	0x3e10fc71	0.14158799
19	0xbe2bbbf2	-0.16770914
20	0x3e0c005a	0.13672009
21	0x3e4f93c2	0.20271209
22	0xbe0dfddc	-0.13866371
23	0xbe2ad5f7	-0.16683184

feat.conv3d_2.attention.fc2.weight f4 [4, 3, 1, 1, 1]
0	0x3ef03562	0.46915728
1	0xbf158a7b	-0.5841443
2	0xbed66f1d	-0.41881648
3	0x3ee3769f	0.44426438
4	0xbf129dec	-0.5727222
5	0x3ea67ab5	0.32515493
6	0x3c90813c	0.017639749
7	0xbef1905b	-0.47180447
8	0xbe84c801	-0.2593384
9	0x3f08ec29	0.5348535
10	0x3e3a155c	0.1817221
11	0x3ecc0cc1	0.3985348

feat.bn3.weight f4 [16]
0	0x3f82726d	1.019117
1	0x3f828143	1.0195698
2	0x3f829bee	1.0203836
3	0x3f82d420	1.0220985
4	0x3f82c9ec	1.0217872
5	0x3f82afff	1.020996
6	0x3f827dd7	1.0194653
7	0x3f8283fd	1.019653
8	0x3f82b2c0	1.02108
9	0x3f824c83	1.01796
10	0x3f826bed	1.0189186
11	0x3f8293aa	1.0201313
12	0x3f829235	1.0200869
13	0x3f82b7e8	1.0212374
14	0x3f830341	1.0235368
15	0x3f82b900	1.0212708

feat.bn3.bias f4 [16]
0	0x3ca79725	0.020457814
1	0x3c88f4cd	0.016718293
2	0x3c9a8562	0.01886243
3	0x3cbb85a0	0.022890866
4	0x3ca4db59	0.020124124
5	0x3c9b663a	0.018969644
6	0x3c8c8075	0.017151097
7	0x3c897b04	0.016782291
8	0x3caf898b	0.02142789
9	0x3c9828bf	0.018574117
10	0x3c8de193	0.017319476
11	0x3c9e8e47	0.019354952
12	0x3c99f784	0.018794782
13	0x3ca5af9b	0.020225337
14	0x3cbe97f7	0.023265822
15	0x3cb35e86	0.021895658

feat.bn3.running_mean f4 [16]
0	0x40c0dd5c	6.0270214
1	0xc14be79a	-12.744043
2	0xc0a59fe5	-5.1757684
3	0x3fbb139a	1.4615357
4	0x40417b85	3.023164
5	0xc0cf36d3	-6.4754424
6	0xc15b3cc8	-13.702339
7	0xc12d77a5	-10.84171
8	0x3e969966	0.2941391
9	0x40ca6fe9	6.326161
10	0x412e532a	10.895304
11	0x4011d3a0	2.2785416
12	0xc0c9a3b6	-6.3012342
13	0x3fd15a4d	1.6355683
14	0x4089c0a0	4.304764
15	0x40e3b2ae	7.1155615

feat.bn3.running_var f4 [16]
0	0x430c0e47	140.05577
1	0x430473bc	132.45209
2	0x425a3591	54.55231
3	0x42bdbe37	94.87151
4	0x429726c8	75.575745
5	0x42ec6e66	118.21562
6	0x43265b8b	166.35759
7	0x434ee49b	206.89299
8	0x423e3555	47.552082
9	0x4293c118	73.87714
10	0x431c91a6	156.56894
11	0x42a48142	82.25246
12	0x42cf99de	103.80052
13	0x42932563	73.57302
14	0x423a21b7	46.532925
15	0x42740180	61.001465

mlp.fc2.weight f4 [10, 2000]
0	0xbc149d1e	-0.009070663
1	0xbb9159f4	-0.004435772
2	0xbc8c4928	-0.017124727
3	0x3c14f1f0	0.0090908855
4	0xbd051e7c	-0.032499775
5	0x3c9f5c8f	0.019453315
6	0x3c7250f5	0.0147898095
7	0x3b796364	0.0038053626
8	0xbc460017	-0.012084982
9	0xbc855a59	-0.016278433
10	0xbc7c596f	-0.015402182
11	0x3c1a3a2c	0.009413283
12	0x3cad9ea6	0.021193814
13	0xbbd43efc	-0.006477235
14	0xba4fc7b6	-0.00079261826
15	0x3c3d2837	0.0115452325
16	0x3c96a5e3	0.018389648
17	0x3c53cd39	0.012927347
18	0xbc9052a1	-0.017617526
19	0xba5bd3b3	-0.00083857327
20	0x3bdd129b	0.0067466027
21	0xbc7d9a6a	-0.01547871
22	0xbbc87764	-0.006117748
23	0x3b9cc101	0.00478375
24	0xbba6f23d	-0.005094795
25	0xbbc24773	-0.0059289276
26	0x3c4322cf	0.0119101545
27	0x3c9b8637	0.018984897
28	0xbcc25f22	-0.023727003
29	0x39d4d2aa	0.00040592748
30	0x3c50ccb3	0.012744117
31	0x3b09a794	0.0021004425
32	0xbc855508	-0.016275898
33	0xbc96c3f8	-0.018403992
34	0xbad29634	-0.0016066493
35	0xbc31fe28	-0.010863818
36	0xbc0e5a21	-0.008688481
37	0xbc0b2366	-0.008492326
38	0x3c57da95	0.013174673
39	0x3c4fc7ac	0.012681883
40	0x3c65c562	0.0140241105
41	0xbca5deb6	-0.020247798
42	0x3c3d561c	0.011556175
43	0x3a8a2a7f	0.0010541229
44	0xbbe71d78	-0.0070530735
45	0xbcb4eb3e	-0.022084828
46	0x3b501753	0.0031752184
47	0x3ad2d66e	0.0016085634
48	0x3c2c344b	0.0105105145
49	0x3aee5443	0.0018183071
50	0x3b9b8ecb	0.004747247
51	0xbc44cfa0	-0.012012392
52	0xbb92cce2	-0.0044799903
53	0xba64753d	-0.00087149796
54	0xbac015ef	-0.0014654974
55	0xbc50b84e	-0.012739254
56	0xbbfadd3c	-0.0076557677
57	0xbb04790d	-0.0020213753
58	0xbc947c08	-0.018125549
59	0xbbbca955	-0.0057574906
60	0x3bae4d29	0.005319257
61	0x3c924268	0.01785393
62	0xbc028d3c	-0.007968243
63	0x3c324357	0.010880313
64	0x3c482112	0.012214916
65	0x3cabdafd	0.020978445
66	0x3cb31c38	0.021864042
67	0x3bde8e06	0.006791833
68	0x3c3c8efb	0.011508699
69	0x3b88264b	0.0041549555
70	0x3c46542b	0.012105028
71	0xbbda3727	-0.0066594067
72	0xbc809147	-0.015694274
73	0xbc898466	-0.016786765
74	0xbbb9ae0f	-0.0056665014
75	0xbb82ce9d	-0.0039919154
76	0xbc3597cf	-0.011083557
77	0x3c499a49	0.012304851
78	0xbc00b332	-0.0078552235
79	0xbcd9ac7e	-0.026571508
80	0xbc94fef8	-0.018187985
81	0x3b0468de	0.0020204107
82	0x3c8c0dd1	0.017096432
83	0xbc1f5d6e	-0.009726865
84	0x3bd9a127	0.0066415253
85	0x3c0740a7	0.00825516
86	0xbbd90109	-0.006622438
87	0x3c7baa04	0.015360359
88	0xbc7601f2	-0.015015112
89	0x3bd1065b	0.0063789315
90	0x3c367e53	0.0111385165
91	0x3c15e95b	0.009149875
92	0x3c0129d2	0.007883506
93	0xbb925519	-0.004465711
94	0xbbb9a3b8	-0.0056652687
95	0xbc509a7a	-0.012732143
96	0x3c85b0b6	0.016319614
97	0xbcb16d5e	-0.021658596
98	0xbc02292a	-0.007944385
99	0xbac6ba5a	-0.0015161738
100	0xbcade796	-0.021228593
101	0xbc859464	-0.01630611
102	0xbc6e488a	-0.014543662
103	0x3bdc4197	0.006721686
104	0xbce18279	-0.027528035
105	0xbc9b5f4f	-0.018966345
106	0x3c118f07	0.008884198
107	0x3b506f5a	0.0031804652
108	0xbc8645db	-0.016390732
109	0xb9359360	-0.00017316407
110	0xbc8e5e7f	-0.017379044
111	0x3b9c68a3	0.004773216
112	0x3b6eb0cf	0.0036421304
113	0x3a9d805c	0.0012016403
114	0x3b45b3a4	0.0030166889
115	0x3c641b89	0.0139225805
116	0xbc2367b6	-0.009973457
117	0x3ba5e4af	0.0050626616
118	0xbb7375dc	-0.0037149107
119	0xbca10b53	-0.01965872
120	0xbc937e95	-0.018004695
121	0xbc5f6424	-0.013634715
122	0xbc06190f	-0.008184685
123	0x3b3e1a68	0.0029007439
124	0xbcbdf35c	-0.023187332
125	0x3c77f717	0.015134594
126	0xbbf0a1e0	-0.0073435158
127	0xba340c3a	-0.0006868277
128	0xbcc57cd6	-0.024107378
129	0x3c54c31a	0.012985969
130	0x3c8af4bd	0.016962403
131	0xbbca0de6	-0.0061662076
132	0xbc91ac24	-0.017782278
133	0xbb980fab	-0.0046405396
134	0xbca087b4	-0.019595958
135	0xbc970950	-0.018437058
136	0xbcb97197	-0.022637172
137	0xbccead4f	-0.025229124
138	0xbc27a6f4	-0.010232676
139	0xbca1c610	-0.019747764
140	0x3c6d00c4	0.014465515
141	0xbcb5880f	-0.022159604
142	0xbc2f8fbd	-0.010715422
143	0x3c3a2cab	0.011363189
144	0xbca28f30	-0.019843668
145	0xbc9228a7	-0.01784165
146	0x3c8b7f8f	0.017028598
147	0x3c423340	0.011853039
148	0xbcaa6f21	-0.020804944
149	0x3c2b4c90	0.010455266
150	0xbc8b8c3a	-0.017034639
151	0xbcd3fce5	-0.025877425
152	0xbc66d056	-0.014087757
153	0xbb773dde	-0.0037726085
154	0xbcb3f522	-0.021967474
155	0xbc815e38	-0.015791997
156	0xbc3ebb42	-0.011641325
157	0xbabbebc3	-0.001433723
158	0xb8e4daf6	-0.00010912672
159	0xbb99a239	-0.004688528
160	0xbc534356	-0.012894472
161	0x3bfa0593	0.007630059
162	0xbcad8fc1	-0.021186711
163	0xbc4d3bd2	-0.012526469
164	0xbc9882d4	-0.018617071
165	0x3bd97145	0.0066358172
166	0x3bdc8946	0.0067302315
167	0x3c96bb7c	0.018399946
168	0x3c1a8be6	0.009432768
169	0x3bc0f1fd	0.0058882223
170	0x3c92ae5a	0.017905403
171	0x3b165727	0.002294013
172	0xbc803fd3	-0.015655434
173	0xbb808cf0	-0.003923051
174	0x3c2654a1	0.010152013
175	0x3c7208a4	0.014772568
176	0xbbbaed98	-0.005704593
177	0xbb9d0cec	-0.0047928
178	0x3c3a5cad	0.011374635
179	0xbc8fcb97	-0.017553134
180	0xbc8d829a	-0.01727419
181	0xbb31ba8a	-0.0027119243
182	0x3b9b2f8b	0.004735892
183	0x3c047256	0.0080839
184	0x3b3b2411	0.0028555433
185	0xbcae62f5	-0.02128742
186	0x3c2b1d15	0.010443945
187	0x3cf19426	0.029489588
188	0xbc1b5fdb	-0.009483303
189	0x3b341977	0.0027480999
190	0x3c6e49ae	0.014543934
191	0xbc24e583	-0.0100644855
192	0x3bfd9367	0.007738519
193	0xb7f06a95	-2.865986e-05
194	0xbc015a65	-0.007895087
195	0x3be071cb	0.0068495027
196	0x3cbed731	0.02329597
197	0x3c70dec1	0.014701546
198	0xbc7866bb	-0.015161212
199	0xbc7f592d	-0.015585226
200	0xbb83d1e2	-0.0040228227
201	0xbc88c12b	-0.016693672
202	0xbba99c79	-0.0051761237
203	0xbc748284	-0.0149236955
204	0xbbd35675	-0.0064495155
205	0xbcb56d94	-0.022146977
206	0x3c0707c7	0.0082416
207	0x3cd6b5ce	0.026209738
208	0xbbc1de97	-0.0059164274
209	0xbc5c6b17	-0.013453267
210	0x3c327f3a	0.010894591
211	0xbc7fc505	-0.015610938
212	0x3c11b452	0.008893089
213	0x3ca3de06	0.02000333
214	0x3c5abb52	0.013350325
215	0xbcaf423c	-0.021393888
216	0x3cb118ef	0.021618335
217	0xbc1df592	-0.009641068
218	0x3c65e381	0.014031292
219	0x3cc33993	0.023831164
220	0xbc5981a7	-0.01327554
221	0x3c8e50a4	0.017372437
222	0xbc7b1cee	-0.015326722
223	0x3c83503d	0.016029472
224	0x3c54cb39	0.012987905
225	0x3bf6ef59	0.0075358567
226	0xbc86564c	-0.016398571
227	0xbc192f4e	-0.009349657
228	0xba9f2cd8	-0.0012144102
229	0x3c107ea4	0.008819256
230	0x3a97898d	0.0011561379
231	0xbcd5d2b8	-0.026101455
232	0xbcbff850	-0.023433834
233	0x3b13b3ef	0.0022537669
234	0xbba9d6bb	-0.0051830686
235	0x3b156a69	0.002279902
236	0xbb0a1d37	-0.0021074542
237	0x3c9ae1f3	0.01890657
238	0xbc8d2b6d	-0.017232621
239	0xbcaef0dd	-0.021355087
240	0x3c67de24	0.014152084
241	0x3c0e4836	0.008684209
242	0x3a8018dc	0.0009773034
243	0x3a49f8fc	0.0007704643
244	0xbc2ad513	-0.010426777
245	0xbb4cf139	-0.003127171
246	0x3adcfb58	0.0016859574
247	0xbb4e6d73	-0.0031498342
248	0x3c76e27d	0.015068647
249	0xbb994664	-0.0046775807
250	0x3b863fb0	0.0040969476
251	0x3c2964a0	0.010338932
252	0xbb055f9f	-0.0020351184
253	0x3c2ea7ed	0.010660154
254	0x3c27420c	0.010208618
255	0x3adca50a	0.0016833853

mlp.fc2.bias f4 [10]
0	0xbc594f27	-0.0132635
1	0x3cc295c4	0.023753054
2	0xbcd35467	-0.025797082
3	0x3c1cfbe8	0.0095815435
4	0x3c90d04a	0.017677445
5	0xbbe214d7	-0.006899457
6	0xbba97444	-0.0051713306
7	0xbca81c54	-0.02052132
8	0xbc552010	-0.013008133
9	0x3cc42bb6	0.023946624
